rl2022/exercise4/pendulum_latest.pt (torch, 163157 bytes, 40 tensors)

weight f4 [64, 3]
0.091829434 0.18691257 -0.21364611 -0.39566773 1.2295353 0.14636889 -0.5238895 -0.051349126
0.3674603 0.32016078 0.8140042 -0.24958546 -0.87158 0.3956552 0.12744957 -0.05017792
1.5531185 0.12662049 -0.044567067 -1.7232093 -0.328074 0.17787153 0.83609897 0.32033214
-0.093472615 0.22666635 -0.30310333 -1.008323 -0.50657463 0.05334706 0.6496615 0.16466506
-0.31855443 -1.1882945 0.40895924 0.12789004 -0.2999522 -0.9540368 -0.13624363 -0.22317
0.48513675 0.43574223 -1.105462 -1.2459506 -0.24964215 0.09199712 0.80442023 0.23907864
0.5651668 -0.1713735 -0.34785372 -0.4196723 -1.0390505 -0.07242249 -1.4832349 -1.0402185
-0.18783529 0.6332325 0.31516558 0.18586124 1.0294071 -0.04091427 -0.14101265 -1.382575
0.27146298 -0.07886463 -1.6109959 0.16711423 0.14367563 -1.6890814 0.37993598 0.18495217
-0.78166884 0.6630724 0.17193583 0.40436542 -0.34947655 0.0021453677 -0.16212647 -2.4592006
-0.5134854 0.2821651 0.30579424 0.024294736 1.2188485 -0.018695107 -0.16790222 -0.058960672
-1.1577383 -0.06395935 0.75216067 -0.6104015 -0.20060511 -0.18829627 -0.7718626 0.115229405
0.7555137 1.4086322 0.34894246 -1.2074628 -1.277275 -0.15548274 -1.1924787 0.015092118
-0.23705974 0.33570722 -1.2338585 0.22596358 -1.475736 -0.6467254 0.24794275 -0.17267124
-0.41516438 0.019856146 0.449879 -0.29740888 0.019510854 0.32444805 0.7299823 -0.09283549
1.453903 0.20781288 0.27864653 -0.46463713 0.6985309 0.12641749 0.52778906 -0.20687574
0.19524722 0.25203067 0.8089196 0.49347538 -0.26772428 0.89929444 0.0134369545 0.11327526
-1.5191474 -0.14778768 -0.5090593 -0.24626191 0.24661528 0.50832355 -0.28159252 0.27149063
0.5333761 -1.2986889 -0.35015157 0.6047044 -1.0487094 -0.30564728 -0.96785927 0.41925317
0.15284294 -0.8795227 0.8043147 -0.17683733 0.42273024 -0.49131098 -0.3047942 1.1952988
-0.47042057 -0.20314352 0.13192426 0.57850677 0.5429593 -0.037075583 1.1833259 0.36146978
0.66096145 0.2815805 0.4273092 -0.25648832 0.81666183 0.105547294 -0.16282505 1.0405529
0.08611176 -0.8808595 -0.9569906 -0.0045261937 -0.49853683 0.54682314 0.012884486 0.6774845
-0.66011125 0.012569157 1.3534026 -0.6495439 -0.043843713 0.2428879 -0.13508184 -0.2848512
00000000: 1211 bc3d 0266 3f3e 0cc6 5abe f694 cabe
00000010: 6a61 9d3f bae1 153e 9f1d 06bf 7653 52bd
00000020: c223 bc3e 1dec a33e 9462 503f 5593 7fbe
00000030: de1f 5fbf 5293 ca3e 2482 023e 5d87 4dbd
00000040: 96cc c63f cda8 013e f58b 36bd 1f92 dcbf
00000050: 51f9 a7be f423 363e 950a 563f 9302 a43e
00000060: 926e bfbd 391b 683e 5c30 9bbe ba10 81bf
00000070: e0ae 01bf 7282 5a3d 3750 263f f59d 283e
00000080: 9119 a3be 091a 98bf 1b63 d13e 9bf5 023e
00000090: 5693 99be c13b 74bf 7383 0bbe ad86 64be
000000a0: d863 f83e 9b19 df3e c77f 8dbf 4f7b 9fbf
000000b0: 31a2 7fbe fc68 bc3d 7cee 4d3f 08d1 743e
000000c0: c5ae 103f 897c 2fbe e219 b2be 4adf d6be
000000d0: 9bff 84bf 3e52 94bd a4da bdbf e125 85bf
000000e0: e557 40be 861b 223f 625d a13e 6952 3e3e
000000f0: 9dc3 833f b995 27bd 9f65 10be 38f8 b0bf
00000100: 32fd 8a3e c783 a1bd 1d35 cebf fe1f 2b3e
00000110: b41f 133e d233 d8bf f886 c23e 1a64 3d3e
00000120: 731b 48bf 1dbf 293f f20f 303e fc08 cf3e
00000130: 97ee b2be 4c99 0c3b 7b04 26be 8b63 1dc0
00000140: c773 03bf f277 903e 1091 9c3e c105 c73c
00000150: 3a03 9c3f 7b26 99bc 8fee 2bbe bf80 71bd
00000160: c530 94bf 1ffd 82bd 9a8d 403f 4643 1cbf
00000170: 6d6b 4dbe bdd0 40be ca98 45bf 65fd eb3d
00000180: 5969 413f 0f4e b43f 96a8 b23e 248e 9abf
00000190: bf7d a3bf de36 1fbe 24a3 98bf ee44 773c
000001a0: cabf 72be d1e1 ab3e 13ef 9dbf ff62 673e
000001b0: ebe4 bcbf cc8f 25bf b4e4 7d3e bbd0 30be
000001c0: 6d90 d4be 5ba9 a23c 8a56 e63e fa45 98be
000001d0: 3ad5 9f3c 0e1e a63e 1fe0 3a3f 8920 bebd
000001e0: 7e19 ba3f e6cc 543e c2aa 8e3e ebe4 edbe
000001f0: ecd2 323f 9673 013e 2f1d 073f 3cd7 53be
00000200: e3ee 473e 2a0a 813e 5b15 4f3f cea8 fc3e
00000210: 2813 89be 2938 663f ac26 5c3c dcfc e73d
00000220: 6c73 c2bf a755 17be b651 02bf 152c 7cbe
00000230: b788 7c3e 7e21 023f e52c 90be d200 8b3e
00000240: 568b 083f 703b a6bf 1147 b3be e8cd 1a3f
00000250: 1c3c 86bf cd7d 9cbe a0c5 77bf 5aa8 d63e
00000260: dc82 1c3e 6628 61bf 91e7 4d3f d814 35be
00000270: 1970 d83e 1d8d fbbe fc0d 9cbe 8dff 983f
00000280: f7da f0be db04 50be 2717 073e 0519 143f
00000290: 61ff 0a3f 91dc 17bd 3977 973f 9112 b93e
000002a0: c534 293f 522b 903e 45c8 da3e 7052 83be
000002b0: c010 513f 2e29 d83d 9cbb 26be d630 853f
000002c0: 5d5b b03d 0280 61bf 56fd 74bf 7750 94bb
000002d0: 3840 ffbe 9afc 0b3f 7319 533c a06f 2d3f
000002e0: 0dfd 28bf deee 4d3c 4c3c ad3f 8248 26bf
000002f0: 7795 33bd 9bb7 783e e552 0abe 04d8 91be

bias f4 [64]
-0.28549233 -0.07011694 0.1301469 -1.178645 -0.61362016 0.5015825 0.26812685 -0.55868965
0.1345432 0.73774856 -1.3685241 -0.37648812 -0.46680528 -0.3208862 -0.24942315 -0.2178561
-1.0116155 -0.5713406 0.5903998 -0.391405 0.43663675 -0.33638722 -0.6206733 -0.48477948
-0.5424508 -0.56109667 -0.4889881 -0.6008739 -0.011756626 -0.28260583 -1.0998327 0.13475777
0.03209914 0.004471158 -0.8227424 -0.12778343 0.37263295 -0.59883624 0.09157924 -0.43510926
0.15858112 0.35318556 -0.16604072 -0.8659042 -0.90627843 0.32228884 -0.19476548 -0.023731612
-0.60165215 -0.20176335 -0.46312347 -0.53070235 -0.25559852 -0.8892953 0.4570987 -0.2882505
-1.2892444 0.4363809 -0.24648136 0.423986 -0.14928535 -0.5274426 -0.053575158 0.14734781
00000000: 0d2c 92be 7899 8fbd 3b45 053e d7dd 96bf
00000010: 3616 1dbf b667 003f ec47 893e 4906 0fbf
00000020: b1c5 093e 17dd 3c3f cc2b afbf 0dc3 c0be
00000030: 1a01 efbe 324b a4be c868 7fbe ab15 5fbe
00000040: 9e7c 81bf 6143 12bf 7124 173f 3c66 c8be
00000050: da8e df3e f23a acbe 72e4 1ebf 0435 f8be
00000060: 0ede 0abf 08a4 0fbf a65c fabe dfd2 19bf
00000070: dd9e 40bc b6b1 90be 51c7 8cbf f1fd 093e
00000080: 637a 033d cb82 923b 3f9f 52bf a9d9 02be
00000090: bfc9 be3e 554d 19bf e68d bb3d a4c6 debe
000000a0: 1763 223e bdd4 b43e 9406 2abe e6ab 5dbf
000000b0: dd01 68bf 0b03 a53e 9a70 47be cc68 c2bc
000000c0: e005 1abf 0d9b 4ebe 851e edbe 1cdc 07bf
000000d0: cfdd 82be dba8 63bf d708 ea3e 9295 93be
000000e0: f605 a5bf 516d df3e 9c65 7cbe b114 d93e
000000f0: 42de 18be 7a06 07bf a071 5bbd 58e2 163e

weight f4 [64, 64]
-0.2378412 0.03528447 0.0368691 -0.049672976 0.10531881 -0.056114983 0.13747756 0.03439715
-0.17399569 -0.22925758 -0.15648754 0.048025418 0.14459626 0.08876557 -0.14167963 0.029253261
0.13516122 0.0006930789 -0.15885437 0.07682904 -0.1432882 -0.013518315 0.10157957 -0.11705471
0.03639822 -0.047210377 0.07766758 -0.068222955 -0.05955873 -0.06875825 0.15643089 -0.1108043
-0.029617904 -0.00079502014 -0.023391068 0.06649762 -0.09601885 0.10499305 -0.28912294 -0.1750062
-0.1427621 -0.08930382 -0.4106375 0.057515476 0.030352669 -0.10842199 -0.16871905 -0.12838662
0.13986976 0.012111335 -0.11633431 -0.014657822 0.008471622 0.12888378 -0.01891682 0.07047557
-0.114383444 -0.10672029 0.025849653 -0.070829034 -0.08833225 -0.1411252 -0.13372424 -0.09884355
0.0853265 0.05128439 -0.12803549 -0.04574418 0.103758834 0.01763152 0.001802402 0.065196544
0.02436902 -0.0015713025 0.10218223 -0.022447363 -0.014148161 0.027176784 -0.11256324 0.049953707
-0.106837854 0.026969885 -0.06778755 0.028466528 -0.080329314 -0.0856085 -0.11452684 0.0806283
-0.0625182 -0.0022046417 0.015093383 -0.07143316 0.099583685 -0.13130674 -0.06603107 -0.092185184
-0.1186919 -0.002115067 -0.0072291787 -0.06897359 0.060857095 0.07246098 0.029633168 0.108792454
0.10695256 -0.07675984 0.013760857 -0.11793013 -0.04657364 -0.08580432 -0.046132267 0.068907335
0.047604255 -0.106905185 -0.009802275 -0.037256524 -0.104790635 -0.124299094 -0.12559599 -0.092612915
0.094251364 0.104795866 -0.015590468 0.041629925 -0.04917656 0.04362314 -0.10018732 -0.09717938
0.14016747 -0.059844118 0.008050204 -0.4790014 -0.329815 0.3057274 -0.61812395 -0.0434227
0.15060604 -0.37722242 -1.3485998 -0.0637554 -0.389253 -0.058855362 -1.0843065 0.09314239
-2.4866307 -0.3824748 0.6043874 0.22314383 -1.160919 -0.39697272 -0.49155927 -0.17564592
-0.035177823 0.09894523 -1.2644331 -0.14433996 -0.8283942 0.045418184 -0.03656582 -0.59706384
-0.098803595 -1.0267891 0.47051674 -1.5577396 -0.629597 -0.12937832 0.059969038 0.6259777
0.23278193 0.124157734 -0.26308528 -0.12733361 -0.22861701 -0.810831 -0.15887555 -0.17147161
-0.27849007 -2.234834 -0.20106375 0.70812726 0.7765725 -0.5468686 0.067565724 0.09980012
0.091564685 0.23497175 0.16544816 0.2518246 0.008433215 -0.029420825 -2.3626246 0.24255042
-0.085357174 0.34982517 0.01889046 0.6283471 0.1891413 -0.01634304 0.2242592 0.08261281
0.018871283 0.42459542 -0.05267666 0.28955856 -0.169901 -0.0026492383 -0.12260315 0.12425938
0.23820724 0.29869306 -0.08463183 -0.76917636 -0.10422746 -0.23079802 0.38531736 0.21148433
0.28151822 0.042364363 0.067858174 0.03448857 -0.08673412 0.30681005 -0.04246869 0.28887278
-0.80257267 0.07704203 -0.22751404 0.1722029 0.67536026 -0.32086095 -0.1230844 -0.1972022
-0.21132839 0.11248454 0.031112237 -0.15231007 -0.48801523 0.11241931 0.017044391 -0.22717464
0.37123686 0.25474882 0.14027971 -0.498238 -0.23668413 0.54311746 0.13832684 -0.12197181
-0.6738565 -0.08746322 0.0596203 0.5543154 0.074360244 0.00587946 -0.18811068 -0.034952033
00000000: a58c 73be 7386 103d 0e04 173d e475 4bbd
00000010: 63b1 d73d d3d8 65bd ebc6 0c3e 07e4 0c3d
00000020: ed2b 32be 80c2 6abe 453e 20be 4db6 443d
00000030: 0b11 143e b9ca b53d 7714 11be 89a4 ef3c
00000040: b467 0a3e bdaf 353a b8aa 22be 8b58 9d3d
00000050: 24ba 12be ec7b 5dbc f308 d03d 61ba efbd
00000060: 4d16 153d ab5f 41bd 2e10 9f3d 7ab8 8bbd
00000070: dbf3 73bd 20d1 8cbd 6b2f 203e 5ded e2bd
00000080: 3fa1 f2bc e668 50ba a09e bfbc e72f 883d
00000090: 88a5 c4bd 9906 d73d ec07 94be d334 33be
000000a0: 3a30 12be ece4 b6bd 143f d2be 5995 6b3d
000000b0: 29a6 f83c 590c debd b0c4 2cbe c877 03be
000000c0: 053a 0f3e 9f6e 463c af40 eebd 5d27 70bc
000000d0: 8fcc 0a3c 1cfa 033e 72f7 9abc 7f55 903d
000000e0: de41 eabd 2b90 dabd a7c2 d33c d00e 91bd
000000f0: 8ae7 b4bd 2083 10be 02ef 08be 7d6e cabd
00000100: a9bf ae3d 950f 523d bc1b 03be 405e 3bbd
00000110: 837f d43d fa6f 903c 933e ec3a c485 853d
00000120: 8aa1 c73c 2af4 cdba eb44 d13d 88e3 b7bc
00000130: b0cd 67bc d9a1 de3c 8e87 e6bd 429c 4c3d
00000140: cecd dabd f3ef dc3c 33d4 8abd a332 e93c
00000150: b283 a4bd 8253 afbd 0c8d eabd 7320 a53d
00000160: 8b09 80bd c07b 10bb 3d4a 773c 8c4b 92bd
00000170: 88f2 cb3d 4675 06be 4c3b 87bd 96cb bcbd
00000180: bd14 f3bd f09c 0abb bfe2 ecbb 0742 8dbd
00000190: 4a45 793d 6c66 943d 42c1 f23c 94ce de3d
000001a0: f209 db3d 4334 9dbd 3875 613c 5a85 f1bd
000001b0: 00c4 3ebd 2dba afbd 30f5 3cbd 4a1f 8d3d
000001c0: aefc 423d 1bf1 dabd b999 20bc 4c9a 18bd
000001d0: 799c d6bd 8690 febd 3c9c 00be d7ab bdbd
000001e0: dc06 c13d 379f d63d 2a6f 7fbc 2484 2a3d
000001f0: 5c6d 49bd 2dae 323d 022f cdbd fc05 c7bd
00000200: 1088 0f3e 1b1f 75bd 01e5 033c ac3f f5be
00000210: 83dd a8be 4d88 9c3e 5f3d 1ebf 00dc 31bd
00000220: 7838 1a3e 4c23 c1be eb9e acbf 3192 82bd
00000230: 2b4c c7be 5212 71bd 8eca 8abf 70c1 be3d
00000240: f524 1fc0 bdd3 c3be 22b9 1a3f d17f 643e
00000250: fe98 94bf 0240 cbbe a8ad fbbe 86dc 33be
00000260: 9f16 10bd cca3 ca3d f2d8 a1bf dbcd 13be
00000270: a411 54bf 6b08 3a3d 0bc6 15bd 2dd9 18bf
00000280: 8a59 cabd d36d 83bf 92e7 f03e 0364 c7bf
00000290: 452d 21bf c07b 04be 18a2 753d 1340 203f
000002a0: 635e 6e3e 6946 fe3d 1db3 86be be63 02be
000002b0: 941a 6abe 9f92 4fbf 46b0 22be 4196 2fbe
000002c0: 4096 8ebe 8507 0fc0 a8e3 4dbe d447 353f
000002d0: 75cd 463f 95ff 0bbf e65f 8a3d 0164 cc3d
000002e0: 4486 bb3d 6f9c 703e 3e6b 293e 27ef 803e
000002f0: 782b 0a3c f103 f1bc 3e35 17c0 235f 783e
00000300: becf aebd 491c b33e 2ac0 9a3c 5bdb 203f
00000310: 42ae 413e d7e1 85bc 34a4 653e e830 a93d
00000320: f397 9a3c 9264 d93e 7bc3 57bd 0541 943e
00000330: 87fa 2dbe d89e 2dbb 5c17 fbbd b47b fe3d
00000340: 99ec 733e 4cee 983e 7453 adbd bee8 44bf
00000350: 3575 d5bd 5156 6cbe 5148 c53e 598f 583e
00000360: 2823 903e 4186 2d3d 3af9 8a3d e343 0d3d
00000370: a9a1 b1bd 3516 9d3e a6f3 2dbd 22e7 933e
00000380: 6775 4dbf 36c8 9d3d 71f9 68be f555 303e
00000390: 69e4 2c3f e347 a4be ad13 fcbd 60ef 49be
000003a0: 7866 58be 4b5e e63d 17df fe3c 2cf7 1bbe
000003b0: 22dd f9be 183c e63d aea0 8b3c 78a0 68be
000003c0: c212 be3e 706e 823e 7ca5 0f3e 0d19 ffbe
000003d0: 535d 72be bf09 0b3f 8da5 0d3e 5bcc f9bd
000003e0: dc81 2cbf eb1f b3bd 6a34 743d 9de7 0d3f
000003f0: 2f4a 983d 7ca8 c03b 16a0 40be dd29 0fbd

bias f4 [64]
-0.17551161 -0.11640553 -0.025930382 0.15137121 -0.16714531 -0.0961062 0.07852439 -0.003448648
-0.10290052 0.10547978 -0.1263648 0.058948003 -0.1877327 0.082017265 -0.1650162 -0.05279597
-0.14412992 0.28867075 0.077470474 -0.05504152 -0.14704472 0.0025723663 0.11358609 -0.11778369
0.066596426 0.14002119 -0.19321431 -0.20660774 -0.12797134 -0.061529342 0.13257198 0.081124105
0.041952424 -0.14842594 0.034276217 0.12039189 0.11392984 0.039214555 -0.1340831 0.11238158
-0.0798252 -0.09654964 -0.029943613 -0.08851003 -0.08544131 0.00049530354 0.030402621 0.08220318
-0.07834884 0.007958546 0.21927781 0.07728536 0.20100108 0.029941985 0.10586834 0.060559988
0.056549534 -0.1119868 -0.27396405 -0.22390187 0.014054866 0.16956182 -0.06965747 -0.09361977
00000000: 51b9 33be 0666 eebd f46b d4bc 0e01 1b3e
00000010: 2428 2bbe 54d3 c4bd 65d1 a03d b602 62bb
00000020: 82bd d2bd c805 d83d c665 01be 7673 713d
00000030: 003d 40be abf8 a73d 02fa 28be 9640 58bd
00000040: cb96 13be a7cc 933e d7a8 9e3d 3873 61bd
00000050: e492 16be 2595 283b d39f e83d 9338 f1bd
00000060: b563 883d b761 0f3e f9d9 45be fb90 53be
00000070: eb0a 03be 3106 7cbd f3c0 073e 6524 a63d
00000080: 4ed6 2b3d f8fc 17be 3865 0c3d 0690 f63d
00000090: 0c54 e93d 719f 203d 154d 09be 5028 e63d
000000a0: 657b a3bd d1bb c5bd 4f4c f5bc bf44 b5bd
000000b0: dbfb aebd 42d7 013a eb0e f93c 245a a83d
000000c0: 5b75 a0bd 9064 023c 5d8a 603e c947 9e3d
000000d0: 3ad3 4d3e e548 f53c 80d1 d83d c00d 783d
000000e0: 7ca0 673d 5659 e5bd 0445 8cbe 8846 65be
000000f0: 6146 663c 9da1 2d3e 93a8 8ebd b9bb bfbd

weight f4 [1, 64]
-0.31014696 -0.04885066 0.59555364 -0.35993347 0.44105616 1.0525856 0.21209398 0.06110246
-0.02111724 0.1787525 0.06736686 -0.87426996 1.0258535 0.8845998 0.62220293 -0.031308733
-1.2106285 0.29247695 0.21851018 0.29291576 -0.29858294 -0.1784458 -0.051457606 0.07186745
1.0861409 -0.5067433 -0.09492495 -0.10489872 -0.0518568 0.33927882 -3.770853 0.1303327
-0.69962597 -0.0774021 0.6865202 0.1576401 -0.11165331 -0.05190278 1.6797272 -0.07278017
0.8732392 -0.064565204 -0.16737758 -0.31888157 0.8854663 0.80560076 -1.163931 0.19284369
-0.70986503 0.17474231 2.5720105 0.30821228 -0.330726 0.9843363 -0.40668413 0.46558142
0.5355049 0.61253226 0.35990417 0.6985747 0.46578407 -0.23910683 -0.5623254 0.07296648
00000000: 95cb 9ebe a117 48bd 3476 183f 3349 b8be
00000010: 1dd2 e13e 20bb 863f 2a2f 593e 9346 7a3d
00000020: 10fe acbc e50a 373e a3f7 893d 28d0 5fbf
00000030: 2b4f 833f 2275 623f b148 1f3f 963d 00bd
00000040: e0f5 9abf 8abf 953e 22c1 5f3e 0ef9 953e
00000050: dddf 98be 7fba 36be 36c5 52bd 3e2f 933d
00000060: aa06 8b3f eeb9 01bf 0368 c2bd 24d5 d6bd
00000070: cc67 54bd f4b5 ad3e a855 71c0 ef75 053e
00000080: b01a 33bf fe84 9ebd cabf 2f3f 686c 213e
00000090: 7eaa e4bd 0298 54bd 4d01 d73f c50d 95bd
000000a0: 9b8c 5f3f c33a 84bd 0765 2bbe 7244 a3be
000000b0: ebad 623f da3b 4e3f b1fb 94bf d178 453e
000000c0: b7b9 35bf a6ef 323e d29b 2440 00ce 9d3e
000000d0: eb54 a9be 77fd 7b3f e738 d0be b060 ee3e
000000e0: d916 093f eace 1c3f 5c45 b83e cbd5 323f
000000f0: 407b ee3e 6cd8 74be 8ff4 0fbf 736f 953d

weight f4 [64, 3]
0.08841589 0.19506219 -0.21331736 -0.3909716 1.2265152 0.14841124 -0.5269299 -0.048310943
0.36817726 0.323536 0.8123353 -0.25068915 -0.8704286 0.3922877 0.12521406 -0.049872804
1.5591716 0.1215987 -0.04461377 -1.7266817 -0.32504955 0.18197982 0.8228582 0.3260613
-0.092653036 0.22630559 -0.3062492 -1.0047753 -0.5097956 0.053683084 0.64480865 0.16059773
-0.3153374 -1.1806173 0.41283327 0.1216905 -0.30896488 -0.9570342 -0.13195676 -0.22816665
0.48514724 0.43292734 -1.1099645 -1.2416834 -0.255091 0.10006966 0.80045074 0.2386476
0.5554201 -0.17467336 -0.3410965 -0.41930625 -1.0429472 -0.06519678 -1.4793696 -1.0425018
-0.1901365 0.63434386 0.31453013 0.1886214 1.0341184 -0.042458154 -0.12819788 -1.3804811
0.27575636 -0.08635758 -1.6054124 0.16644266 0.13969834 -1.6839566 0.38273594 0.18050827
-0.7768617 0.66255647 0.16565166 0.4043687 -0.34947875 0.0021453619 -0.16679457 -2.4554422
-0.5145011 0.28216717 0.30579743 0.024294782 1.2191709 -0.015133662 -0.16780034 -0.055693094
-1.1585766 -0.062562376 0.7529819 -0.6167714 -0.19779053 -0.187087 -0.77333367 0.12029763
0.75800455 1.4071882 0.34920228 -1.20496 -1.2814611 -0.15147981 -1.1978714 0.019690892
-0.23745595 0.33777064 -1.2348228 0.22312818 -1.4856765 -0.6464004 0.24603413 -0.17267258
-0.4151661 0.019856282 0.45527297 -0.29226926 0.017173834 0.32562757 0.7380034 -0.09885387
1.4598819 0.22000727 0.2737664 -0.4619179 0.7004708 0.121136695 0.5391673 -0.20264769
0.19351915 0.2500277 0.8072273 0.490907 -0.28312108 0.90205395 0.015215405 0.11073429
-1.5160149 -0.14597142 -0.5129837 -0.24392794 0.24793218 0.5192974 -0.2757971 0.2672491
0.5289351 -1.3010598 -0.34621134 0.59956396 -1.0547718 -0.30005386 -0.95954466 0.4199071
0.14683741 -0.87063265 0.8134901 -0.17616619 0.42376944 -0.488714 -0.3096231 1.1955593
-0.47695538 -0.19538394 0.12930845 0.5765981 0.54331136 -0.030925348 1.1872704 0.35707295
0.66027206 0.28320196 0.42640314 -0.25604683 0.81811696 0.1031623 -0.16615365 1.0396655
0.08481324 -0.8791435 -0.9582565 -0.00028066646 -0.49545568 0.5515519 0.0073449896 0.67921317
-0.6639295 0.013775822 1.3551143 -0.6537528 -0.041484147 0.23947236 -0.1369175 -0.28715912
00000000: 6413 b53d 62be 473e de6f 5abe 6e2d c8be
00000010: 73fe 9c3f 1ef9 173e e1e4 06bf b2e1 45bd
00000020: bb81 bc3e 83a6 a53e 35f5 4f3f 545a 80be
00000030: 69d4 5ebf efd9 c83e 1d38 003e 6d47 4cbd
00000040: ef92 c73f bd08 f93d eebc 36bd e803 ddbf
00000050: e56c a6be eb58 3a3e d6a6 523f 82f1 a63e
00000060: e0c0 bdbd a7bc 673e b2cc 9cbe 7a9c 80bf
00000070: f781 02bf cbe2 5b3d 2e12 253f bb73 243e
00000080: e773 a1be 781e 97bf e25e d33e de38 f93d
00000090: a530 9ebe 3100 75bf ac1f 07be 85a4 69be
000000a0: 3865 f83e a7a8 dd3e 5113 8ebf 7bef 9ebf
000000b0: 4a9b 82be 52f1 cc3d 57ea 4c3f 0960 743e
000000c0: 0330 0e3f 93dd 32be 33a4 aebe 4faf d6be
000000d0: 4b7f 85bf e485 85bd fc5b bdbf b370 85bf
000000e0: 25b3 42be 5c64 223f 180a a13e f825 413e
000000f0: fe5d 843f 9ae8 2dbd 4e46 03be 9bb3 b0bf
00000100: f02f 8d3e 3edc b0bd 277e cdbf f26f 2a3e
00000110: 150d 0f3e e48b d7bf f7f5 c33e 29d7 383e
00000120: 69e0 46bf 4d9d 293f 97a0 293e 6a09 cf3e
00000130: e1ee b2be 3399 0c3b 32cc 2abe f725 1dc0
00000140: 58b6 03bf 3778 903e 7b91 9c3e da05 c73c
00000150: cb0d 9c3f 2ef3 77bc dad3 2bbe 711e 64bd
00000160: 3d4c 94bf b420 80bd 6cc3 403f bbe4 1dbf
00000170: 9a89 4abe bc93 3fbe 32f9 45bf 9b5e f63d
00000180: 960c 423f be1e b43f a4ca b23e 213c 9abf
00000190: eb06 a4bf 861d 1bbe da53 99bf cb4e a13c
000001a0: a727 73be 46f0 ac3e ac0e 9ebf b77b 643e
000001b0: a62a bebf 7f7a 25bf 5ff0 7b3e 15d1 30be
000001c0: a790 d4be a4a9 a23c 8a19 e93e 51a4 95be
000001d0: 24b0 8c3c a8b8 a63e caed 3c3f e673 cabd
000001e0: 69dd ba3f 9649 613e 1c2b 8c3e 8180 ecbe
000001f0: 0e52 333f 8416 f83d de06 0a3f e082 4fbe
00000200: e229 463e a103 803e 73a6 4e3f 2a58 fb3e
00000210: 3ff5 90be 02ed 663f 094a 793c a9c8 e23d
00000220: c70c c2bf 8879 15be e652 03bf 3fc8 79be
00000230: efe1 7d3e adf0 043f 4735 8dbe e0d4 883e
00000240: 4a68 073f 2189 a6bf 9d42 b1be 067d 193f
00000250: c302 87bf a9a0 99be b8a4 75bf 10fe d63e
00000260: 8c5c 163e c8e1 5ebf e340 503f e964 34be
00000270: 4ff8 d83e b938 fabe eb86 9ebe 1608 993f
00000280: 7f33 f4be ba12 48be 6f69 043e ef9b 133f
00000290: 7416 0b3f 2857 fdbc 7af8 973f 44d2 b63e
000002a0: 9707 293f d9ff 903e 8351 da3e 9218 83be
000002b0: 1d70 513f c246 d33d 2f24 2abe c213 853f
000002c0: 90b2 ad3d 8c0f 61bf 4c50 75bf 6a26 93b9
000002d0: 5eac fdbe 8132 0d3f 3dae f03b eae0 2d3f
000002e0: 49f7 29bf fcb3 613c 6374 ad3f 585c 27bf
000002f0: 48eb 29bd 3e38 753e 1a34 0cbe 8506 93be

bias f4 [64]
-0.2851182 -0.07332097 0.12599716 -1.177533 -0.6142833 0.50155336 0.26759484 -0.55614173
0.13701665 0.73932356 -1.3717425 -0.3829775 -0.4631444 -0.32580826 -0.24694814 -0.21909587
-1.0200924 -0.56831473 0.5890835 -0.38600454 0.44530877 -0.33040017 -0.6261504 -0.4884409
-0.5489427 -0.56109184 -0.4942698 -0.60087204 -0.0071863136 -0.28004274 -1.0976714 0.13739367
0.03136383 0.009088754 -0.8178438 -0.12920876 0.3654161 -0.59883356 0.09313654 -0.4292667
0.1518981 0.353688 -0.15711764 -0.87025183 -0.8977266 0.32035828 -0.19773947 -0.0171034
-0.6068324 -0.2056633 -0.46862364 -0.5210729 -0.25068322 -0.89168745 0.45433715 -0.29097512
-1.2897044 0.43587813 -0.24720922 0.42604166 -0.14692701 -0.5240089 -0.051622108 0.15307069
00000000: 03fb 91be 4e29 96bd 6605 013e 67b9 96bf
00000010: ac41 1dbf cd65 003f 3102 893e 4e5f 0ebf
00000020: 184e 0c3e 4f44 3d3f 4295 afbf a015 c4be
00000030: 4321 edbe 57d0 a6be f9df 7cbe ab5a 60be
00000040: 6392 82bf 137d 11bf 2dce 163f 63a2 c5be
00000050: 83ff e33e 362a a9be 654b 20bf ed14 fabe
00000060: 8287 0cbf b7a3 0fbf ee10 fdbe c0d2 19bf
00000070: 2b7b ebbb c361 8fbe 7f80 8cbf edb0 0c3e
00000080: 5c77 003d ffe8 143c 365e 51bf 4d4f 04be
00000090: d217 bb3e 284d 19bf 5fbe be3d d8c8 dbbe
000000a0: 2d8b 1b3e 9816 b53e 72e3 20be d3c8 5ebf
000000b0: 69d1 65bf 0006 a43e 377c 4abe 6e1c 8cbc
000000c0: 5e59 1bbf 6699 52be 70ef efbe 0965 05bf
000000d0: 8d59 80be a145 64bf e19e e83e b1fa 94be
000000e0: 0915 a5bf 6b2b df3e 6a24 7dbe 2222 da3e
000000f0: 0974 16be 7325 06bf b471 53bd 90be 1c3e

weight f4 [64, 64]
-0.2378414 0.03528431 0.036869418 -0.049672883 0.105319634 -0.056114666 0.13747898 0.03439731
-0.17399582 -0.22925682 -0.15648694 0.048025556 0.14459728 0.08876593 -0.14167964 0.029253334
0.13516185 0.00069308217 -0.15885325 0.0768286 -0.14328748 -0.0135183 0.101580195 -0.11705432
0.03639854 -0.047210094 0.07766827 -0.068222426 -0.059558697 -0.06875812 0.1564318 -0.11080403
-0.029617857 -0.0007950156 -0.023391027 0.066498354 -0.09601834 0.10499257 -0.28912306 -0.17500612
-0.14276147 -0.089303866 -0.4106362 0.05751574 0.030352855 -0.10842207 -0.16871929 -0.1283863
0.13987061 0.012111349 -0.11633385 -0.014657775 0.008471644 0.12888399 -0.018916948 0.07047623
-0.114384025 -0.106721096 0.02584972 -0.07082865 -0.08833231 -0.14112532 -0.1337239 -0.0988436
0.08532673 0.051284444 -0.12803464 -0.045744188 0.10375949 0.01763172 0.0018024077 0.06519674
0.024369102 -0.0015712999 0.10218295 -0.022447225 -0.014148161 0.027176855 -0.11256311 0.049953766
-0.10683807 0.026969915 -0.06778731 0.028466739 -0.080329314 -0.08560837 -0.11452634 0.080628395
-0.062518075 -0.0022046417 0.015093447 -0.07143316 0.09958418 -0.13130544 -0.06603107 -0.092185006
-0.118691966 -0.0021150473 -0.0072291424 -0.068973444 0.06085733 0.07246106 0.029633315 0.1087931
0.10695281 -0.07675931 0.013760909 -0.11792977 -0.046573438 -0.08580432 -0.04613199 0.06890787
0.047604598 -0.10690513 -0.009802227 -0.03725648 -0.10479066 -0.124299094 -0.12559569 -0.09261267
0.0942518 0.10479661 -0.015590401 0.04162997 -0.0491763 0.043623377 -0.10018694 -0.09717914
0.14179079 -0.054138776 0.012810642 -0.47558782 -0.32312068 0.31107497 -0.6181216 -0.039493877
0.14986263 -0.37077826 -1.3485769 -0.056867316 -0.389253 -0.05435766 -1.084299 0.09767485
-2.4865408 -0.38247296 0.592211 0.22377129 -1.1612127 -0.4086668 -0.4867646 -0.16887455
-0.028190635 0.09894523 -1.2644244 -0.14434098 -0.82602847 0.045418594 -0.03656581 -0.59741765
-0.09445982 -1.0271657 0.46601084 -1.5575404 -0.6233141 -0.12937723 0.05372111 0.62863475
0.23386347 0.12956929 -0.26383838 -0.12362347 -0.22005427 -0.8108296 -0.15563886 -0.17045043
-0.27848956 -2.2348306 -0.19397742 0.7042496 0.7772635 -0.5468642 0.071626306 0.10454333
0.09122829 0.24029443 0.17197186 0.24871624 0.017517833 -0.02942079 -2.3627017 0.24534105
-0.08357603 0.3470411 0.018206183 0.6289388 0.18765245 -0.01855094 0.22601625 0.08053164
0.020922989 0.42467085 -0.052830473 0.28834772 -0.17071237 -0.0039099874 -0.12400826 0.122118205
0.23934582 0.2965123 -0.08129119 -0.77300984 -0.10076647 -0.23076923 0.38431436 0.21041852
0.27982157 0.042364597 0.06904606 0.034488954 -0.08359167 0.30863163 -0.0410357 0.28929958
-0.8050683 0.07724708 -0.2300031 0.17283699 0.6751557 -0.32086253 -0.1205195 -0.19394986
-0.2115515 0.1112932 0.030667005 -0.15409397 -0.4767865 0.11550819 0.016340893 -0.22756784
0.37207577 0.2561688 0.13882703 -0.49315828 -0.2351022 0.54543984 0.13733818 -0.12395764
-0.6764899 -0.08857131 0.055469353 0.5550503 0.071547695 0.00909703 -0.18464385 -0.032833543
00000000: b28c 73be 4886 103d 6304 173d cb75 4bbd
00000010: d2b1 d73d 7ed8 65bd 4ac7 0c3e 32e4 0c3d
00000020: f62b 32be 4dc2 6abe 1d3e 20be 72b6 443d
00000030: 4f11 143e e9ca b53d 7814 11be b0a4 ef3c
00000040: de67 0a3e f5af 353a 6daa 22be 5058 9d3d
00000050: f4b9 12be dc7b 5dbc 4709 d03d 2dba efbd
00000060: a316 153d 5f5f 41bd 8b10 9f3d 33b8 8bbd
00000070: d2f3 73bd 0fd1 8cbd a82f 203e 39ed e2bd
00000080: 26a1 f2bc 9868 50ba 8a9e bfbc 4a30 883d
00000090: 43a5 c4bd 5806 d73d f007 94be ce34 33be
000000a0: 1030 12be f2e4 b6bd e83e d2be a095 6b3d
000000b0: 8da6 f83c 640c debd c0c4 2cbe b377 03be
000000c0: 3e3a 0f3e ae6e 463c 7140 eebd 2a27 70bc
000000d0: a6cc 0a3c 2afa 033e b7f7 9abc d755 903d
000000e0: 2c42 eabd 9790 dabd cbc2 d33c 9c0e 91bd
000000f0: 92e7 b4bd 2883 10be ebee 08be 836e cabd
00000100: c8bf ae3d a30f 523d 831b 03be 425e 3bbd
00000110: db7f d43d 6670 903c c43e ec3a de85 853d
00000120: b6a1 c73c 13f4 cdba 4b45 d13d 3ee3 b7bc
00000130: b0cd 67bc ffa1 de3c 7d87 e6bd 529c 4c3d
00000140: ebcd dabd 03f0 dc3c 13d4 8abd 1433 e93c
00000150: b283 a4bd 7153 afbd c98c eabd 8020 a53d
00000160: 7a09 80bd c07b 10bb 814a 773c 8c4b 92bd
00000170: caf2 cb3d ef74 06be 4c3b 87bd 7ecb bcbd
00000180: c614 f3bd 9b9c 0abb 71e2 ecbb f341 8dbd
00000190: 8945 793d 7766 943d 91c1 f23c ebce de3d
000001a0: 130a db3d fc33 9dbd 7075 613c 2a85 f1bd
000001b0: cac3 3ebd 2dba afbd e6f4 3cbd 921f 8d3d
000001c0: 0afd 423d 14f1 dabd 8599 20bc 409a 18bd
000001d0: 7c9c d6bd 8690 febd 289c 00be b6ab bdbd
000001e0: 1607 c13d 9b9f d63d e26e 7fbc 3084 2a3d
000001f0: 176d 49bd 6dae 323d cf2e cdbd db05 c7bd
00000200: 9b31 113e 9fc0 5dbd bae3 513c 3f80 f3be
00000210: 1370 a5be 3845 9f3e 383d 1ebf 55c4 21bd
00000220: 9775 193e a6d6 bdbe 2b9e acbf b4ed 68bd
00000230: 2b4c c7be 23a6 5ebd 4fca 8abf c009 c83d
00000240: 7c23 1fc0 7fd3 c3be 249b 173f 4d24 653e
00000250: 9ea2 94bf c63c d1be 3639 f9be 73ed 2cbe
00000260: 0cf0 e6bc cca3 ca3d a9d8 a1bf 1fce 13be
00000270: 9a76 53bf d908 3a3d 08c6 15bd 5df0 18bf
00000280: 2674 c1bd 2a7a 83bf f998 ee3e 7c5d c7bf
00000290: 8391 1fbf 777b 04be ab0a 5c3d 35ee 203f
000002a0: e879 6f3e d0ad 043e d315 87be 4d2e fdbd
000002b0: e855 61be 8792 4fbf cb5f 1fbe 8f8a 2ebe
000002c0: 2f96 8ebe 7707 0fc0 04a2 46be b449 343f
000002d0: befa 463f 4bff 0bbf d0b0 923d d01a d63d
000002e0: e6d5 ba3d be0f 763e 6419 303e 78af 7e3e
000002f0: 8f81 8f3c de03 f1bc 8136 17c0 af3a 7b3e
00000300: e929 abbd 5faf b13e 2225 953c 2202 213f
00000310: f727 403e 24f8 97bc ce70 673e c6ed a43d
00000320: b066 ab3c 756e d93e c464 58bd 50a2 933e
00000330: 39cf 2ebe 5a1f 80bb 0bf8 fdbd 1c19 fa3d
00000340: 1217 753e 76d0 973e ff7b a6bd f9e3 45bf
00000350: a75e cebd c54e 6cbe dac4 c43e f477 573e
00000360: c644 8f3e 8086 2d3d 0568 8d3d 4a44 0d3d
00000370: 1c32 abbd f704 9e3e 0d15 28bd 131f 943e
00000380: f518 4ebf b833 9e3d ef85 6bbe 2efc 303e
00000390: 01d7 2c3f 1848 a4be edd2 f6bd cb9a 46be
000003a0: f5a0 58be b0ed e33d 5f39 fb3c cfca 1dbe
000003b0: 5c1d f4be 8f8f ec3d 56dd 853c 8b07 69be
000003c0: b780 be3e 8f28 833e ac28 0e3e 3e7f fcbe
000003d0: a2be 70be f2a1 0b3f 61a2 0c3e 81dd fdbd
000003e0: 712e 2dbf e064 b5bd d533 633d c717 0e3f
000003f0: 9987 923d b60b 153c 4713 3dbe 777c 06bd

bias f4 [64]
-0.17551127 -0.116405375 -0.02123247 0.15282923 -0.16479123 -0.09519639 0.077450916 -0.0034486328
-0.10290052 0.10812575 -0.12636422 0.059556067 -0.18440193 0.084751464 -0.16501784 -0.052795798
-0.14503838 0.2876752 0.07647985 -0.055116933 -0.14537945 0.0016181018 0.11408727 -0.11778374
0.06673543 0.1396998 -0.19321387 -0.20660704 -0.12797056 -0.058016803 0.13811561 0.08031851
0.040268876 -0.1484254 0.034731906 0.11994386 0.11461854 0.039214864 -0.13767686 0.11369968
-0.0796026 -0.096550606 -0.029883957 -0.088509634 -0.084506966 0.00046831503 0.035847068 0.08163126
-0.077778056 0.00684209 0.22039178 0.0771164 0.20135513 0.030578246 0.10441906 0.05601823
0.056453332 -0.11120654 -0.2739626 -0.22465539 0.013741201 0.17007953 -0.070459254 -0.09361924
00000000: 3ab9 33be f165 eebd b8ef adbc 447f 1c3e
00000010: 08bf 28be 53f6 c2bd 969e 9e3d 7502 62bb
00000020: 82bd d2bd 0971 dd3d 9f65 01be 10f1 733d
00000030: dcd3 3cbe 2d92 ad3d 70fa 28be 6840 58bd
00000040: f184 14be 2a4a 933e 78a1 9c3d 4bc2 61bd
00000050: 5ade 14be 7d16 d43a 96a6 e93d 9a38 f1bd
00000060: 96ac 883d 770d 0f3e dbd9 45be cc90 53be
00000070: b70a 03be 07a3 6dbd 2e6e 0d3e 087e a43d
00000080: faf0 243d d4fc 17be 0b43 0e3d 20a5 f53d
00000090: 20bd ea3d c49f 203d 2afb 0cbe 61db e83d
000000a0: b006 a3bd 53bc c5bd 33cf f4bc 8a44 b5bd
000000b0: fd11 adbd 2e88 f539 60d4 123d 4a2e a73d
000000c0: 1a4a 9fbd 9c33 e03b 62ae 613e 34ef 9d3d
000000d0: 0a30 4e3e 3b7f fa3c a9d9 d53d 5f73 653d
000000e0: 9c3b 673d 41c0 e3bd d344 8cbe 100c 66be
000000f0: c622 613c 5429 2e3e f14c 90bd 72bb bfbd

weight f4 [1, 64]
-0.31014857 -0.048850708 0.59421855 -0.36100483 0.44010612 1.0554051 0.21226661 0.061102826
-0.02111724 0.17513129 0.06736709 -0.8734737 1.0254897 0.8759749 0.6222045 -0.031308953
-1.2058325 0.29278207 0.21873976 0.2920349 -0.29570648 -0.17744705 -0.053895757 0.071867995
1.0795075 -0.50704414 -0.09492533 -0.10489869 -0.05185702 0.33990636 -3.7755353 0.13005666
-0.7009766 -0.077402286 0.6858207 0.15797769 -0.11202035 -0.05190284 1.6737123 -0.07369256
0.8652251 -0.064564936 -0.16766894 -0.31888366 0.88422 0.8071541 -1.1628088 0.19255954
-0.7107458 0.17453985 2.5726786 0.3053268 -0.32959542 0.98346716 -0.40478602 0.45693406
0.52932364 0.6125436 0.35990658 0.6997153 0.46216166 -0.23911506 -0.56147 0.07296622
00000000: cbcb 9ebe ae17 48bd b51e 183f a0d5 b8be
00000010: 9755 e13e 8417 873f 6b5c 593e f546 7a3d
00000020: 10fe acbc 9e55 333e c2f7 893d f99b 5fbf
00000030: 3f43 833f e43f 603f cb48 1f3f d13d 00bd
00000040: b858 9abf 88e7 953e 51fd 5f3e 9985 953e
00000050: d766 97be aeb4 35be ccc1 5cbd 872f 933d
00000060: 4d2d 8a3f a5cd 01bf 3668 c2bd 20d5 d6bd
00000070: 0768 54bd 3508 ae3e 5fa2 71c0 932d 053e
00000080: 3473 33bf 1785 9ebd f291 2f3f e7c4 213e
00000090: ed6a e5bd 1398 54bd 343c d63f 20ec 96bd
000000a0: 647f 5d3f 9f3a 84bd 68b1 2bbe b844 a3be
000000b0: 3e5c 623f a7a1 4e3f ebd6 94bf 542e 453e
000000c0: 70f3 35bf 93ba 323e c4a6 2440 cb53 9c3e
000000d0: bbc0 a8be 81c4 7b3f 1d40 cfbe 43f3 e93e
000000e0: c181 073f a8cf 1c3f ad45 b83e 8b20 333f
000000f0: 74a0 ec3e 94da 74be 7fbc 0fbf 506f 953d

weight f4 [64, 4]
0.008802572 1.3528082 1.3464011 0.45428744 -0.075253814 -0.43049034 0.05702679 0.5938237
0.072105385 -0.47072086 0.92608225 -0.07565155 0.14296003 -1.3237119 1.7382785 0.47340658
0.07259546 -0.53142947 1.8752584 0.39926836 -0.11126165 -2.4492931 -0.47216254 -0.1540742
-0.39256805 -1.2689108 0.31220603 -0.17769921 -0.34707978 -0.49927154 1.6534945 0.16327423
0.028658642 0.26556647 1.2563205 -0.021665065 0.02206528 -0.82806426 0.37270638 -0.45615277
0.1202608 -0.37844893 1.7200077 0.08908775 -0.22723317 -0.11996208 -0.9516812 0.18186446
0.15725951 -0.6816034 -0.22781028 0.41517276 -0.54972726 0.42788416 1.3591796 0.02001872
-0.2967918 -0.15659218 0.6682131 -0.08853521 -0.24329318 -3.1938865 0.5820527 0.42924
-0.08184906 -0.62939775 0.5403551 -0.2904089 -0.14721884 -1.4597789 -2.6308756 -0.62219715
0.54452026 0.15193787 -0.6696173 -0.09548807 0.07649758 -2.518712 -0.08455425 0.3314526
-0.14202282 -0.7318288 -3.2446806 -0.6479624 -0.06567087 1.448824 0.67453736 -0.2781824
0.16796479 -1.445131 -0.5682949 -0.37175646 0.109168 -0.9566745 1.1329058 0.07822016
0.062305085 -1.2360104 -1.0519295 -0.41195092 -0.0204677 0.24380514 -1.0928608 -1.0085317
-0.006022913 1.5664452 -1.4590098 0.24132726 -0.05104223 0.21954831 0.23897435 0.07346748
0.077817634 -0.010751373 2.105054 0.42694953 -0.4850812 1.3386424 0.3108396 0.05639196
-0.0040080934 -1.6091695 -0.48166803 -0.33444715 0.05406533 -1.3767934 1.572941 0.24363187
0.06715183 -0.5973853 -0.7551612 0.040811043 0.0014802217 -0.28894895 0.23361838 0.00030457973
-0.004759187 -0.9266824 -1.1333216 -0.32821354 0.2142399 1.5028034 -0.6511379 0.09750991
0.13519545 -0.1978055 -0.11969604 0.07486707 -0.51926464 -0.4545423 -0.20150632 -0.78047854
-0.4054078 -1.3437712 -0.35489744 -0.25250798 -0.23920907 -0.8081541 0.8246379 -0.2026671
0.11719637 -0.5371602 -1.4786428 0.111648634 -0.11820269 -0.62890714 0.3422736 -0.21639231
0.013683782 1.6429143 -0.019054344 -0.27141547 0.18346547 -1.493064 -0.9812903 0.039130535
0.11680127 -0.90833503 0.85819757 -0.10552885 -0.046210106 -1.7104523 0.9685835 0.07950445
0.15776338 1.1926289 1.0756147 0.30607525 0.27363428 -1.007452 1.4717984 0.11295672
-0.23732738 -1.3529177 1.5225031 0.50926054 0.042434156 -0.88780934 -1.2728348 0.19765626
-0.13441192 0.043266382 -0.009256264 -0.63581425 0.080562465 -0.71974975 -0.065095 0.12849687
0.14607574 -0.8972081 -0.8553276 -0.3176064 0.11742917 -1.150211 0.5638095 0.33561212
-0.06762806 -1.305918 0.18547651 0.16692312 0.5131963 0.028841464 0.48214698 0.16550635
0.25296324 -0.8059892 -1.3820359 -0.36573339 0.09223922 -1.3643566 1.2849963 0.43628263
-0.24123785 -1.4377649 -0.32572827 -0.21409354 -0.13865659 -0.4413738 -0.8954129 -0.6705261
-0.13999854 -0.25681224 0.5629179 0.54478276 -0.14849862 -1.3955015 -0.281582 0.7230212
0.08713031 -1.167904 1.0720025 0.3768525 -0.12448888 0.38365442 -0.43666705 0.06145018
00000000: aa38 103c d228 ad3f df56 ac3f 5d98 e83e
00000010: ac1e 9abd 3b69 dcbe ec94 693d d404 183f
00000020: fdab 933d 5302 f1be ba13 6d3f 33ef 9abd
00000030: 1d64 123e 646f a9bf e97f de3f 5962 f23e
00000040: eeac 943d c30b 08bf 7808 f03f e76c cc3e
00000050: 26dd e3bd 38c1 1cc0 4abf f1be a1c5 1dbe
00000060: aefe c8be ab6b a2bf 78d9 9f3e c8f6 35be
00000070: 71b4 b1be 85a0 ffbe b5a5 d33f 5c31 273e
00000080: 87c5 ea3c 54f8 873e 1ccf a03f ef7a b1bc
00000090: 3fc2 b43c 05fc 53bf 5fd3 be3e db8c e9be
000000a0: 4b4b f63d 0fc4 c1be 3629 dc3f a373 b63d
000000b0: d0af 68be aeae f5bd 61a1 73bf ad3a 3a3e
000000c0: a308 213e 8f7d 2ebf 1947 69be 8691 d43e
000000d0: edba 0cbf a213 db3e 99f9 ad3f 4cfe a33c
000000e0: 18f5 97be b359 20be 0410 2b3f f351 b5bd
000000f0: d921 79be a368 4cc0 6801 153f 58c5 db3e
00000100: 7ba0 a7bd 3620 21bf b654 0a3f 7ab0 94be
00000110: 89c0 16be 09da babf 4460 28c0 5048 1fbf
00000120: ae65 0b3f 9a95 1b3e 0a6c 2bbf 408f c3bd
00000130: c3aa 9c3d 9432 21c0 c72a adbd 28b4 a93e
00000140: 6e6e 11be 2259 3bbf d9a8 4fc0 dde0 25bf
00000150: 737e 86bd 1173 b93f 7bae 2c3f ec6d 8ebe
00000160: f6fe 2b3e 0dfa b8bf c67b 11bf dd56 bebe
00000170: 7993 df3d 9fe8 74bf 0f03 913f e431 a03d
00000180: 9e33 7f3d 9735 9ebf a0a5 86bf 3beb d2be
00000190: e1ab a7bc 0ea8 793e dde2 8bbf 9117 81bf
000001a0: db5b c5bb 4781 c83f d5c0 babf 7e1e 773e
000001b0: a811 51bd 46d1 603e b1b5 743e 1e76 963d
000001c0: da5e 9f3d 8726 30bc 34b9 0640 2199 da3e
000001d0: 905c f8be a258 ab3f 5e26 9f3e 41fb 663d
000001e0: 5356 83bb 44f9 cdbf 319d f6be a83c abbe
000001f0: 9c73 5d3d c43a b0bf 2156 c93f a27a 793e
00000200: e686 893d 3eee 18bf 3f52 41bf 7b29 273d
00000210: 0004 c23a 1ef1 93be a839 6f3e 00b0 9f39
00000220: f4f2 9bbb 0f3b 6dbf af10 91bf 9b0b a8be
00000230: b461 5b3e dd5b c03f f9b0 26bf 47b3 c73d
00000240: ad70 0a3e 868d 4abe 3323 f5bd e853 993d
00000250: 87ee 04bf c5b9 e8be ac57 4ebe 71cd 47bf
00000260: 9c91 cfbe b200 acbf 1eb5 b5be ba48 81be
00000270: 39f3 74be 30e3 4ebf 781b 533f f787 4fbe
00000280: a704 f03d 5583 09bf 2b44 bdbf 0aa8 e43d
00000290: 4014 f2bd 0f00 21bf 7c3e af3e f295 5dbe
000002a0: f131 603c 044b d23f db17 9cbc f8f6 8abe
000002b0: 5fde 3b3e b91c bfbf d735 7bbf 5747 203d
000002c0: 8135 ef3d a588 68bf d6b2 5b3f 821f d8bd
000002d0: cf46 3dbd 1af0 dabf 17f5 773f 3bd3 a23d
000002e0: b98c 213e 10a8 983f bead 893f e5b5 9c3e
000002f0: cb19 8c3e 30f4 80bf e463 bc3f da55 e73d
00000300: f305 73be 682c adbf 62e1 c23f e65e 023f
00000310: 70cf 2d3d 7947 63bf 40ec a2bf 6766 4a3e
00000320: 47a3 09be 1738 313d 96a7 17bc b9c4 22bf
00000330: effd a43d 8541 38bf 8750 85bd af94 033e
00000340: e194 153e 6eaf 65bf c0f6 5abf 4e9d a2be
00000350: b47e f03d 1d3a 93bf d255 103f 5ad5 ab3e
00000360: 9580 8abd 5228 a7bf 8eed 3d3e e5ed 2a3e
00000370: d560 033f ef44 ec3c f8db f63e 7f7a 293e
00000380: 6684 813e 4f55 4ebf 8de6 b0bf 6841 bbbe
00000390: ebe7 bc3d 3da3 aebf c27a a43f 7060 df3e
000003a0: 0e07 77be ae08 b8bf dbc5 a6be 563b 5bbe
000003b0: fefb 0dbe bffb e1be c839 65bf 99a7 2bbf
000003c0: c75b 0fbe e57c 83be 631b 103f e276 0b3f
000003d0: 0610 18be cb9f b2bf 842b 90be eb17 393f
000003e0: 6071 b23d e17d 95bf 6137 893f d0f2 c03e
000003f0: 07f4 febd 5a6e c43e d392 dfbe 2fb3 7b3d

bias f4 [64]
-0.3876308 -0.67069876 0.565409 1.2571039 0.5238647 -0.40264416 0.61977464 0.39573795
-0.9199818 -0.9341859 0.35021108 1.149079 -0.82881695 -0.5693054 0.9050896 -0.15454386
1.2520076 1.0112835 1.1457961 0.3954037 0.3250807 -0.46658793 0.9974822 0.7801555
1.1422894 0.4890006 -0.46236056 0.9094591 0.16145884 0.50155276 0.72353065 -0.4013748
1.2160354 -0.43196929 0.7338134 0.16115074 1.1276429 -0.86795264 0.80273557 0.99327284
0.8982167 1.1014912 -0.4559232 0.5248852 0.9008823 1.2079694 -0.044533778 0.82122713
1.1441995 0.7800517 -0.63364005 1.2098597 0.7960613 1.2605004 1.5891967 1.1959333
1.45857 1.2840149 0.2530031 -0.38307396 -0.24392463 0.26556885 1.1393831 0.864045
00000000: 8b77 c6be eab2 2bbf a5be 103f c8e8 a03f
00000010: ff1b 063f 6027 cebe 8da9 1e3f 2a9e ca3e
00000020: ed83 6bbf cf26 6fbf de4e b33e 0515 933f
00000030: 592d 54bf 00be 11bf f4b3 673f bf40 1ebe
00000040: c941 a03f bd71 813f 72a9 923f 5b72 ca3e
00000050: fa70 a63e 9de4 eebe fe5a 7f3f 45b8 473f
00000060: 8a36 923f 495e fa3e 86ba ecbe 50d2 683f
00000070: 7755 253e c365 003f 4e39 393f ff80 cdbe
00000080: 0ca7 9b3f 142b ddbe 32db 3b3f b304 253e
00000090: 9a56 903f 2532 5ebf 1480 4d3f 2147 7e3f
000000a0: 88f1 653f aafd 8c3f c46e e9be e05e 063f
000000b0: 39a0 663f be9e 9a3f 0d69 36bd f13b 523f
000000c0: 2175 923f 78b1 473f 3c36 22bf afdc 9a3f
000000d0: acca 4b3f 1458 a13f cc6a cb3f 5814 993f
000000e0: 6cb2 ba3f 9a5a a43f 9f89 813e 4522 c4be
000000f0: 61c7 79be a4f8 873e 4ed7 913f 0e32 5d3f

weight f4 [64, 64]
0.44686887 -0.78634477 0.3605986 0.5531829 0.32589862 0.5142736 0.5694748 0.22135442
0.39821234 -1.0363879 0.16907127 0.634515 -0.5360936 0.018287448 0.3783969 0.22811441
0.5882463 0.10036872 0.44125 0.23247875 0.1629918 0.9051409 0.28199077 0.13499793
0.30203256 -0.17093149 0.8558071 0.31428695 0.30067748 0.3041158 0.5574674 0.44512022
0.4320071 -0.08651723 0.47644883 0.5657959 0.36060384 -0.3571969 0.5017527 0.41824678
0.6577814 0.6360323 1.5509692 0.6612798 0.5151731 0.20659177 0.5071074 0.3190111
0.111074746 0.7342722 -0.49424347 0.23422426 0.44615167 0.3982891 0.05023997 0.26760423
0.119994 0.17315426 0.43873733 -0.23547196 -0.46541438 0.13031137 0.31930482 0.6252296
0.2358662 -0.6908808 0.37821168 0.2839138 0.10473816 0.5453673 0.5483171 0.13153768
0.2641913 -0.92854387 0.14804281 0.56813765 -0.49460247 0.037636608 0.28225994 0.26418218
0.53606296 0.3088617 0.23615965 0.22896358 0.28410304 0.7076354 0.3058383 0.25451702
0.41321868 -0.094904736 0.7332156 0.26484814 0.07504719 0.31909314 0.4757387 0.38345206
0.35206538 -0.015883163 0.20220616 0.39811623 0.44346973 -0.27148408 0.5391899 0.5403603
0.4253545 0.534859 1.5735309 0.5083239 0.51903105 0.18717404 0.529195 0.2986442
0.19910039 0.59503675 -0.5562288 0.090474166 0.31088716 0.46014592 0.13066313 0.24095346
-0.1302354 0.25498444 0.44470668 -0.23909004 -0.46873382 0.022156803 0.3409619 0.59157306
0.20005995 -0.5266144 0.36844715 0.44690847 0.1570387 0.46301207 0.40349895 0.18734802
0.30930603 -0.98457694 0.15496467 0.6315589 -0.4122935 0.077757694 0.2134644 0.06347941
0.46208408 0.072339006 0.33293977 0.25759572 0.33589932 0.64724296 0.27682894 0.17415318
0.4083794 -0.18758106 0.81893986 0.49161786 0.15556437 0.2505302 0.57706004 0.35305986
0.48610023 -0.119531065 0.34535447 0.45717698 0.31970116 -0.39705575 0.45837548 0.43816832
0.4927642 0.5520524 1.4703066 0.6475968 0.48057073 0.1689169 0.6357641 0.10912105
0.24579924 0.86161536 -0.5883962 0.10961083 0.37180358 0.43790698 0.09376081 0.18793412
0.07186979 0.3335439 0.5706352 -0.28436393 -0.63753057 0.06891336 0.43545723 0.63099104
-6.6443458 1.6562182 -0.38081428 -2.5916984 -3.1888115 0.530004 0.4548509 -0.6666488
-2.252252 1.0236194 -0.80928147 0.762766 3.0621827 -1.2401607 0.30687684 -2.4568882
0.49253747 0.6390797 0.73948115 -1.021637 0.5247646 -1.7549601 0.6037695 -0.4707487
0.6529578 0.35213953 1.4143004 -0.9064433 -2.3769085 -0.80008507 0.48978108 -6.843239
1.0520083 -0.11085071 0.74164635 0.7393243 0.7290099 0.59648335 0.32646558 -0.453859
0.8123676 0.41586965 -1.0957215 0.78842723 0.51062846 -0.48266956 -0.98509705 -0.4166157
-4.738409 0.63195246 0.68565935 0.90246046 0.27423468 -1.9740038 -0.634768 -0.009927613
0.5466906 -1.8082311 0.7396832 0.47422358 0.77134055 3.7287858 -1.7445726 0.5046289
00000000: ffcb e43e e44d 49bf 61a0 b83e 659d 0d3f
00000010: 2fdc a63e 6fa7 033f 1ac9 113f bcaa 623e
00000020: 7de2 cb3e 5ca8 84bf 0521 2d3e 936f 223f
00000030: 6e3d 09bf 8fcf 953c 3dbd c13e d396 693e
00000040: 4f97 163f 1e8e cd3d 85eb e13e e90e 6e3e
00000050: 53e7 263e 50b7 673f 1861 903e e63c 0a3e
00000060: 03a4 9a3e aa08 2fbe 2d16 5b3f 38ea a03e
00000070: 66f2 993e 11b5 9b3e 2fb6 0e3f cce6 e33e
00000080: 0930 dd3e f22f b1bd 1af1 f33e 00d8 103f
00000090: 11a1 b83e 83e2 b6be dd72 003f 7124 d63e
000000a0: 5d64 283f 03d3 223f 2986 c63f a249 293f
000000b0: 62e2 033f cb8c 533e cad1 013f 6c55 a33e
000000c0: 287b e33d 43f9 3b3f 7b0d fdbe 7cd8 6f3e
000000d0: fe6d e43e 8dec cb3e 6dc8 4d3d 6c03 893e
000000e0: 6abf f53d 5a4f 313e 2ea2 e03e 901f 71be
000000f0: cb4a eebe 5870 053e ec7b a33e 0c0f 203f
00000100: e986 713e 90dd 30bf f6a4 c13e 265d 913e
00000110: f680 d63d 319d 0b3f 825e 0c3f d0b1 063e
00000120: 1544 873e 0db5 6dbf 8998 173e 7871 113f
00000130: 893c fdbe d828 1a3d 6084 903e e342 873e
00000140: 6c3b 093f 1f23 9e3e d6d3 713e 6e75 6a3e
00000150: f475 913e 9827 353f d696 9c3e 0e50 823e
00000160: 6691 d33e 6a5d c2bd 04b4 3b3f 2d9a 873e
00000170: 57b2 993d 2d60 a33e 0694 f33e d453 c43e
00000180: ea41 b43e 681d 82bc 220f 4f3e e4d5 cb3e
00000190: 770e e33e f6ff 8abe 5908 0a3f 0d55 0a3f
000001a0: 11c8 d93e 85ec 083f 7669 c93f 8421 023f
000001b0: 38df 043f 8daa 3f3e 5379 073f e5e7 983e
000001c0: f9e0 4b3e 5454 183f 0365 0ebf 854a b93d
000001d0: 9a2c 9f3e 3f98 eb3e 8ecc 053e 81bc 763e
000001e0: 6e5c 05be 528d 823e 98b0 e33e 05d4 74be
000001f0: e1fd efbe 2f82 b53c 8f92 ae3e 5571 173f
00000200: 84dc 4c3e 34d0 06bf 1ba5 bc3e 30d1 e43e
00000210: c1ce 203e eb0f ed3e 6a97 ce3e 29d8 3f3e
00000220: 5c5d 9e3e 3c0d 7cbf 0faf 1e3e d8ad 213f
00000230: 2218 d3be 6d3f 9f3d 6996 5a3e 7e01 823d
00000240: 4996 ec3e 7926 943d 1577 aa3e 96e3 833e
00000250: fffa ab3e b7b1 253f 86bc 8d3e 3655 323e
00000260: 1b17 d13e 4015 40be 0ba6 513f 56b5 fb3e
00000270: 444c 1f3e 7f45 803e 35ba 133f 43c4 b43e
00000280: 21e2 f83e b4cc f4bd 4dd2 b03e 1a13 ea3e
00000290: dfaf a33e e44a cbbe 31b0 ea3e 9957 e03e
000002a0: 974b fc3e 4e53 0d3f 0233 bc3f e7c8 253f
000002b0: 5e0d f63e 8df8 2c3e 70c1 223f db7a df3d
000002c0: ccb2 7b3e d392 5c3f 22a1 16bf a57b e03d
000002d0: 0a5d be3e 5835 e03e ab05 c03d cd71 403e
000002e0: 7830 933d 44c6 aa3e 2615 123f 2698 91be
000002f0: 3435 23bf 7322 8d3d 40f4 de3e a188 213f
00000300: 7b9e d4c0 f5fe d33f 17fa c2be 63de 25c0
00000310: 7d15 4cc0 58ae 073f 38e2 e83e 7fa9 2abf
00000320: e624 10c0 f605 833f 122d 4fbf a244 433f
00000330: cdfa 4340 96bd 9ebf f61e 9d3e a83d 1dc0
00000340: df2d fc3e ba9a 233f a34e 3d3f 00c5 82bf
00000350: f956 063f 88a2 e0bf a390 1a3f f905 f1be
00000360: 3e28 273f a24b b43e cc07 b53f ab0c 68bf
00000370: 451f 18c0 60d2 4cbf 96c4 fa3e d0fb dac0
00000380: 35a8 863f b205 e3bd 89dc 3d3f 5b44 3d3f
00000390: 65a0 3a3f 22b3 183f 7f26 a73e 3560 e8be
000003a0: 53f7 4f3f deec d43e 9a40 8cbf 5ed6 493f
000003b0: 8cb8 023f 7720 f7be 522f 7cbf a74e d5be
000003c0: 0ca1 97c0 a3c7 213f 5f87 2f3f a607 673f
000003d0: 7d68 8c3e 28ac fcbf 2880 22bf 6da7 22bc
000003e0: eaf3 0b3f 1e74 e7bf e15b 3d3f 6fcd f23e
000003f0: 9376 453f 6da4 6e40 284e dfbf 5c2f 013f

bias f4 [64]
0.5718353 0.53838855 0.5918897 0.3729214 -0.27818602 0.5503029 -0.06258672 0.46114928
0.5962607 0.10858609 0.090409376 0.37483698 0.6463748 -0.03198512 -0.10159904 0.48623782
-0.009357647 0.4931251 -0.022965642 0.48264584 0.6205716 0.66224235 0.57752526 0.44923282
0.58960384 0.051344104 0.46519133 0.60850906 -0.06375312 0.5072887 -0.064249985 0.44122297
0.24993381 0.5100887 0.068947844 0.043267306 0.5037606 0.6243716 0.5866729 -0.09339607
0.6576569 0.41128066 0.5574909 0.5036082 0.08834212 -0.12317082 -0.1030521 0.47232595
0.17411426 0.41860026 0.31916544 0.24231905 0.22056243 -0.03127652 -0.28885096 0.03803866
0.5651673 0.49198937 0.05523096 0.5559233 0.21628083 0.6440786 0.6136017 -0.1068744
00000000: cc63 123f d5d3 093f 1586 173f 8eef be3e
00000010: 666e 8ebe a7e0 0c3f 772d 80bd c21b ec3e
00000020: 8ba4 183f 6262 de3d 8d28 b93d a2ea bf3e
00000030: d278 253f d402 03bd 2813 d0bd 2af4 f83e
00000040: d150 19bc e57a fc3e 7122 bcbc 5b1d f73e
00000050: c8dd 1e3f b788 293f b2d8 133f d801 e63e
00000060: 47f0 163f 324e 523d 8f2d ee3e 40c7 1b3f
00000070: ff90 82bd acdd 013f 7f95 83bd fae7 e13e
00000080: a6ee 7f3e 2c95 023f 8734 8d3d 0f39 313d
00000090: 74f6 003f d1d6 1f3f 3230 163f 7046 bfbd
000000a0: 345c 283f 6193 d23e b9b7 0e3f 78ec 003f
000000b0: b7ec b43d fc40 fcbd fb0c d3bd b5d4 f13e
000000c0: 024b 323e c652 d63e a769 a33e 7c22 783e
000000d0: 1edb 613e cf1b 00bd 46e4 93be 6dce 1b3d
000000e0: ceae 103f 08e6 fb3e dc39 623d fd50 0e3f
000000f0: b978 5d3e 56e2 243f 0015 1d3f f7e0 dabd

weight f4 [1, 64]
-0.5258889 -0.50161684 -0.62764007 1.8712227 1.6334658 -0.6495215 -0.29687512 -0.55502325
-0.45080292 -0.0022232395 -0.0038022685 -0.5587425 -0.5527637 0.010600218 1.0567875 -0.63188636
0.094039 1.8598542 0.06646021 -0.5685 16.661377 -0.57651734 -0.55096793 1.612722
-0.53805685 0.061043985 -0.5128503 -0.54073524 0.09657258 -0.51651293 -0.026000077 -0.55756927
2.7203999 -0.5188119 0.27039257 0.038336426 -0.60110736 -0.6255692 -0.5153511 0.051141582
-0.5236055 -0.55050653 -0.57074064 -0.60997313 0.060607623 0.10403369 0.0015331645 5.0199647
0.91310096 -0.51034015 -0.51644033 0.8151442 1.5727468 1.145555 0.8778951 0.03168999
-0.5355232 -0.51729596 0.12288649 -0.5301209 1.2850996 -0.53650594 -0.55337435 0.0812232
00000000: a8a0 06bf f669 00bf 05ad 20bf 3a84 ef3f
00000010: 6815 d13f 0b47 26bf 0400 98be 0116 0ebf
00000020: a4cf e6be c5b3 11bb 7b2f 79bb c009 0fbf
00000030: ec81 0dbf 89ac 2d3c d044 873f 4ec3 21bf
00000040: 8597 c03d b40f ee3f 4a1c 883d 3789 11bf
00000050: 804a 8541 a496 13bf 3c0c 0dbf ad6d ce3f
00000060: 18be 09bf 4209 7a3d 284a 03bf a06d 0abf
00000070: d8c7 c53d 313a 04bf 1dfe d4bc dcbc 0ebf
00000080: 081b 2e40 dbd0 04bf e570 8a3e a806 1d3d
00000090: 2ce2 19bf 4e25 20bf 0dee 03bf d679 513d
000000a0: 030b 06bf ffed 0cbf 0f1c 12bf 3327 1cbf
000000b0: b33f 783d 9e0f d53d 77f4 c83a 8da3 a040
000000c0: fcc0 693f a7a5 02bf 6f35 04bf 4aad 503f
000000d0: c44f c93f 8ca1 923f bcbd 603f 5dcd 013d
000000e0: 0c18 09bf 826d 04bf e9ab fb3d 01b6 07bf
000000f0: 257e a43f 7458 09bf f1a9 0dbf 5958 a63d
