dqn_lunarlander_latest.pt (torch, 163869 bytes, 24 tensors)

weight f4 [128, 8]
000000 46 a9 48 3e 72 a7 ae be 8b 06 2f 3e bf 0f 6e bf
       0.19595823 -0.34112126 0.1709234 -0.92992777
000010 f8 71 45 3e 8b dd 99 3f f2 c7 72 bd 3c 1c 03 c0
       0.19281757 1.2020735 -0.059272714 -2.0485983
000020 48 55 be bf 4e 28 62 3e 31 9d 1e bf 57 f8 5d bf
       -1.4869776 0.22085688 -0.61958605 -0.8670706
000030 7b 3a 8a 3e e0 32 b8 3d 88 cd c1 be 77 f0 e5 be
       0.26997742 0.08994079 -0.3785212 -0.44910023
000040 79 26 32 be c1 e7 93 be 15 3c 26 3f de c3 49 bf
       -0.17397489 -0.28887752 0.6493543 -0.78814495
000050 60 2f df bf a9 a8 46 3f 0c 2a 03 3f 14 ad 46 3f
       -1.7436333 0.77601105 0.51236033 0.77607846
000060 f1 f1 cf 3e bc cc bb bf 63 4b 4a be e6 b5 d3 bf
       0.40614274 -1.4671855 -0.1975532 -1.6539886
000070 47 82 69 3f c4 ef bd 3f 75 c8 ae 3e c8 b6 c0 be
       0.9121441 1.4838796 0.34137312 -0.3763945
000080 e5 ea e6 3e a0 06 b0 3e 4d 1e 72 bf 15 21 26 bf
       0.45101085 0.34380054 -0.94577485 -0.6489423
000090 e2 11 fc 3f 5c 42 a6 3f d6 94 73 bd 70 16 92 3c
       1.9692957 1.2989001 -0.059468113 0.017832965
0000a0 f1 1d 7c bf fc 6f 48 3e 06 08 87 3e 71 77 63 3f
       -0.98483187 0.19573969 0.2637331 0.8885413
0000b0 15 83 d2 bf b2 d8 dd bd 1e d6 3d 3e 27 bc 93 3e
       -1.6446253 -0.10832347 0.1853871 0.28854486
0000c0 da cd c2 be 69 a1 60 3e 84 b5 c4 be bc f3 02 bf
       -0.38047677 0.21936573 -0.38419735 -0.5115316
0000d0 e9 c6 08 bd a7 69 7d be 8c ac a9 3f 22 2c c0 bd
       -0.03339282 -0.24747334 1.3255782 -0.09383418
0000e0 2b c9 d5 bf 73 9e 2b b9 16 4d 52 bf db 9e 08 3f
       -1.6702017 -0.00016366858 -0.82148874 0.53367394
0000f0 a9 55 74 be b2 b4 2f be 2e da 1b 3e a7 83 24 bd
       -0.23860802 -0.17158774 0.15219948 -0.040164616
000100 c1 3c c8 3e 21 6e 2b 3f 5e bd 63 3e 9c 64 49 be
       0.39108852 0.6696492 0.22240207 -0.19667286
000110 43 ad fd bd a6 8a 49 3d db 73 f3 3e 6b 87 1b 3f
       -0.12386563 0.04920449 0.47549328 0.60753506
000120 c0 71 46 bf 47 4b bf be 0a 99 91 bf 3d 42 bf be
       -0.7751732 -0.3736212 -1.1374829 -0.37355223
000130 1c 09 9f 3e 00 39 a0 bd b7 b8 d5 ba 18 75 48 be
       0.31061637 -0.07823372 -0.001630566 -0.19575918
000140 66 b6 aa 3e e2 88 25 3c 2e 10 04 3f bf 2e af 3e
       0.33342284 0.010103436 0.5158719 0.34215352
000150 c2 34 93 bf 04 aa 8b bf 5b 10 4f 3e 6e 9f 9a 3f
       -1.1500475 -1.091126 0.20221083 1.2079904
000160 fc f6 2d 3d ab bf 1e 3e 04 6e 8a bf b2 8b 4f bf
       0.04247187 0.15502803 -1.0814824 -0.81072533
000170 05 e8 15 3e 73 07 3b bd 7d 9c d6 bd 7f bb b5 3e
       0.1463929 -0.0456614 -0.104790665 0.3549461
000180 66 8e 54 3f e3 bd 45 bf 06 17 92 3e 95 b9 2a bf
       0.8302978 -0.7724287 0.2853319 -0.66689426
000190 b4 a0 b6 be 24 dd 34 be 11 e9 5c 3e c1 3c b5 3e
       -0.35669482 -0.17662483 0.21573283 0.35397914
0001a0 23 33 20 be b7 ab 56 3d 27 21 ce 3e c6 48 40 40
       -0.15644507 0.052409854 0.40259668 3.0044417
0001b0 3f d6 67 be 3a 74 6f be 1c c7 2b 3d a2 1e bf bd
       -0.22640322 -0.2338418 0.041937932 -0.093320146
0001c0 79 5f a8 bf 75 fa ae 3c 2d 22 ff be 46 84 2b bf
       -1.3154136 0.021359662 -0.49830762 -0.6699871
0001d0 bf 9c 80 be 41 e6 04 bd 1e c9 1b bf 83 f5 d6 be
       -0.25119588 -0.03244615 -0.60853755 -0.41984186
0001e0 b1 9c c4 bf 44 25 c1 3e 07 cd a1 3f d5 7b f7 be
       -1.5360318 0.37723744 1.2640694 -0.48336664
0001f0 ed bb 23 bf 0b 14 0b 3f 74 b1 50 be 54 69 04 3e
       -0.63958627 0.5432746 -0.20380193 0.12930804
000200 4b 12 6f 3e af fb fe 3e ce 54 fc be b9 b5 27 3f
       0.23346822 0.49801394 -0.4928345 0.6551166
000210 40 a5 42 3f 80 55 b0 3e 62 4a aa 3f 44 69 6c 3e
       0.760334 0.3444023 1.330395 0.2308703
000220 62 89 03 3f 08 f6 9f 3d 91 fd a6 3e f1 57 8a bf
       0.51381505 0.078105986 0.3261533 -1.0808088
000230 7d 50 39 be af 96 bc 3e c8 9f 03 bf a3 a0 1b 3f
       -0.1809711 0.36833712 -0.5141568 0.6079199
000240 a3 e5 8a bd 9f 10 04 3f b3 c0 20 bf 7c 16 b9 bf
       -0.06782081 0.5158786 -0.62794036 -1.4459987
000250 2a 8f 83 3d 79 fd a9 be 1a b5 3a 3f 68 d1 46 3d
       0.06423791 -0.33201197 0.7293259 0.04853955
000260 e6 50 f4 3d 5c 6b 2d bf d7 37 cb be 37 d6 09 c0
       0.11929493 -0.6774194 -0.3969104 -2.1536996
000270 f8 6a 66 3e 13 cb 66 3e 0b 70 a6 3e cb 9b f7 3d
       0.22501743 0.22538404 0.32507357 0.12090262
000280 50 5d ba bf f0 9a 03 be 13 28 9c bf 47 6f 38 be
       -1.4559727 -0.12852073 -1.219973 -0.18011199
000290 cf 0e 5d be 5e 76 04 bf 2f 96 63 be 6f 30 89 3e
       -0.2158768 -0.51743114 -0.22225259 0.26794764
0002a0 37 3a 06 bf 6e 7a 7a bf c2 0a 5f bf fd 8b 00 bf
       -0.5243258 -0.9784306 -0.8712579 -0.50213605
0002b0 76 2d 20 be 25 a2 1f 3e 19 4e 88 3f ad 2b 4c be
       -0.15642342 0.15589197 1.0648834 -0.19938536
0002c0 50 ec d0 be 19 59 4b bf 4f ec 1e be 95 f0 14 bf
       -0.40805292 -0.7943283 -0.15519832 -0.581796
0002d0 44 87 ae 3f 5b f8 2c 3e 96 3f a3 3e 7c 1f 39 3e
       1.363503 0.16891615 0.3188445 0.18078417
0002e0 d9 72 af be fa 28 02 3f f8 5e a4 be 30 d8 cd 3e
       -0.3426731 0.50843775 -0.32103705 0.40204
0002f0 75 e9 75 bf a1 db 6a 3e be fa b5 3d dc 2f 51 3f
       -0.9605935 0.22935344 0.08885716 0.8171365
000300 93 a0 36 3e f0 9b 02 3f 66 97 d9 3d 04 16 38 3f
       0.17834692 0.5101919 0.1062458 0.71908593
000310 ec 69 5a bf 4a a3 3f bf 86 8a e9 3d e1 1b cc 3f
       -0.85317874 -0.74858534 0.114033744 1.5946008
000320 41 44 0d be 2f 4c c2 be 2d f0 64 bf f7 3d 85 3e
       -0.13795568 -0.37948748 -0.8942898 0.26023838
000330 6c 22 e3 3e f9 05 50 bf cb 9a f2 3d fc ca 28 3f
       0.443622 -0.81259114 0.11845931 0.6593473
000340 91 ff 4b 3f cf 5e 92 be 15 fa 2f 3f 1d da 6d bc
       0.7968684 -0.28587958 0.6874097 -0.014517334
000350 c0 7a b2 be f9 34 0a 3f 8c c8 d7 3c c3 c8 1c c0
       -0.34859276 0.5398708 0.026340745 -2.4497535
000360 22 6b 54 bf c8 d8 a8 bd 75 f9 84 bf d8 cb 59 be
       -0.8297597 -0.08244473 -1.0388628 -0.21269166
000370 16 36 0c 3f 4d ac 99 bf d3 d4 82 bd 2e d3 02 c0
       0.5477003 -1.2005707 -0.06388249 -2.0441394
000380 9c f7 33 bf 34 d0 f9 be 4e 35 c9 be ca d7 2a bf
       -0.70299697 -0.4879166 -0.3929848 -0.6673552
000390 13 1f 9f 3e 41 bd 8f bd d9 3a 38 3f f1 8c ea bd
       0.31078395 -0.07018519 0.71964794 -0.11452664
0003a0 e4 25 1d be 4f e1 c5 3e 0f d2 9c bd 56 e6 94 bf
       -0.15346485 0.3864846 -0.07657253 -1.1632793
0003b0 97 9e 48 3d d8 15 a7 3e a6 1f 23 bd bd fd 03 bd
       0.048979368 0.32633853 -0.039825104 -0.032224406
0003c0 92 dd e2 bf 8e a5 63 be 64 0b e2 bf 17 ed 19 3f
       -1.7723868 -0.22231123 -1.7659726 0.60127395
0003d0 ca 4f 16 3f b3 52 97 3d 1a 8c 0d 3e 57 3f 0d bd
       0.587155 0.073888205 0.13822976 -0.034484234
0003e0 68 39 79 be 3a b4 76 be 4a bb 30 bf 0e ad e0 bd
       -0.24338305 -0.24092188 -0.6903578 -0.109705076
0003f0 c1 ca 98 3f 6d 9f 33 bf 6e 7b 21 bf fd 9e 3b 3d
       1.1936876 -0.7016514 -0.63078964 0.04580592

bias f4 [128]
000000 55 98 77 be 9c 9a 0b 3f 9b c6 ea 3e 6c 54 ec 3e
       -0.24179204 0.5453279 0.4585465 0.4615816
000010 c1 8e a5 3d f5 91 d2 3b 55 42 a0 3f 94 19 4f be
       0.08083869 0.006426091 1.2520243 -0.20224601
000020 29 a4 8b 3f e0 9c e6 3e e0 20 8d 3e 1c 3d ac 3e
       1.0909473 0.4504156 0.27564144 0.33640373
000030 b9 f0 b5 3e a4 48 1b 3d ff 96 1f 3f 7c 1f 74 3f
       0.3553522 0.037911072 0.62339777 0.9536054
000040 57 a2 60 3f 20 7c 86 3f 04 45 d7 3d b1 c1 da be
       0.8774771 1.050663 0.105112106 -0.427259
000050 70 ca 64 be cc 8e 8c 3f aa 2d 2b 3e ff e0 bd be
       -0.22342849 1.0981078 0.16716638 -0.3708572
000060 9b 2d 40 3e e8 93 03 3e f4 39 7d 3e a7 46 1b 3f
       0.18767397 0.1284939 0.24729139 0.6065468
000070 d4 a9 26 3f 68 d4 85 3e 7f 35 03 bf eb 9d ee be
       0.6510289 0.26138616 -0.51253504 -0.46604857
000080 93 6c 84 3f 58 fc 94 be 0c 5d 28 bc 65 1e 87 3f
       1.0345634 -0.29098773 -0.01027609 1.0556151
000090 f1 c8 cc 3f 35 3c 3f be 89 9a 60 bd b3 b6 02 3f
       1.5998822 -0.18675311 -0.054834876 0.51060027
0000a0 56 0f 9a 3f f3 77 9b 3e 37 bf 75 be 2f 9c 13 bd
       1.203593 0.30364951 -0.23998724 -0.03603762
0000b0 b6 fb 8e 3e c1 94 4f 3f 34 10 79 3f 37 10 7f 3e
       0.27926415 0.81086355 0.9729035 0.24908529
0000c0 2f ac 0b be 9b 25 eb 3f ed 72 0d 3f 68 50 0e bf
       -0.13639902 1.8370851 0.5525349 -0.5559144
0000d0 36 3d 8d 3f fa f9 b2 3e 4c e5 28 3e 80 76 45 3f
       1.1034305 0.34956342 0.1649372 0.7713394
0000e0 24 c0 79 be 20 75 d2 3d 3c 0d dc 3d 9d 37 cf 3f
       -0.24389702 0.10276246 0.10744712 1.6188847
0000f0 13 22 9a 3f d2 7e fd 3e f5 16 cb be 0d d0 74 3e
       1.2041649 0.4951082 -0.39665952 0.2390749
000100 68 05 b9 3f fc 5a e1 3e 87 83 91 3f d3 10 14 be
       1.4454775 0.44014728 1.1368264 -0.14459543
000110 e0 de fa be f7 aa 2e be a1 3a 52 be 35 dc d2 3e
       -0.48998165 -0.17057405 -0.20530178 0.4118363
000120 1a 31 5d 3f 9a f1 60 be 8b 03 9c 3d 97 8f 8f 3f
       0.8640305 -0.21967164 0.07617863 1.1215695
000130 af 96 ee 3d 49 7d 9d bd 3d 45 00 bf 36 c9 f2 3e
       0.11649834 -0.07689912 -0.5010565 0.47419137
000140 8b 09 0c 3f ea c6 df 3e 98 17 6d 3f 19 fc 53 3f
       0.5470206 0.43706447 0.92614126 0.82806545
000150 e4 98 91 3d cf 6e 67 3e 6f c6 85 b9 ad 37 47 3f
       0.0710924 0.22600864 -0.0002551558 0.7781933
000160 5e 02 72 3f 17 3a bc bb b6 1c 84 3e 0a 3c 18 3e
       0.9453486 -0.0057442295 0.25803155 0.14866653
000170 5c 57 62 3f d1 f2 c9 3f aa 85 8f 3f 15 0d d6 3e
       0.8841455 1.5777227 1.1212666 0.41806856
000180 75 41 17 bf ab 1e a8 3e a2 43 40 be 5f 9b 5e bc
       -0.59084255 0.32835898 -0.187758 -0.013586848
000190 ec dd 38 3c 38 ee e8 3d 4e e4 30 3f 9e 93 3e 3f
       0.011283379 0.113735616 0.69098365 0.74443996
0001a0 01 5c d7 3d 74 90 00 bf 51 24 92 3f cf 1f a2 3e
       0.10515595 -0.5022042 1.1417333 0.31664893
0001b0 5b f4 60 bc d4 ea 8a 3f 07 c3 61 bf f6 8d c5 be
       -0.013730134 1.0852914 -0.88188213 -0.3858487
0001c0 4d eb a3 3e da e0 c6 be 1f 4c ba 3f ec 65 52 bf
       0.32015458 -0.38843423 1.455448 -0.8218677
0001d0 8e d2 c4 3d 3f 7d 85 3e c7 e0 aa 3f f1 81 9e be
       0.096104726 0.26072118 1.3349847 -0.30958512
0001e0 99 e7 ef bd 3f 76 33 3e 7f ab 2c 3f bb 98 99 be
       -0.117140956 0.17525576 0.6744918 -0.29999337
0001f0 9f 23 09 bf 68 fc 0b 3f 59 da b1 be 61 ba 82 be
       -0.5356998 0.54682016 -0.347369 -0.2553282

weight f4 [64, 128]
000000 6f 13 39 bf 2f 6b 8d 3e 47 78 07 3e 6a 34 9a be
       -0.7229528 0.27620837 0.13229476 -0.30118114
000010 c8 1b fe 3e 4d 18 a7 3f 52 16 51 3e 2c 8d 36 bf
       0.4963057 1.3054291 0.20418671 -0.7130916
000020 81 4c 2a 3e 69 b1 32 be c2 e8 14 c0 a3 93 52 3e
       0.16630746 -0.17450489 -2.3267064 0.20564131
000030 ee c1 aa 3d 20 c8 82 3f 84 19 e0 3b ce 71 bb 3e
       0.083377704 1.0217323 0.006838979 0.36610264
000040 1a d8 e6 3d c2 a0 46 3e 6e 08 c1 3d c2 d5 01 bf
       0.11271687 0.19397262 0.09425436 -0.50716794
000050 77 18 8a 3e aa 3a 41 3e a9 73 dd bc 4b 20 af bf
       0.2697179 0.18870035 -0.02703269 -1.368173
000060 ef 0d 14 c1 66 84 5c bf c7 b2 3c 3f 16 e7 74 be
       -9.253402 -0.86139524 0.7371029 -0.23916277
000070 07 ac 2f 3e ce 75 b4 3e 62 bc 95 3d a4 ce 57 3f
       0.17155467 0.35246128 0.07311322 0.84299684
000080 62 0d e6 3d f3 63 d9 bc c1 c1 b5 bc 7a 8b b9 3e
       0.11233021 -0.026536917 -0.022187116 0.36239225
000090 74 e0 6b 3e a6 8a c6 be 1f 85 76 be 0f 8c 5a 3e
       0.23034841 -0.38777655 -0.24074219 0.2134249
0000a0 a9 ec 4a 3e 4a 49 7a be fa 66 a0 bf c8 7f e3 3e
       0.19816841 -0.2444202 -1.2531426 0.44433427
0000b0 af 19 34 bf 89 12 36 3d fb 71 2c 3c 4e 50 9b bd
       -0.7035169 0.04445127 0.010525222 -0.07583676
0000c0 79 bc cb bd b6 32 85 3e 2e 78 c9 be 9f 0f d1 3e
       -0.09948058 0.26015252 -0.39349502 0.4083223
0000d0 85 f2 84 3e dd 5d f6 3e b9 69 c6 3e 84 11 50 be
       0.25966278 0.48118487 0.38752535 -0.20319182
0000e0 3c 13 a3 bf 28 17 40 c1 e1 75 e0 3e d2 0c a4 bd
       -1.2740245 -12.005653 0.43839934 -0.08010258
0000f0 e2 0b 3e 3e b8 f2 f0 3e 6e 55 16 3f 59 08 25 bf
       0.1855922 0.4706018 0.58724105 -0.6446586
000100 34 f0 80 3e 11 9e 43 bc 66 bd ed bf c2 55 8b 3e
       0.2518326 -0.011939541 -1.8573425 0.27213866
000110 9d 6b fc bf 8a 55 3c 3e 0f be c0 bf 73 a0 79 bd
       -1.9720341 0.18392006 -1.5058001 -0.060944032
000120 ff 39 88 3e 4a 39 61 3e 7e 83 1a be 75 4b 7e 3e
       0.26606748 0.2199451 -0.15089223 0.24833472
000130 3c 75 75 be 7f f2 96 3d 6e 38 f9 3d b5 94 d5 3d
       -0.23970503 0.07370471 0.12168966 0.10428754
000140 b8 87 10 bc 65 bb 40 3e 21 1e b1 3e d4 ce a1 3e
       -0.00882142 0.18821485 0.345933 0.3160311
000150 3c 75 00 be c1 bb 4a bf f3 f8 85 bf 78 26 3d be
       -0.12544721 -0.7919274 -1.0466598 -0.18471706
000160 03 c6 c3 3e 10 a9 4a 3f 47 46 04 c1 34 e8 8a bd
       0.38237008 0.7916422 -8.267158 -0.067825705
000170 98 54 b3 3e bf 21 3f 3e 56 3a 8d 3e 80 19 2e c0
       0.35025477 0.18665217 0.2758357 -2.7203064
000180 3b e0 83 3e 15 5b a9 bd 81 67 aa be dc 56 db 3e
       0.25757012 -0.08269326 -0.33282092 0.42839706
000190 77 89 53 be 21 aa 78 be 24 2b 40 3e 80 31 13 bf
       -0.20657907 -0.24283649 0.18766457 -0.57497406
0001a0 ca 85 4a bf 9a 08 da be 38 22 1d 3e 8d 30 d1 3d
       -0.79110396 -0.42584687 0.15345085 0.102143385
0001b0 29 9c ab 3e cc af 00 bb 38 d4 5e 3e 82 91 10 3f
       0.33517578 -0.0019636033 0.21760643 0.5647203
0001c0 75 e5 6e bf 51 56 5f be 59 3f 08 3e f0 ad c9 bf
       -0.93318874 -0.21810271 0.13305415 -1.5756207
0001d0 f6 79 26 bf b5 4a 0e bf 23 77 44 3e bc b0 3b bf
       -0.6502985 -0.55582744 0.19186072 -0.7331655
0001e0 d7 69 d3 3e af 77 a1 3e 9b e1 70 be e6 dc ff 3e
       0.41291687 0.31536624 -0.23523562 0.4997322
0001f0 44 f6 d4 3d 2a f3 ce be a2 dc 14 3e c4 f2 3c be
       0.10398534 -0.40419894 0.1453729 -0.18451983
000200 ce f0 9b bd 39 61 7a bc 29 d5 0a bd 97 85 59 3a
       -0.07614289 -0.015281969 -0.03389469 0.00082977995
000210 16 a7 62 3d ed 2e 86 3d ef 79 b1 bb dc 6e 02 3d
       0.055335127 0.06551919 -0.005416147 0.031844005
000220 cb 11 1a ba ea 30 0a bd b7 85 95 3c 38 4c 89 3c
       -0.0005877285 -0.033738054 0.018252237 0.016759977
000230 ed 36 a4 bd 6e a7 89 bd d8 e6 d6 3c 99 59 9a bc
       -0.08018289 -0.06721388 0.026233122 -0.018841552
000240 eb 66 33 bd 70 61 b1 bd fe a9 47 bd a3 c2 c5 ba
       -0.043799322 -0.08661163 -0.0487461 -0.0015087913
000250 15 89 8a 3c b9 bd 13 bd 3e c1 4e 3d 71 7d b6 bd
       0.016911069 -0.036069605 0.05047726 -0.08910645
000260 ed ca e2 3c 30 9b a0 bb b8 c7 7f 3c 81 d2 be 3c
       0.027684653 -0.0049013123 0.0156115815 0.023293735
000270 2f a7 2e 3d 2a 8e 26 3d 46 70 93 3d a8 bc 2d bd
       0.042639907 0.040662922 0.07199149 -0.042416245
000280 67 7b 1a bd 69 8a 60 3d 88 0e 16 3d 31 87 59 3c
       -0.037715342 0.0548195 0.03663495 0.013276861
000290 74 8c 59 bd 48 89 35 3d 64 cc b9 bc 47 c6 84 3d
       -0.053112462 0.044320375 -0.022680469 0.06483131
0002a0 2c 8d b0 bd 45 fc e2 3c ea 85 65 3d 4f 1d 5c 3d
       -0.086206764 0.027708182 0.056035914 0.05373889
0002b0 a2 be 86 bd 27 de e8 bc 03 ae b6 bd c3 22 a1 3c
       -0.06579329 -0.028426243 -0.08919909 0.019669896
0002c0 91 df 75 bd c6 d5 9c 3b 8f 4b 70 bd 2d 84 d0 bd
       -0.060027663 0.004786226 -0.05866581 -0.101814605
0002d0 a1 60 4d bd 4c 43 30 bd 26 67 86 bc ab e2 19 bc
       -0.05014098 -0.04303293 -0.016406607 -0.009392421
0002e0 da df 20 bc 05 dc 6f bd 8b 5d d4 3b c8 50 de 3c
       -0.009818995 -0.058559436 0.0064808778 0.027138129
0002f0 4f 97 5b bd 99 fb 87 3d 7f 6f 62 3d 63 03 37 bd
       -0.053611096 0.06639785 0.055282112 -0.044680964
000300 55 0e ce bd 2d c5 69 bc 74 38 2e bd 0c e5 e2 3c
       -0.10061327 -0.014268202 -0.042534307 0.027697109
000310 10 ad d1 bc 8a 90 6f bd c0 68 b0 bd 41 70 02 bd
       -0.025595218 -0.058487453 -0.086137295 -0.031845335
000320 9e 43 4b 3d cc 10 d7 3b d1 d4 8b 3d f2 c8 8b 3d
       0.04962503 0.0065632816 0.06827701 0.06825437
000330 74 f3 92 bd c3 4d 94 3c a4 48 22 3c 9c 1b e6 3b
       -0.07175341 0.018103486 0.009905014 0.0070223343
000340 aa 26 47 bd 08 8e 58 3d 1b fb d0 bb dd f5 a4 3c
       -0.048620857 0.052869827 -0.0063775904 0.020136768
000350 63 05 89 ba 4e 9e 54 bd 8e ba b2 bd de 7f 34 bb
       -0.0010453876 -0.051908784 -0.08726989 -0.0027542035
000360 0e 80 b0 3a 5e 5c f6 ba 7a 23 44 bd 38 9a ea 3c
       0.0013465898 -0.0018795838 -0.047885396 0.02863799
000370 56 3c 82 bd e2 b2 9e bd 8f 78 9d 3c 0d f8 4f bd
       -0.063591644 -0.07748963 0.019222526 -0.05077367
000380 f0 96 56 bd 03 aa 46 bd d5 90 6e bd 4b a2 af bb
       -0.05239004 -0.04850198 -0.05824359 -0.005359923
000390 6d b8 85 bc 23 ff 60 bc 36 94 f1 3a c8 de 65 3d
       -0.016323293 -0.013732704 0.0018431011 0.056120664
0003a0 ef 99 b3 bd b3 c2 c2 3c be 06 58 bd a4 85 1c bd
       -0.08769595 0.02377448 -0.052740805 -0.038213387
0003b0 63 d8 9d 3c d9 94 fe 3c 97 9d 9e 3d da 70 a8 bd
       0.01926822 0.031076835 0.077449016 -0.0822465
0003c0 3d 26 88 bd dc 4d 03 bb 1e e1 07 3d a0 49 95 bd
       -0.066479184 -0.0020035421 0.033173673 -0.072894335
0003d0 61 c6 bf 3c 05 c9 9b 3d 2b 95 98 3c 66 3e 5d 3c
       0.023410024 0.07606701 0.018625816 0.0135036465
0003e0 6e ac 62 bd d1 64 ce ba 6f 34 78 bd 87 b3 77 bd
       -0.055340223 -0.0015746598 -0.06059688 -0.060473945
0003f0 4c bd 88 bc c8 f0 05 bd 51 a2 27 3d 61 ec a3 bd
       -0.016691826 -0.03270033 0.04092628 -0.0800407

bias f4 [64]
000000 eb 98 d1 3e 94 5b 8d 3c 39 61 8d 3d 16 3c d0 3d
       0.4093698 0.017255582 0.069033094 0.101677105
000010 90 9c ca bd b7 d4 71 3e 57 a8 03 3f 67 6a dd 3e
       -0.09893143 0.236163 0.5142874 0.4324524
000020 12 9c a3 3e 84 88 0d 3e af e9 72 3e 0c 79 77 3f
       0.3195501 0.13821608 0.23721956 0.9666908
000030 e3 59 12 3d bb 4e 98 3c 6f ef 26 bc 17 c2 31 3e
       0.035730254 0.01859223 -0.010188921 0.17359196
000040 8b 86 fc 3b 5e c9 c1 3e a9 ed 20 3f 33 99 a5 3d
       0.0077064685 0.37848943 0.6286264 0.08085861
000050 c2 73 c8 3e 6c d0 45 3d 46 e8 e4 3e 7a 86 fb 3d
       0.39150816 0.04829447 0.4470846 0.12281509
000060 8a 27 05 3f 70 6b a9 3f 31 09 90 3d 4b 8e 9c ba
       0.52013457 1.3235912 0.07033003 -0.0011944262
000070 6b 5e 32 3e a7 47 1f 3c c1 d0 4a be 38 47 b3 3e
       0.1741883 0.009721673 -0.19806196 0.35015273
000080 55 f5 f4 bc a8 79 1e 3d f5 50 e5 3e 43 9c 5b bd
       -0.02990214 0.03869024 0.44788328 -0.05361582
000090 df 82 6b 3e 72 b5 5a 3d fd 6d 0a bc 86 f5 40 3f
       0.22999142 0.053395696 -0.008449075 0.7537464
0000a0 df 09 b7 bd d6 c7 75 3e 0a 6d bb 3e ef 71 cb 3e
       -0.0893743 0.24002013 0.36606628 0.39735362
0000b0 64 83 86 3f b5 40 b8 3e 61 01 20 3d 4f 48 da 3e
       1.0508847 0.35986868 0.039063815 0.42633292
0000c0 02 c7 8b 3e 9d 12 72 3c b7 75 3c 3e 68 98 81 be
       0.27300268 0.014774946 0.1840428 -0.2531159
0000d0 cb 8c ae 3e 59 c9 88 3f 22 e8 c8 3d e4 dd 6f bc
       0.34091792 1.0686446 0.09809901 -0.014640305
0000e0 03 e8 86 3d 7e 2a 8d 3c db 05 11 3e 1b d7 bb 3e
       0.065872215 0.017232176 0.1416239 0.3668755
0000f0 d1 d2 cd 3e cd ba b9 3e c7 ea 68 3e a5 b5 b5 3d
       0.40199903 0.3627533 0.2274581 0.088725366

weight f4 [4, 64]
000000 66 fc 66 40 ca bf ba 3d ae bc b3 bd 39 5d 82 bf
       3.6091552 0.09118612 -0.08776222 -1.0184699
000010 c1 13 dd bd e6 e5 55 bf 38 f0 20 40 ff 86 be bf
       -0.107947834 -0.8355392 2.5146618 -1.4884948
000020 24 b8 94 be 13 49 66 bf 6a 2f 68 bf 32 aa 1b 40
       -0.29046738 -0.8995525 -0.9069735 2.432263
000030 5b 8a de be 96 d3 6f bf e1 ef 12 bf df 7d 2c bf
       -0.43464932 -0.9368223 -0.57397276 -0.67379564
000040 7e 80 a5 3f 47 45 c4 bf 6f 87 97 3f 29 88 f7 3c
       1.2929838 -1.5333642 1.1838206 0.030216293
000050 6b c3 6f 40 91 3e 58 bb 73 b6 0d 40 38 22 47 bf
       3.7463024 -0.0032996277 2.2142608 -0.7778659
000060 c6 64 89 40 e8 32 40 40 ad 93 19 bf 03 d9 08 bf
       4.2935514 3.003107 -0.5999096 -0.53456134
000070 c5 be 80 3f c5 ee 52 bf 21 5f 65 3f 4f 44 eb bf
       1.0058218 -0.82395583 0.8959828 -1.8380221
000080 e0 92 57 bc ce 5a af 3f e7 19 c5 bf 1d 6f da bc
       -0.013157576 1.3699586 -1.539853 -0.026664311
000090 04 52 42 bf 78 c7 3c bf c7 f9 2a bf 94 07 05 40
       -0.75906396 -0.73741865 -0.6678738 2.0785875
0000a0 e8 d6 5e be a7 1b bc bf 39 47 81 40 82 f3 aa be
       -0.21761668 -1.4695939 4.039944 -0.33388907
0000b0 48 49 47 40 7d 30 97 bf 02 e0 23 bf 0d a1 7d bf
       3.1138477 -1.1811672 -0.64013684 -0.9907387
0000c0 fd 9c 2d bf 30 7d 1d bf fa e7 b3 bf 31 96 79 bc
       -0.6781767 -0.61519146 -1.4055169 -0.015233562
0000d0 6b 39 ea bf b8 e9 67 3f 13 de 0d bf af 4c 20 bf
       -1.8298773 0.90591 -0.55416983 -0.6261701
0000e0 83 6f 5b bf 48 0e 85 bf b1 0a 2c bf 13 55 54 bf
       -0.8571703 -1.0394983 -0.67203814 -0.8294231
0000f0 c3 5a 26 40 0e 97 cd bf 4d 1b 0e 40 37 47 f3 be
       2.5992897 -1.6061723 2.2204163 -0.4751527
000100 dc 3d 0a 40 a6 0a 8d 3d 03 69 e3 3d b7 79 88 bf
       2.1600256 0.06886797 0.11104014 -1.0662144
000110 e3 3c ce bd 92 0b 8a be 28 52 95 3f a7 d8 b8 bf
       -0.10070207 -0.26961952 1.1665697 -1.4441117
000120 81 f0 10 be a3 dd 50 bf 0d ab 9a bf fb ef 1d 40
       -0.14154245 -0.8158819 -1.208345 2.4677722
000130 47 05 6d bf 67 88 1a bf 0f 67 58 bf db d9 05 bf
       -0.9258618 -0.60364383 -0.84532255 -0.52285546
000140 46 f7 13 3f 3f aa 4d bf 43 cd 87 3f b6 43 ae be
       0.57799184 -0.803379 1.0609516 -0.34036034
000150 c0 b5 1e 40 83 4f b2 bd 02 5b 28 40 64 b4 46 bf
       2.4798431 -0.08706572 2.6305547 -0.77619004
000160 6c af 84 40 35 31 49 40 9d 26 15 bf 3d 14 23 bf
       4.146414 3.1436284 -0.58262044 -0.63702756
000170 44 36 4f 3f 0b f0 9a bf f6 d8 c6 3f 8c f0 d4 bf
       0.8094218 -1.2104505 1.5534961 -1.6635909
000180 96 c5 a2 bd 12 f0 a7 3f cb b2 b1 bf c9 1a 20 bd
       -0.07947843 1.3120139 -1.3882688 -0.039088044
000190 35 ea 7b bf 94 b3 15 bf a5 09 47 bf e2 75 2e 40
       -0.98404247 -0.5847714 -0.7774909 2.725945
0001a0 8e b7 8b bf 74 cd 89 bf 6e d1 a8 40 ce a9 d1 bf
       -1.0915391 -1.0765824 5.275565 -1.6379945
0001b0 6a 4f 68 40 04 9c ab bf 47 ed 46 bf 3c a6 a0 be
       3.629847 -1.3406987 -0.77705806 -0.31376827
0001c0 b7 cc 80 bf e6 d0 3f bf b7 95 89 bf fc 50 53 3f
       -1.0062474 -0.7492813 -1.0748814 0.8254545
0001d0 0c b0 e0 bf 6e 13 93 3f 14 47 8f bf c8 8c 66 bf
       -1.7553725 1.1490304 -1.1193566 -0.90058565
0001e0 27 3b 1e bf cf ae 41 bf c3 6b 68 bf 63 5e ad bf
       -0.6180901 -0.7565736 -0.9078943 -1.354443
0001f0 c2 80 32 40 5d 36 96 bf f0 af 08 40 c3 6e f0 be
       2.7891088 -1.173534 2.1357384 -0.46959504
000200 5d 83 8d 40 94 f6 c9 3d ff f5 91 3d 93 1a 7a bf
       4.4222856 0.09861484 0.07126998 -0.976968
000210 a5 4c 03 bd c8 19 50 bf 91 39 15 40 01 7a c1 bf
       -0.032055516 -0.8128934 2.3316386 -1.5115358
000220 41 d5 d5 be 07 b0 85 bf 2e 66 8e bf 07 10 1c 40
       -0.41764262 -1.0444344 -1.1124933 2.4384782
000230 f8 77 1a bf bc 55 76 bf b1 66 9a bf fe 20 48 bf
       -0.6033931 -0.9622457 -1.2062589 -0.7817534
000240 b4 71 11 3f a3 98 0c bf ec 30 27 be 37 87 70 3f
       0.5681412 -0.54920405 -0.16327256 0.9395632
000250 5f 31 3b 40 bf 17 72 3d 56 cb 14 40 cc d3 3b bf
       2.9248884 0.059104677 2.3249106 -0.7337005
000260 d9 95 77 40 50 8c 43 40 18 82 61 bf f5 2d 9b bf
       3.868521 3.055439 -0.8808913 -1.21234
000270 12 99 af 3f 2b d5 70 bf bb b0 9a 3f 5a 73 7b bf
       1.3718588 -0.9407527 1.2085184 -0.9822289
000280 60 b0 7d bc e9 29 a0 3f 8e c2 89 bf 75 f5 ad 3d
       -0.015483946 1.251279 -1.0762498 0.08494083
000290 49 73 9e bf e2 2d 3f bf e4 a0 8d bf 5a a0 39 40
       -1.2378932 -0.74679387 -1.1064725 2.900412
0002a0 b2 af 12 3f c5 75 43 bf 90 2a 7e 40 81 14 53 bf
       0.5729934 -0.7635158 3.9713478 -0.8245316
0002b0 e6 2c 57 40 88 f4 74 bf b6 59 53 bf 00 6a 10 3f
       3.3621154 -0.95685625 -0.82558763 0.56411743
0002c0 77 10 82 bf d5 81 3d bf 64 3c d7 bf 88 63 a7 3f
       -1.0161275 -0.7402623 -1.6815305 1.307725
0002d0 dc 35 c1 bf ab ed bb 3f 9d 5b 20 bf c3 96 73 bf
       -1.5094562 1.4681906 -0.6263979 -0.9515192
0002e0 e5 c8 83 bf 60 b2 9d bf b2 12 46 bf e3 b8 e8 bf
       -1.0295683 -1.2320061 -0.77372277 -1.8181423
0002f0 79 8c 27 40 a9 48 10 c0 0a 26 10 40 c3 ce 94 bf
       2.6179488 -2.2544348 2.2523217 -1.1625599
000300 8f f8 8b 40 d1 49 31 3d 52 b2 e3 3d 87 93 61 bf
       4.3740916 0.043283287 0.11117996 -0.88115734
000310 fa 68 83 3d b2 fb 7b bf 07 67 7b 40 20 0e b2 bf
       0.06416507 -0.9843093 3.9281633 -1.3910561
000320 ad 40 de bf 02 de 24 bf be 2c 40 bf 05 ba 14 40
       -1.7363487 -0.6440126 -0.7506827 2.3238537
000330 ea 4f 77 bf 70 3a 7f bf ee 40 0d bf 3f 48 76 bf
       -0.96606314 -0.99698544 -0.551772 -0.9620399
000340 0c 6f e0 3f c1 fc ad bf 65 fd ad 3f 9b 7a 02 3f
       1.7533889 -1.3592759 1.3592955 0.5096833
000350 e2 b7 9e 40 78 cb f1 3d dd 7c eb 3f 3a 33 3c bf
       4.9599466 0.11806387 1.839748 -0.73515666
000360 54 4d 82 40 c7 30 35 40 b8 67 49 bf d2 66 2e bf
       4.0719395 2.8311021 -0.7867389 -0.6812564
000370 28 d8 88 3f b8 4b b6 be b9 d5 e8 3e 1c 18 c0 bf
       1.0690966 -0.35604644 0.45475557 -1.5007358
000380 8f ba 87 bc fa b7 c8 3f 91 f1 a4 bf 58 e0 a9 bc
       -0.01656845 1.5681145 -1.288622 -0.020736858
000390 eb f3 1a bf df ea 57 bf f0 90 f6 be 22 69 27 40
       -0.6052844 -0.8434276 -0.48157454 2.6157918
0003a0 c5 cb 33 3f 9f a5 91 bf 01 42 2c 40 61 1d b8 3f
       0.702328 -1.1378669 2.6915286 1.4383966
0003b0 d5 09 21 40 88 4b 23 bf 08 a5 50 bf 14 d5 93 bf
       2.516225 -0.63787127 -0.8150182 -1.1549401
0003c0 89 08 48 bf 4a d8 46 bf d3 01 c2 bf c2 cf 68 bf
       -0.78138024 -0.7767378 -1.5156807 -0.90942013
0003d0 90 71 e0 bf 68 ae 4b 3f ce f7 4f bf 85 94 65 bf
       -1.7534657 0.79563 -0.81237495 -0.8967975
0003e0 59 7f 3a bf af fc 19 bf cc fb 51 bf 31 ee 50 bf
       -0.7285057 -0.6015119 -0.82024837 -0.8161345
0003f0 79 80 2b 40 d7 65 bd bf d1 db 01 40 5b ea 1d bf
       2.6797163 -1.4796704 2.0290415 -0.61685723

bias f4 [4]
000000 f0 1e 2c 3f 12 38 63 3e e0 9f c8 3e 4c 0e 8c be
       0.67234707 0.22189358 0.39184475 -0.27354658

weight f4 [128, 8]
000000 12 98 50 3e 70 85 ad be b2 b9 32 3e e5 c3 6d bf
       0.2037051 -0.33890867 0.1745365 -0.92877036
000010 e9 9a 47 3e 22 75 9a 3f 04 fe 82 bd e5 b7 02 c0
       0.19492687 1.2066996 -0.06396106 -2.042474
000020 9a af be bf fc 5b 65 3e 13 99 1c bf 7d 44 5d bf
       -1.4897339 0.2239837 -0.6117107 -0.8643263
000030 ac 84 8b 3e f0 29 af 3d bc 93 c2 be 0a 33 e6 be
       0.27249658 0.08552921 -0.38003337 -0.44960815
000040 ba b8 32 be ba da 93 be 62 b3 24 3f f8 73 4a bf
       -0.1745328 -0.28877813 0.64336216 -0.79083204
000050 c2 ef de bf 08 38 47 3f 8b 0e 03 3f ae 5e 46 3f
       -1.7416918 0.7781987 0.51194066 0.7748822
000060 ea f9 d2 3e 30 79 bc bf d8 9a 4c be 17 6b d3 bf
       0.41206294 -1.4724483 -0.19980943 -1.6517056
000070 70 21 6a 3f 94 db bd 3f 2d 90 b0 3e 64 da bf be
       0.9145727 1.4832635 0.34484997 -0.37471306
000080 77 a0 e6 3e 29 4f b0 3e 22 a0 72 bf 16 ae 24 bf
       0.450443 0.34435394 -0.94775593 -0.64328134
000090 f2 21 fc 3f 06 42 a6 3f 99 0b 56 bd cf 1c 9d 3c
       1.9697859 1.2988899 -0.052257154 0.019178776
0000a0 4e f5 7b bf 4f 22 4a 3e 5f 68 87 3e 75 ea 62 3f
       -0.9842118 0.1973965 0.26446816 0.88639003
0000b0 d9 73 d2 bf 7e 73 d7 bd fe 8d 3f 3e 87 30 96 3e
       -1.6441604 -0.10520075 0.1870651 0.29333898
0000c0 32 4d c3 be d5 95 60 3e 8c 70 c5 be 61 bc 02 bf
       -0.38144833 0.21932156 -0.3856243 -0.51068693
0000d0 a2 e3 03 bd b5 94 7b be da c1 a9 3f 7a 21 c3 bd
       -0.03219951 -0.24568446 1.3262284 -0.095278695
0000e0 6e 1a d6 bf 6e 11 df 3a d2 d3 51 bf 19 07 09 3f
       -1.6726816 0.0017018744 -0.8196384 0.53526455
0000f0 3d c0 7b be 13 29 33 be c8 20 1b 3e 17 c8 2c bd
       -0.24585052 -0.17496137 0.15149224 -0.042183008
000100 81 8f c6 3e 2b b6 2b 3f 43 d0 64 3e 0d 89 47 be
       0.3878136 0.6707484 0.2234507 -0.19485874
000110 0f 30 ff bd 4a b8 52 3d a6 f3 f3 3e e8 54 1a 3f
       -0.12460338 0.051445283 0.47646827 0.60285807
000120 b5 83 45 bf 68 55 bc be 1d 64 91 bf 21 7a c0 be
       -0.77154094 -0.3678391 -1.1358677 -0.37593177
000130 b8 54 9d 3e a5 6b a1 bd fb 04 30 3b 52 1c 46 be
       0.30728698 -0.0788186 0.0026858437 -0.19346741
000140 e5 82 aa 3e 5e 39 38 3c af eb 03 3f 11 06 af 3e
       0.3330299 0.011244146 0.515315 0.34184316
000150 b8 4d 93 bf 3e 5b 8b bf 06 41 4e 3e 32 7b 9a 3f
       -1.1508093 -1.088722 0.20141992 1.2068846
000160 1f 78 30 3d c3 9a 22 3e 3d e2 89 bf 3e 6f 4e bf
       0.043083306 0.1587935 -1.0772167 -0.8063849
000170 57 b4 14 3e d6 c8 45 bd 98 85 df bd 3e 68 b5 3e
       0.14521919 -0.048287235 -0.10914153 0.35431093
000180 da ff 54 3f 69 58 45 bf 96 ce 92 3e 85 8a 2a bf
       0.832029 -0.7708803 0.28673238 -0.66617614
000190 37 ca b7 be 41 19 33 be e1 f6 59 3e b7 ab b4 3e
       -0.35896465 -0.17490102 0.21285583 0.35287258
0001a0 00 f5 1e be 24 c2 52 3d a0 40 cf 3e f6 0d 40 40
       -0.15523148 0.05145468 0.40478992 3.000852
0001b0 b3 09 69 be a5 4a 72 be b5 16 46 3d 75 a5 a6 bd
       -0.22757606 -0.23661287 0.0483615 -0.08137027
0001c0 08 c1 a8 bf 9a 30 9c 3c 93 c5 fc be ff 51 2b bf
       -1.3183908 0.019066144 -0.49369487 -0.6692199
0001d0 c7 6e 80 be 1d 65 05 bd cd 1f 1d bf 1b e3 d6 be
       -0.25084516 -0.032567132 -0.6137665 -0.41970143
0001e0 22 b9 c4 bf ba e5 c0 3e 38 78 a1 3f ca c2 f7 be
       -1.5368998 0.37675267 1.2614813 -0.483908
0001f0 72 b6 23 bf 2d f0 0a 3f cb 4e 4f be f7 a0 04 3e
       -0.63950264 0.5427273 -0.20244901 0.12952028
000200 7c c0 70 3e 25 11 ff 3e a0 0a fc be f5 a0 27 3f
       0.23510927 0.49817768 -0.49226856 0.65479976
000210 a0 87 42 3f a9 f0 af 3e 57 72 aa 3f 64 6d 6c 3e
       0.759882 0.34363297 1.3316144 0.23088604
000220 1f 13 03 3f 8e 22 9c 3d 75 1e a8 3e c7 52 8a bf
       0.5120105 0.07623778 0.32835737 -1.0806512
000230 9a 44 39 be 6a 18 be 3e 37 c8 02 bf 59 c7 1b 3f
       -0.18092576 0.37128 -0.51086754 0.60851055
000240 55 1a 97 bd cf c0 03 3f 0c a0 21 bf d9 cd b8 bf
       -0.07378069 0.5146608 -0.6313484 -1.443782
000250 f8 ec 87 3d 45 e3 aa be 9f a8 39 3f c8 c1 44 3d
       0.06636995 -0.33376518 0.7252292 0.048036367
000260 d2 06 ee 3d d5 b2 2d bf 10 a6 cb be c9 b5 09 c0
       0.116223946 -0.67851 -0.39775133 -2.1517203
000270 09 78 60 3e 13 ab 65 3e 70 8d a2 3e 45 9d f1 3d
       0.2192079 0.22428541 0.31748533 0.11797575
000280 82 af ba bf c9 ad 07 be c7 4a 9c bf 75 85 3a be
       -1.4584811 -0.13249888 -1.221032 -0.18214972
000290 9a 57 5f be f3 37 04 bf 2d 36 61 be 24 04 89 3e
       -0.21810761 -0.5164787 -0.21993323 0.26760972
0002a0 de ac 05 bf 02 ff 7a bf b8 d7 5f bf 14 2b 00 bf
       -0.522169 -0.9804536 -0.87438536 -0.5006573
0002b0 76 01 25 be 28 2f 20 3e 2a 70 88 3f 60 2d 4c be
       -0.16113839 0.15642989 1.065923 -0.19939184
0002c0 37 f3 d1 be 4c 04 4a bf 44 f4 1d be ec d2 14 bf
       -0.4100587 -0.78912807 -0.15425211 -0.5813434
0002d0 60 aa ae 3f cb 83 32 3e 38 bb a0 3e cf 33 3a 3e
       1.3645744 0.17433088 0.31392837 0.18183826
0002e0 e5 99 b0 be af 11 02 3f aa 29 a3 be fe f7 cc 3e
       -0.34492412 0.50808233 -0.31867725 0.40032953
0002f0 82 91 76 bf e5 3b 69 3e d9 14 ba 3d d0 6d 51 3f
       -0.9631578 0.22776754 0.090860076 0.81808186
000300 e0 71 37 3e eb 6f 02 3f 93 81 d9 3d aa 53 38 3f
       0.17914534 0.50952023 0.106204174 0.7200266
000310 7b 9f 5a bf 0f a8 3f bf 0d e9 e9 3d b0 cd cb 3f
       -0.853996 -0.7486581 0.11421404 1.5922146
000320 e2 ba 0c be 3f 76 c1 be 1d f5 64 bf f5 a0 83 3e
       -0.13743165 -0.37785527 -0.89436513 0.25708738
000330 75 95 e3 3e bd 41 50 bf fb a7 f8 3d ab 3c 29 3f
       0.44449964 -0.8135031 0.12141415 0.66108197
000340 99 bf 4a 3f 52 3e 93 be 02 77 30 3f db 6b 99 bc
       0.79198605 -0.28758484 0.6893159 -0.018728187
000350 a4 01 b2 be db 92 09 3f 58 bc be 3c 59 2f 1c c0
       -0.34766877 0.5373971 0.023283169 -2.4403899
000360 f0 be 52 bf e6 34 a8 bd 41 c4 84 bf b9 6c 58 be
       -0.823226 -0.082132146 -1.0372392 -0.21135224
000370 24 3c 0a 3f 01 1e 99 bf be c0 84 bd 6c 8c 02 c0
       0.5399802 -1.1962281 -0.06482075 -2.0398207
000380 5e 45 34 bf dd a3 fa be 47 bb c8 be 11 fa 2a bf
       -0.70418346 -0.48953143 -0.3920538 -0.6678782
000390 14 57 9e 3e 0f 90 8d bd 83 b7 37 3f c5 97 e9 bd
       0.3092581 -0.069122426 0.7176439 -0.11405901
0003a0 66 94 1e be 30 c4 c5 3e 4e a7 98 bd 31 c9 94 bf
       -0.15486297 0.38626242 -0.07453786 -1.1623899
0003b0 79 7b 4f 3d be 20 a8 3e 79 4f 31 bd 75 8c 00 bd
       0.050654862 0.3283748 -0.04328868 -0.03138395
0003c0 89 4f e3 bf 56 19 61 be 1a f8 e1 bf 3d f4 1a 3f
       -1.7758647 -0.21982321 -1.765384 0.6052893
0003d0 0f 3f 15 3f d1 0e 8c 3d 44 c2 0c 3e 1e b6 26 bd
       0.58299345 0.068387635 0.13745981 -0.040701024
0003e0 c8 5e 79 be 98 f2 7a be 3d 12 30 bf cc ce e4 bd
       -0.24352562 -0.24506605 -0.6877783 -0.11172256
0003f0 80 ca 98 3f 6d de 34 bf 31 03 21 bf aa 91 3a 3d
       1.1936798 -0.70651895 -0.62895495 0.045549072

bias f4 [128]
000000 ea 6d 77 be f0 d9 0a 3f 77 55 eb 3e d9 8b ec 3e
       -0.24163023 0.54238796 0.45963642 0.46200445
000010 1e 0d a2 3d 23 9e 28 3c a9 00 a0 3f 90 f3 4d be
       0.07912658 0.010291609 1.2500201 -0.20112443
000020 7d 51 8b 3f 72 ae e9 3e f6 a4 8d 3e 49 e8 ac 3e
       1.0884243 0.45640904 0.27664918 0.3377097
000030 46 67 b5 3e 79 a2 1d 3d 33 97 1e 3f 54 aa 73 3f
       0.35430354 0.038485024 0.6194946 0.95181775
000040 c9 9a 60 3f 80 33 86 3f 42 f4 d3 3d 43 88 dc be
       0.87736183 1.0484467 0.10349323 -0.4307271
000050 09 74 60 be 51 bf 8b 3f 27 d7 2b 3e 40 49 bc be
       -0.21919264 1.091776 0.16781293 -0.36774635
000060 61 18 40 3e d2 1a 07 3e ed 1f 7b 3e eb 4f 1b 3f
       0.187593 0.13193825 0.24523897 0.6066882
000070 99 8c 25 3f 18 a6 85 3e ae 0a 02 bf 11 a8 ee be
       0.6466766 0.26103282 -0.50797546 -0.466126
000080 ee 0b 84 3f 0e 3d 92 be 39 c7 fa bb 4d d4 86 3f
       1.0316141 -0.28562206 -0.0076531437 1.0533539
000090 04 2b cc 3f f0 31 42 be fb cb 52 bd e4 15 02 3f
       1.5950627 -0.18964362 -0.051464062 0.5081465
0000a0 94 02 9a 3f a8 6a 9a 3e 1d d6 77 be 33 13 04 bd
       1.2032037 0.30159497 -0.24202771 -0.032244872
0000b0 e9 73 8f 3e bc c0 4f 3f aa 6b 78 3f 4f c2 7b 3e
       0.2801812 0.81153464 0.9703928 0.24585842
0000c0 bb 8b 10 be 10 d6 ea 3f 62 14 0d 3f a4 26 0e bf
       -0.14115803 1.8346577 0.55109227 -0.5552771
0000d0 ff eb 8c 3f 2f b7 b2 3e 0a 9c 28 3e e5 e2 44 3f
       1.100952 0.34905383 0.16465774 0.76908714
0000e0 29 41 76 be c7 00 cf 3d f0 a6 d4 3d 87 b8 ce 3f
       -0.24048294 0.1010757 0.10383403 1.6150063
0000f0 8c 1e 9a 3f fe 8d fe 3e 53 e4 c9 be f5 b4 75 3e
       1.2040572 0.49717706 -0.3943201 0.23994811
000100 fe be b8 3f 78 9b e1 3e 4e c6 91 3f b6 da 14 be
       1.4433286 0.44063926 1.1388643 -0.14536557
000110 81 3e fa be 9e 35 2d be 7d 0b 50 be fe a6 d2 3e
       -0.48875812 -0.16914985 -0.20316882 0.4114303
000120 db 57 5c 3f b0 2b 5f be a6 99 9f 3d 99 3b 8f 3f
       0.86071557 -0.21794009 0.07792978 1.1190063
000130 b1 66 f1 3d cc 80 9b bd 17 b5 fd be 47 c5 f1 3e
       0.11787165 -0.075929254 -0.49552223 0.47220823
000140 30 ad 0b 3f e0 6e df 3e 88 0c 6b 3f eb c1 53 3f
       0.5456114 0.43639278 0.91815996 0.8271777
000150 87 c2 8f 3d 7d ca 68 3e 76 f4 85 39 fa 30 47 3f
       0.07019525 0.22733493 0.00025549874 0.7780911
000160 34 55 71 3f 3b f1 cf bb 4a 69 84 3e c6 91 16 3e
       0.94270635 -0.0063458956 0.2586158 0.14704046
000170 af e8 61 3f be b0 c9 3f f9 58 8f 3f 1e 8d d6 3e
       0.8824567 1.5757062 1.1199027 0.4190454
000180 f1 58 17 bf a7 35 a8 3e 48 4f 42 be ea 57 6e bc
       -0.5912009 0.32853433 -0.18975556 -0.0145473275
000190 11 7f fe 3b 9a c1 e8 3d aa e3 30 3f ce 3e 3e 3f
       0.0077666123 0.113650516 0.6909739 0.7431458
0001a0 71 c2 dd 3d d3 67 00 bf 1c fb 91 3f d6 44 a2 3e
       0.108281024 -0.50158423 1.1404757 0.31693143
0001b0 75 b1 58 bc df f1 8a 3f 27 2a 60 bf 62 b3 c3 be
       -0.013225903 1.0855063 -0.8756432 -0.38222796
0001c0 6c 06 a4 3e 31 03 c6 be 43 27 ba 3f 6c 62 52 bf
       0.3203615 -0.3867431 1.4543232 -0.8218143
0001d0 17 eb cd 3d e6 98 85 3e ea 80 aa 3f 6b f4 9e be
       0.100546055 0.26093215 1.3320591 -0.3104585
0001e0 1c 37 f0 bd d8 05 30 3e f8 dd 2b 3f 64 e5 98 be
       -0.11729261 0.17189729 0.6713557 -0.2986251
0001f0 cb 13 09 bf 36 17 0c 3f ae 4e b2 be 44 28 82 be
       -0.53545827 0.5472292 -0.34825653 -0.25421345

weight f4 [64, 128]
000000 bd 4d 3b bf 70 a5 8d 3e 15 29 04 3e bb 74 9d be
       -0.73165494 0.2766528 0.12906297 -0.3075312
000010 51 0e fd 3e e5 63 a6 3f 93 0e 4f 3e 0e a2 36 bf
       0.49424985 1.2999235 0.20220403 -0.71341026
000020 00 38 28 3e ad 87 34 be f8 b4 14 c0 1c 91 51 3e
       0.16427612 -0.17629881 -2.3235455 0.20465511
000030 02 b0 98 3d 92 b3 82 3f b7 af da 3b 85 7e bb 3e
       0.07455446 1.021105 0.006673779 0.36619964
000040 21 8a e0 3d 2b c1 43 3e 58 ed c0 3d 12 16 02 bf
       0.10963846 0.19116656 0.0942027 -0.50814927
000050 63 8f 8b 3e 38 5f 3c 3e 44 d9 eb bc fe f3 ae bf
       0.27257833 0.18395698 -0.028790124 -1.366821
000060 ee de 13 c1 62 cb 5b bf 33 10 3b 3f 6f fd 77 be
       -9.241926 -0.8585721 0.73071593 -0.24217771
000070 b5 3c 2d 3e 0a 19 b4 3e 62 1c 9d 3d c6 48 58 3f
       0.16917689 0.35175353 0.07671429 0.84486043
000080 69 a4 d9 3d 74 14 c2 bc ba 0f aa bc 83 4e b9 3e
       0.10627062 -0.023691393 -0.020759452 0.36192712
000090 e6 06 66 3e 96 17 c7 be d7 e3 75 be f9 6f 59 3e
       0.22463569 -0.38885182 -0.24012695 0.2123412
0000a0 4d af 48 3e 4b 42 81 be 89 ba a0 bf 87 e1 df 3e
       0.19598122 -0.2524589 -1.2556926 0.4372675
0000b0 31 81 35 bf 1a f9 17 3d 3c 41 05 3c b4 f8 9b bd
       -0.70900255 0.037102796 0.008133229 -0.07615796
0000c0 c9 78 cf bd ff 95 84 3e f5 5b cd be 7f 16 d3 3e
       -0.1013046 0.25895688 -0.4010922 0.412281
0000d0 c0 22 84 3e 94 aa f4 3e bd 03 c7 3e 9c 75 55 be
       0.25807762 0.4778639 0.3887004 -0.20845646
0000e0 14 fd a2 bf 78 e6 3f c1 4e 06 e1 3e 51 cc b0 bd
       -1.2733483 -11.993767 0.43950123 -0.0863272
0000f0 c8 d4 3b 3e e4 b2 f0 3e ab 36 17 3f 66 6b 26 bf
       0.18342888 0.47011483 0.5906779 -0.65007627
000100 9b 2a 80 3e 04 ac 4b bc af 74 ed bf f0 bf 89 3e
       0.25032505 -0.012431148 -1.8551234 0.2690425
000110 99 e8 fc bf a6 ea 37 3e c8 27 c0 bf 5a 7f 89 bd
       -1.9758483 0.17960605 -1.501214 -0.067137435
000120 36 c2 87 3e e5 fc 5b 3e f9 7f 16 be 47 80 7d 3e
       0.2651536 0.2148319 -0.14697255 0.24755965
000130 20 cc 76 be 84 81 9f 3d d3 8e fc 3d 4e ab cc 3d
       -0.24101305 0.07788375 0.12331929 0.09993611
000140 f4 5b 14 bc 12 ab 3f 3e 8d 0a b0 3e bc 0b a0 3e
       -0.009055126 0.18717602 0.3438305 0.31258953
000150 7d 32 00 be 97 54 4a bf 3f 12 86 bf 10 33 45 be
       -0.1251926 -0.79035324 -1.0474318 -0.1925776
000160 60 81 c2 3e ff 62 49 3f 4f 1c 04 c1 0f 07 8c bd
       0.3798933 0.7866668 -8.256911 -0.06837284
000170 38 f5 b2 3e dc 1b 3d 3e 5f fa 8b 3e d9 16 2e c0
       0.34952712 0.18467659 0.27339455 -2.7201445
000180 fa 04 82 3e 04 18 af bd ca d5 aa be 7f 0a db 3e
       0.25394422 -0.085495025 -0.33366233 0.42781445
000190 44 46 51 be bb 50 7f be 8c d3 40 3e 69 cb 15 bf
       -0.2043696 -0.2493314 0.18830699 -0.58513504
0001a0 58 3c 4a bf 67 bc d9 be 20 cc 19 3e 31 3f c9 3d
       -0.7899833 -0.42526552 0.15019274 0.09826506
0001b0 78 b9 ab 3e 64 79 5a bb ff 94 5e 3e e4 d4 0f 3f
       0.3353994 -0.0033336515 0.21736525 0.5618422
0001c0 ef ca 6e bf 12 c1 5e be ac fa 05 3e ca 56 c9 bf
       -0.932784 -0.21753338 0.13083905 -1.5729611
0001d0 19 42 27 bf 49 d2 0d bf 12 29 43 3e 6e 03 3b bf
       -0.6533523 -0.55398995 0.19058636 -0.7305211
0001e0 69 7e d2 3e 20 36 a1 3e 83 7f 73 be db 3d fd 3e
       0.41112068 0.31486607 -0.2377911 0.49461254
0001f0 3b fa d4 3d 3c c8 d2 be b4 6c 18 3e 3a 3a 3d be
       0.1039929 -0.41168392 0.14885217 -0.18479243
000200 ce f0 9b bd 39 61 7a bc 29 d5 0a bd 97 85 59 3a
       -0.07614289 -0.015281969 -0.03389469 0.00082977995
000210 16 a7 62 3d ed 2e 86 3d ef 79 b1 bb dc 6e 02 3d
       0.055335127 0.06551919 -0.005416147 0.031844005
000220 cb 11 1a ba ea 30 0a bd b7 85 95 3c 38 4c 89 3c
       -0.0005877285 -0.033738054 0.018252237 0.016759977
000230 ed 36 a4 bd 6e a7 89 bd d8 e6 d6 3c 99 59 9a bc
       -0.08018289 -0.06721388 0.026233122 -0.018841552
000240 eb 66 33 bd 70 61 b1 bd fe a9 47 bd a3 c2 c5 ba
       -0.043799322 -0.08661163 -0.0487461 -0.0015087913
000250 15 89 8a 3c b9 bd 13 bd 3e c1 4e 3d 71 7d b6 bd
       0.016911069 -0.036069605 0.05047726 -0.08910645
000260 ed ca e2 3c 30 9b a0 bb b8 c7 7f 3c 81 d2 be 3c
       0.027684653 -0.0049013123 0.0156115815 0.023293735
000270 2f a7 2e 3d 2a 8e 26 3d 46 70 93 3d a8 bc 2d bd
       0.042639907 0.040662922 0.07199149 -0.042416245
000280 67 7b 1a bd 69 8a 60 3d 88 0e 16 3d 31 87 59 3c
       -0.037715342 0.0548195 0.03663495 0.013276861
000290 74 8c 59 bd 48 89 35 3d 64 cc b9 bc 47 c6 84 3d
       -0.053112462 0.044320375 -0.022680469 0.06483131
0002a0 2c 8d b0 bd 45 fc e2 3c ea 85 65 3d 4f 1d 5c 3d
       -0.086206764 0.027708182 0.056035914 0.05373889
0002b0 a2 be 86 bd 27 de e8 bc 03 ae b6 bd c3 22 a1 3c
       -0.06579329 -0.028426243 -0.08919909 0.019669896
0002c0 91 df 75 bd c6 d5 9c 3b 8f 4b 70 bd 2d 84 d0 bd
       -0.060027663 0.004786226 -0.05866581 -0.101814605
0002d0 a1 60 4d bd 4c 43 30 bd 26 67 86 bc ab e2 19 bc
       -0.05014098 -0.04303293 -0.016406607 -0.009392421
0002e0 da df 20 bc 05 dc 6f bd 8b 5d d4 3b c8 50 de 3c
       -0.009818995 -0.058559436 0.0064808778 0.027138129
0002f0 4f 97 5b bd 99 fb 87 3d 7f 6f 62 3d 63 03 37 bd
       -0.053611096 0.06639785 0.055282112 -0.044680964
000300 55 0e ce bd 2d c5 69 bc 74 38 2e bd 0c e5 e2 3c
       -0.10061327 -0.014268202 -0.042534307 0.027697109
000310 10 ad d1 bc 8a 90 6f bd c0 68 b0 bd 41 70 02 bd
       -0.025595218 -0.058487453 -0.086137295 -0.031845335
000320 9e 43 4b 3d cc 10 d7 3b d1 d4 8b 3d f2 c8 8b 3d
       0.04962503 0.0065632816 0.06827701 0.06825437
000330 74 f3 92 bd c3 4d 94 3c a4 48 22 3c 9c 1b e6 3b
       -0.07175341 0.018103486 0.009905014 0.0070223343
000340 aa 26 47 bd 08 8e 58 3d 1b fb d0 bb dd f5 a4 3c
       -0.048620857 0.052869827 -0.0063775904 0.020136768
000350 63 05 89 ba 4e 9e 54 bd 8e ba b2 bd de 7f 34 bb
       -0.0010453876 -0.051908784 -0.08726989 -0.0027542035
000360 0e 80 b0 3a 5e 5c f6 ba 7a 23 44 bd 38 9a ea 3c
       0.0013465898 -0.0018795838 -0.047885396 0.02863799
000370 56 3c 82 bd e2 b2 9e bd 8f 78 9d 3c 0d f8 4f bd
       -0.063591644 -0.07748963 0.019222526 -0.05077367
000380 f0 96 56 bd 03 aa 46 bd d5 90 6e bd 4b a2 af bb
       -0.05239004 -0.04850198 -0.05824359 -0.005359923
000390 6d b8 85 bc 23 ff 60 bc 36 94 f1 3a c8 de 65 3d
       -0.016323293 -0.013732704 0.0018431011 0.056120664
0003a0 ef 99 b3 bd b3 c2 c2 3c be 06 58 bd a4 85 1c bd
       -0.08769595 0.02377448 -0.052740805 -0.038213387
0003b0 63 d8 9d 3c d9 94 fe 3c 97 9d 9e 3d da 70 a8 bd
       0.01926822 0.031076835 0.077449016 -0.0822465
0003c0 3d 26 88 bd dc 4d 03 bb 1e e1 07 3d a0 49 95 bd
       -0.066479184 -0.0020035421 0.033173673 -0.072894335
0003d0 61 c6 bf 3c 05 c9 9b 3d 2b 95 98 3c 66 3e 5d 3c
       0.023410024 0.07606701 0.018625816 0.0135036465
0003e0 6e ac 62 bd d1 64 ce ba 6f 34 78 bd 87 b3 77 bd
       -0.055340223 -0.0015746598 -0.06059688 -0.060473945
0003f0 4c bd 88 bc c8 f0 05 bd 51 a2 27 3d 61 ec a3 bd
       -0.016691826 -0.03270033 0.04092628 -0.0800407

bias f4 [64]
000000 8e b7 cf 3e 94 5b 8d 3c 39 61 8d 3d 2d 69 d2 3d
       0.4056973 0.017255582 0.069033094 0.10273967
000010 90 9c ca bd 6c da 70 3e f6 4b 03 3f e0 58 dd 3e
       -0.09893143 0.23520821 0.5128778 0.4323187
000020 1e 92 a2 3e 99 77 0d 3e 1f d6 71 3e f1 c4 76 3f
       0.31752104 0.13815154 0.23616837 0.9639426
000030 74 57 16 3d c6 7d 9b 3c f1 43 47 bc ed be 2f 3e
       0.036704496 0.018980872 -0.012162195 0.17162676
000040 36 43 1e 3b b1 8e c0 3e 07 bc 20 3f 2a b4 9c 3d
       0.0024148948 0.37608865 0.62786907 0.07651551
000050 dd 30 c8 3e 6c d0 45 3d 76 e7 e3 3e b1 3c fb 3d
       0.3909978 0.04829447 0.44512528 0.12267435
000060 99 03 05 3f f6 34 a9 3f 63 61 8e 3d 92 6a 5f bb
       0.51958615 1.3219287 0.06952169 -0.003409062
000070 cf 1f 32 3e d2 ae 40 3c 81 01 46 be 17 72 b3 3e
       0.17394947 0.01176043 -0.19336511 0.3504798
000080 55 f5 f4 bc 8d d3 26 3d 57 5d e5 3e 43 9c 5b bd
       -0.02990214 0.040729094 0.44797775 -0.05361582
000090 a9 42 6d 3e 79 5a 59 3d c4 56 16 bc 44 e1 41 3f
       0.2316996 0.053064797 -0.00917596 0.75734353
0000a0 65 ea af bd 05 55 75 3e c4 c3 bb 3e ab 88 cb 3e
       -0.08589629 0.23958214 0.36672795 0.39752707
0000b0 59 87 86 3f 9c 2a b7 3e 81 eb 1f 3d 47 1a d9 3e
       1.0510055 0.35774696 0.039042953 0.4240286
0000c0 8d 2a 8b 3e bc ec 78 3c 7d 89 3a 3e 58 44 80 be
       0.271809 0.015193161 0.1821651 -0.25052142
0000d0 66 de ad 3e fa b6 88 3f 05 5d cd 3d 5c 6d 84 bc
       0.3395874 1.068084 0.10027508 -0.016165428
0000e0 46 3c 82 3d 30 41 89 3c f0 d0 11 3e 75 f1 ba 3e
       0.063591525 0.016754717 0.1423986 0.36512342
0000f0 00 53 cd 3e d1 e3 b9 3e aa 57 66 3e c7 d5 b4 3d
       0.40102386 0.36306623 0.22494379 0.08829837
