dqn_lunarlander_latest.pt (torch, 163869 bytes, 24 tensors)

weight f4 [128, 8]
000000 f3 77 da be 76 1f 16 3e e0 21 31 bf 4b e3 88 be
       -0.4266964 0.14660439 -0.69192314 -0.2673591
000010 78 33 af 3f d1 44 13 3f b6 dd d2 3e b6 bb 65 be
       1.3687582 0.5752688 0.41184777 -0.22434887
000020 f6 ed 24 3e 4d 81 ad 3e fe c1 2f bf 0f c0 28 3e
       0.161064 0.3388771 -0.68655384 0.16479515
000030 9a ea 9d bd e7 f0 d4 3e 9f 04 33 be ad a1 09 bf
       -0.07710762 0.41590044 -0.17482232 -0.5376232
000040 de 1d 7f be 01 89 4c 3f eb 5d 1f be e1 82 2f 3f
       -0.24913737 0.7989655 -0.1556317 0.6855908
000050 34 9e 4b 3f 12 f7 8a 3f 12 1b 53 bd 5f 8a 1a 3e
       0.79538274 1.085665 -0.051539488 0.15091847
000060 73 6a 38 bf b3 ea 21 40 bb 06 a8 3f 72 49 47 bd
       -0.7203743 2.52995 1.3127054 -0.048654027
000070 e9 5b af be 8d b2 40 bf 3a f2 ae be d9 16 94 3e
       -0.3424981 -0.75272447 -0.3416918 0.2892368
000080 d0 fa 5a 3f e1 ae 59 3f d1 e4 de be ab 6c f7 3e
       0.8553896 0.8503247 -0.43533948 0.48325095
000090 24 30 19 3f 7c d6 3e 3f bd ad de bd ac 7b 87 be
       0.5983908 0.7454603 -0.10872982 -0.26461542
0000a0 75 c1 12 bf 59 5e b6 bc 2a d6 61 bf fd d6 5a be
       -0.5732644 -0.022261785 -0.88217413 -0.21371074
0000b0 53 7b bc bd 34 38 8b 3a 0b d7 06 3f e2 da f2 3d
       -0.0920321 0.0010621608 0.5267188 0.11858155
0000c0 60 4c ea 3e 86 99 40 3d e4 a9 0b 3f aa c5 83 3c
       0.45761395 0.04702141 0.5455611 0.016085465
0000d0 48 a4 62 bf 36 9e 69 3f 43 18 f3 3d 65 29 98 3d
       -0.88531923 0.91257036 0.11869862 0.074297704
0000e0 85 8a a2 bd 48 36 57 3f b0 32 c0 be 1f 37 20 3f
       -0.07936577 0.840672 -0.37538671 0.6258411
0000f0 c1 02 5e 3f ed 54 33 3f e2 40 bd be 95 ba a5 be
       0.8672295 0.7005146 -0.36963564 -0.32368913
000100 23 6c 86 bf 75 19 ce bf 51 60 80 be 27 04 33 40
       -1.0501751 -1.6101519 -0.25073484 2.7971284
000110 67 9b 56 3e 5b ce d1 3e 22 92 e1 bd 4b 64 64 3e
       0.20957719 0.4097775 -0.11014201 0.22303884
000120 13 bc 1d bf e6 bd 15 40 9c 72 47 3d 21 19 97 be
       -0.61615103 2.3397155 0.048693284 -0.2951136
000130 75 44 7f bb 26 b2 39 3e 5f 56 c8 3e 0b 8c c0 3e
       -0.0038950716 0.18134364 0.39128396 0.37606844
000140 c6 b6 c6 be e2 dd dc be d5 20 90 3f 4a a0 e6 3f
       -0.3881132 -0.43138033 1.126002 1.8017666
000150 32 fc 95 3f f2 6c cb 3e b5 93 ac 3f ee 84 0a 3f
       1.1717589 0.39731556 1.3482577 0.54109085
000160 19 71 ac 3e 4a 93 48 3d 63 89 0a 3f c2 62 8a be
       0.33680037 0.04896859 0.54115885 -0.2702847
000170 03 b0 87 b9 cb 8c 93 3f 9d 6e 42 3f d8 c5 0d be
       -0.00025880345 1.1527342 0.7595003 -0.13845003
000180 16 58 05 bf d0 5d 83 3e d3 79 ac 3d ec bb 9a bf
       -0.52087533 0.2565751 0.084216736 -1.2088599
000190 83 e7 28 be be 58 66 be 7a 5c e7 3e 94 6a b0 3c
       -0.16494565 -0.2249479 0.45187742 0.021535195
0001a0 8c 07 55 be 08 0c 6d bf 0e 3d 2b 3d 49 9d 59 bf
       -0.2080366 -0.92596483 0.041806273 -0.85005623
0001b0 32 7a 17 bf 1c 30 06 3f d0 cb 29 3e 99 5a 9a 3e
       -0.5917083 0.5241716 0.16581655 0.30147246
0001c0 3b b1 98 3e 8f da 2c 3f 8b 9b 2a 3d 19 ac ba be
       0.29822716 0.67520994 0.041652244 -0.36459425
0001d0 40 e0 b1 3f ad 88 b6 3f 5a 86 05 3d c4 f1 ab bd
       1.3896561 1.426046 0.03259883 -0.083957225
0001e0 17 3d 95 3d 1a 19 cb 3e 7d 23 4b 3e a2 aa 85 3f
       0.072870426 0.39667588 0.19837756 1.0442698
0001f0 3a 7e 5f be a2 14 07 bc 5d 50 dc bd d2 1d ad 3f
       -0.21825495 -0.008244665 -0.107575156 1.3524725
000200 0e 60 b3 3e e4 ae ac 3e 7a a7 d2 3e 92 a3 5b bf
       0.3503422 0.3372718 0.411434 -0.85796463
000210 0c c7 00 bf 19 82 7d 3e 40 31 a8 3e 48 de 07 bf
       -0.5030372 0.2475666 0.32850075 -0.5307355
000220 c2 3f ea 3e 7f e3 8f bf fc 51 14 3f cb 7f 87 3e
       0.45751768 -1.1241301 0.579376 0.26464686
000230 01 6b 8d bf e4 a3 33 bf 19 ea 01 3f eb d3 ee bd
       -1.104828 -0.7017195 0.5074783 -0.11661514
000240 fc d5 5f 3c 94 37 33 bf 50 47 13 bf 09 3b bf 3f
       0.013661858 -0.7000668 -0.5753069 1.4939891
000250 4a 6d c0 3f cf ff 09 bf 95 e7 05 bf dd 3f 24 3d
       1.5033352 -0.5390596 -0.5230649 0.040099967
000260 00 2e 63 bf 88 c0 24 3e b7 04 98 bf d3 6e 17 be
       -0.88742065 0.1608907 -1.1876439 -0.1478837
000270 70 7f 92 be 07 c3 fa be 71 36 8e 3e 48 4d cf 3d
       -0.28612852 -0.4897692 0.2777591 0.10122162
000280 18 fa 15 bf 1a e1 90 3f 08 fe 75 3f 83 8a bf 3e
       -0.5858474 1.1318696 0.96090746 0.37410364
000290 92 9f dc bd 01 76 08 bf 96 d0 99 bf 33 af 01 3f
       -0.10772623 -0.5330506 -1.201678 0.5065796
0002a0 f8 ff 69 be fe 36 47 3f 4f 5a 77 be 60 94 7a 3f
       -0.2285155 0.77818286 -0.24155544 0.9788265
0002b0 b5 9b 79 3e a5 6b 3e 3f 49 cc d8 3d 93 8b bc 3e
       0.24375804 0.74383 0.10585839 0.36825237
0002c0 0a 2f d3 3e 4a 1d ea 3d ee 56 32 3f 7c ae 37 40
       0.41246825 0.11431368 0.69663894 2.8700247
0002d0 df 74 d5 3d a3 27 ab bd 73 40 a0 3d e9 61 e7 bc
       0.10422682 -0.083571695 0.07824793 -0.02824493
0002e0 34 a9 fd be 7c c2 dc 3f e5 b0 0a be 7c ce d2 3c
       -0.49543154 1.7246852 -0.13544042 0.025733225
0002f0 71 b1 b8 be 45 98 5e bd d8 95 ab 3e 87 65 4a 3e
       -0.36072877 -0.054344434 0.3351276 0.19765292
000300 42 70 32 bf fb a6 e4 be 79 2b 35 bf 0d f4 84 bd
       -0.6970254 -0.44658646 -0.7076946 -0.064918615
000310 0e 00 74 3e 5d 32 a9 3d 22 67 9c 3f cc de 03 3f
       0.23828146 0.08261559 1.2218974 0.51511836
000320 1c 79 47 3e 36 8b 5a 3f f4 0c 40 3f bb 51 5c be
       0.19479793 0.8536867 0.75019765 -0.21515553
000330 03 d0 01 3f 8c 3e 2c 40 c7 20 9c 3e 55 71 12 be
       0.50708026 2.6913176 0.30493757 -0.14301045
000340 10 81 8b 3e 16 31 6d bd c8 ed d6 be da 34 02 3f
       0.27246904 -0.05790814 -0.41978288 0.50861895
000350 09 ce a4 3e 85 10 8f 3f 19 11 46 3f 03 4f c6 bc
       0.32188442 1.1176916 0.7736984 -0.024207598
000360 48 30 a7 be 36 71 77 3e db 5c bb be 19 5e 57 3d
       -0.32654023 0.2416428 -0.3659428 0.052579973
000370 22 df 92 3f 0b 42 29 3f dc 75 7d 3f 45 b1 06 3e
       1.1474345 0.661164 0.99007964 0.1315356
000380 8b ac ce 3e 77 05 66 3e b2 aa 32 be 8a 2b a0 bf
       0.40366015 0.22463022 -0.17447928 -1.2513287
000390 7a 4e 19 bf f3 d9 87 3e ff 5e 4e 3e e7 79 60 bf
       -0.5988537 0.2653347 0.20153426 -0.8768601
0003a0 b5 85 68 3d 5d cf 25 3f aa 1f df be 9a 25 e4 bd
       0.056768138 0.64769536 -0.43578845 -0.111399844
0003b0 fd c5 4c be bd 20 7a bf 35 82 cb 3e 4b d0 6b bf
       -0.19997402 -0.97706205 0.39747778 -0.92114705
0003c0 57 9f d5 bd 48 0f 93 3e 47 41 0e 3e 90 33 47 3d
       -0.10430782 0.28722596 0.13892089 0.04863316
0003d0 75 12 88 3e d6 fc bd bf cc aa 18 bf 12 06 ca be
       0.26576582 -1.4842784 -0.59635615 -0.39457756
0003e0 c0 50 e7 be 50 db a9 3f 72 f5 8b be 6f 51 e3 bd
       -0.45178795 1.3270054 -0.27335697 -0.110995166
0003f0 ea eb 51 be 01 82 33 bc 50 ec fb 3e cb e3 ee 3e
       -0.2050015 -0.010956288 0.4920373 0.46658167

bias f4 [128]
000000 bb 42 7c bf 7a 21 12 3f 00 21 02 be d8 2c 15 40
       -0.9853932 0.5708233 -0.12707901 2.330862
000010 95 d0 10 bf 5c 3b c7 3e cf 50 3d 3f 7c e6 1c be
       -0.5656827 0.38912475 0.7395143 -0.15322298
000020 5a e1 0e bf c2 18 91 3f 66 0f f5 3d 15 fb ca 3e
       -0.5581261 1.133568 0.11965828 0.39644685
000030 d2 4a d5 3d e6 1a 8e 3f 5d 0c b7 3d da 7c 6c 3e
       0.104146615 1.1101959 0.08937905 0.23094502
000040 da 3c ce 3e 0c ed b7 3f 2d c6 3e 3e de da a3 3e
       0.402808 1.4369216 0.18630286 0.3200292
000050 6e 76 b4 3f f6 95 95 3f c0 5d d0 3e 51 c9 9e 3f
       1.4098642 1.168639 0.40696526 1.2405187
000060 6a e4 08 3e b0 ac b5 bd da b1 03 3f e6 71 a3 bd
       0.13368383 -0.08870828 0.51443255 -0.07980709
000070 95 c8 28 3e 35 b6 df 3f 6b 48 4e 3f 9d 99 56 3f
       0.16482766 1.747748 0.8057925 0.83828145
000080 1c 1e 6a 3e 35 a7 4d be b4 3c 03 3f eb fd 1c bf
       0.22863048 -0.20083316 0.512645 -0.6132495
000090 56 34 2a be 47 24 94 3f 0c 6d 5b 3f 41 48 20 3e
       -0.16621527 1.1573571 0.8571327 0.15652563
0000a0 1a 5d e0 3e be 3d d1 be e0 11 a6 be 2f 3c be 3e
       0.4382103 -0.40867418 -0.32435513 0.3715529
0000b0 2e a5 d6 3e 3d 2b b2 be 7f dc 1f 3e b0 f8 3d 3c
       0.41922897 -0.34798613 0.15611456 0.011594936
0000c0 4e 14 b7 bd 54 0d e6 3d c6 ba e5 3d c2 c2 73 3f
       -0.0893942 0.11233011 0.11217265 0.9521905
0000d0 42 8c e3 3e 89 f9 39 3c ae c1 55 3d 79 76 9d bf
       0.44442946 0.011350998 0.05218666 -1.230178
0000e0 b5 7c 9f be 21 63 61 3f 53 f1 92 3e 24 9e 8f 3e
       -0.3114983 0.88041884 0.2869974 0.2805034
0000f0 1b b6 07 3e ea fd 50 be 56 b1 5e 3f 2e 62 97 3d
       0.13253061 -0.2040936 0.86989343 0.07391773
000100 c7 e3 69 3f 76 e0 17 be b9 1f 50 3f 88 98 95 3f
       0.91363186 -0.14831719 0.81298405 1.1687174
000110 68 09 55 3f 5b cf 96 be 8d 0b 24 bf 65 1a 94 3d
       0.8321748 -0.29455075 -0.64080125 0.07231597
000120 cf e1 73 3d d1 e7 e3 3e a8 c3 59 3e f9 b5 d3 3e
       0.05954152 0.445128 0.21266043 0.41349772
000130 13 ec a1 be a0 41 a9 3e bf 6b 73 3f 12 ad b7 3e
       -0.31625423 0.3305788 0.9508628 0.3587423
000140 4e 9f 0d 3e 20 f6 28 3b 25 de 18 3f 2a 73 b6 3d
       0.13830301 0.0025781468 0.59713966 0.089086846
000150 b4 74 92 3e e2 d7 c7 3e 57 ed 47 be 55 6c 51 3e
       0.28604662 0.39031893 -0.19524132 0.20451482
000160 f0 55 a2 3e 60 31 8b 3e 3d 4f 97 3e f0 e9 58 be
       0.3170619 0.27186108 0.29552642 -0.2118299
000170 ca 62 81 3e a3 5f 9a 3e 4f eb c0 be 54 41 0f bf
       0.25270683 0.3015109 -0.37679526 -0.5595906
000180 83 54 95 be 05 d8 21 3f cf 20 9c 3e f7 8c 1f bf
       -0.2916604 0.63220245 0.3049378 -0.6232447
000190 91 3f 39 be b0 ca 20 bd ea 15 e8 3e 9f 48 0f 3f
       -0.18090655 -0.039255798 0.4532922 0.55970186
0001a0 ed d4 6b 3f be 30 df 3e 08 4f fa 3d 65 01 4e 3f
       0.92121774 0.43591875 0.12222105 0.8047088
0001b0 3e a9 ed be 40 e6 03 3f c6 d2 c3 3e 54 58 0c 3f
       -0.46418184 0.5152321 0.38246745 0.5482228
0001c0 2e 72 6b 3f cf 0d 34 3d 82 5c 27 3e 94 61 8d 3e
       0.919711 0.04395848 0.16343883 0.2761351
0001d0 13 fa 16 3f ce d0 65 be 49 bb 32 be 16 f2 db 3e
       0.5897533 -0.22442934 -0.17454256 0.42958134
0001e0 f0 39 78 be 31 02 05 3f 91 16 d7 bd 3f c4 f3 3d
       -0.24240851 0.5195647 -0.10502351 0.11902665
0001f0 fd 63 e8 3d e4 f6 7e 3e 21 09 4b 3f 82 b2 40 3d
       0.11347196 0.24898869 0.79310805 0.04704524

weight f4 [64, 128]
000000 b3 83 a0 3f 27 9b 22 3f d8 5c fe be 17 45 1b 3f
       1.2540191 0.63517994 -0.4968021 0.606523
000010 c1 06 30 bf b2 be d5 3c 8a ff db 3e 6a 1f 95 be
       -0.68760306 0.026091907 0.42968398 -0.2912553
000020 28 95 04 c0 6f c8 b6 3e 72 00 d6 3f 4a 87 64 be
       -2.0716038 0.35699794 1.6718886 -0.22317234
000030 29 d5 c1 bf 74 d2 9a 3f fe fe db 3e d9 86 9c 3d
       -1.5143176 1.2095475 0.4296798 0.07642908
000040 5b 19 95 bf a2 b5 65 40 35 2d e6 3f f8 5e 10 bf
       -1.1648363 3.589211 1.7982546 -0.5639491
000050 e3 7b bb 3f 0f b0 21 3f 24 ce 23 bf 60 d3 74 3e
       1.4647182 0.6315927 -0.6398642 0.23908758
000060 f4 ba 95 3d 99 b3 a0 3e 05 ab 95 bc 61 a8 b9 bd
       0.07311049 0.31387022 -0.018270025 -0.09065319
000070 9e 47 d6 3f 81 f7 6f 3e 77 71 76 3f 06 b8 67 3e
       1.6740606 0.23434259 0.96266884 0.22628793
000080 3c 02 e2 bf 65 7f d0 be 86 c4 a8 3e 1e 78 96 3e
       -1.7656932 -0.40722194 0.32962435 0.29388517
000090 2b 44 d6 3e da b5 c3 3f a8 36 09 3f a1 fe 82 40
       0.41848883 1.5289872 0.53599024 4.0935826
0000a0 3b ea 86 3f 90 37 99 be ae 18 6d 3d 94 ac 46 be
       1.0540231 -0.29925203 0.057884865 -0.19401771
0000b0 d8 73 f9 bd 9d 85 2e c0 23 8b c9 bf 5c f4 f6 3e
       -0.121802986 -2.726905 -1.5745586 0.48233306
0000c0 37 cb 4c c0 5b ac 13 bf 25 6b 26 c0 b3 0b 1d 3f
       -3.1999032 -0.5768487 -2.6002896 0.61345977
0000d0 ad 10 6d be 48 0c 9c bf 62 bd 9f c0 b7 9a b3 3f
       -0.23150893 -1.2191248 -4.991868 1.403159
0000e0 b7 5a b6 be cd 6e 97 3e 9b e9 4b c0 8e 5b 19 3f
       -0.35616085 0.29576722 -3.1861331 0.59905326
0000f0 fc 7f 4c 3f b4 79 24 c0 2a 46 07 40 5d 1d a2 3e
       0.7988279 -2.5699282 2.1136575 0.31663027
000100 2d 88 31 3e 69 3a 93 be 54 48 82 3f a6 73 fa 3f
       0.17337103 -0.287555 1.0178323 1.9566543
000110 a9 be 3a 40 4f 07 d5 be 0f 32 28 3e 1f 5a 08 c0
       2.917887 -0.4160714 0.16425346 -2.1305006
000120 65 56 00 c0 45 5b 08 c0 2e fa c9 3f 04 8c 75 be
       -2.005273 -2.1305707 1.5779474 -0.23979193
000130 46 8d 10 3f 0b 09 3a be 97 b6 9d bf 64 7d 05 be
       0.56465566 -0.18167512 -1.2321347 -0.13036114
000140 f2 2e 3c bf c8 de 00 c0 4e b3 52 bd 87 e4 32 be
       -0.7350913 -2.0135975 -0.05144053 -0.17469989
000150 32 bd 97 be 43 a7 59 be 89 bc 0e c0 c6 00 7c bc
       -0.29636532 -0.21255212 -2.2302573 -0.015381044
000160 72 bc 08 be 9a 7a 1c 3f 7d a0 3f 40 e0 c5 6c 3f
       -0.13353136 0.61124575 2.9941704 0.92489433
000170 27 c0 98 bf 36 5b 61 39 85 e8 19 be 5e 27 57 bf
       -1.193364 0.00021491651 -0.15030105 -0.84044445
000180 65 f1 68 3e 90 e8 be bd 8b ef 1d c0 ea 77 aa c0
       0.22748335 -0.093217015 -2.4677455 -5.327138
000190 12 20 d2 3f 59 40 1f c0 f9 ca 85 3f 8e 32 24 3f
       1.6416037 -2.4883025 1.0452567 0.6413964
0001a0 36 61 2c 3f 5b 54 80 be 8d 91 32 c0 c0 38 94 3e
       0.6733583 -0.25064358 -2.7901337 0.28949547
0001b0 b4 19 67 bf 52 82 18 c0 01 ca 0a be 4d 5c ec 3f
       -0.90273595 -2.3829541 -0.13553621 1.8465668
0001c0 e8 c2 2a 3f 58 a9 b7 3e 56 7a cc 3f c3 78 79 3e
       0.66703653 0.35871387 1.5974834 0.24362473
0001d0 39 ab 8f 3e f5 9c 80 3f 09 29 ac bf 45 97 00 c0
       0.2806032 1.00479 -1.3450023 -2.0092328
0001e0 ba 55 96 3f b9 bb 30 be 55 4e 19 c0 d5 07 71 c0
       1.1744912 -0.1725911 -2.395406 -3.766103
0001f0 65 96 0f 3f 92 7a 97 bf 07 47 02 40 a3 95 86 bf
       0.5608886 -1.183428 2.0355852 -1.0514416
000200 3e 1c 62 bd 01 ef 46 bc 5a bf aa 3d a6 01 76 3b
       -0.055202715 -0.012141944 0.08337279 0.0037537604
000210 e7 59 ad 3d 82 d7 7f bd 9a 2c 8b bd d9 28 fe bc
       0.08464413 -0.062461384 -0.067956164 -0.031025337
000220 74 69 14 3d 56 22 06 bc 27 d5 b2 bd 63 bc 21 3d
       0.03623338 -0.008186897 -0.08732062 0.0394863
000230 a6 e1 6b bd 78 f7 f3 3c fc 12 03 3d e8 4f 08 3d
       -0.057588242 0.029781088 0.032000527 0.03327933
000240 13 62 a8 bd da 81 01 3c f3 df 93 bd 0e 96 85 3d
       -0.08221831 0.007904494 -0.07220449 0.06522761
000250 64 d8 c7 3c 1f 8b 90 3b b3 ee d5 3c 45 9f 2c bd
       0.024395175 0.004411116 0.026114797 -0.04214408
000260 6d 82 12 bd 4d 7d 0c 3d e0 2f 9e bd 0b fa b3 bd
       -0.035768915 0.034299184 -0.07723975 -0.08787926
000270 cc 79 4c 3c ea 05 21 bd d6 33 29 3c d3 59 ae bd
       0.0124802105 -0.03931228 0.0103273 -0.08513226
000280 6b 85 6e bd d6 51 2a 3d 07 b7 c6 bc a6 26 b7 3c
       -0.058232706 0.04158195 -0.024257196 0.022357296
000290 c5 27 93 3c 88 40 90 bd 93 ae 85 bd b8 36 0f 3c
       0.0179633 -0.07043558 -0.06527438 0.008741073
0002a0 c7 89 2b bd 17 c4 5e bd cf 35 57 bd 2e e9 8d bd
       -0.04187944 -0.054386225 -0.05254155 -0.06929241
0002b0 70 3a f6 bc 09 2a 9f bc a0 48 87 3d 2f 38 c1 bd
       -0.030057162 -0.019429224 0.06605649 -0.09434544
0002c0 b0 c1 12 bd 3e b8 c4 3c 30 74 b7 3c 4d a5 ac bd
       -0.035829246 0.024013635 0.02239427 -0.08429966
0002d0 69 fa 93 3d 62 7f 20 bc d0 de 0d bd 85 94 0e bd
       0.07225496 -0.009795995 -0.03463632 -0.034809608
0002e0 a6 f1 80 bc e4 81 a9 39 ab e4 95 3b 46 fb 50 bc
       -0.015740227 0.00032330968 0.0045743785 -0.012755221
0002f0 d4 c8 bb bc 2b 84 f9 3c 54 ac 80 3d 24 a7 e6 3c
       -0.02292291 0.03045853 0.06282869 0.02815587
000300 34 d3 4a 3b 5b ae 1e 3c a9 18 45 bd 1a 64 ac bd
       0.003094864 0.009685124 -0.04811922 -0.0841753
000310 01 7c 8c bd 42 a9 74 3d 56 5f 0c 3d a5 dd 5f bd
       -0.06859589 0.05973173 0.034270607 -0.054654736
000320 eb 4e ae bd 15 00 81 bd a1 32 36 3d cb f2 ce 3c
       -0.08511146 -0.06298844 0.044481877 0.025262257
000330 18 2c b0 3d 95 c1 15 3d 90 56 6d 3c 78 bf 4a bb
       0.0860216 0.036561567 0.01448597 -0.0030936878
000340 ea 51 26 3c 4b f7 31 3d aa 3c 9e bd 49 a9 a3 3d
       0.010151366 0.043448728 -0.077264145 0.07991273
000350 4c 78 1e bd bf a1 5d bd b0 a1 8f bd 86 4e ed 3c
       -0.038688943 -0.05410933 -0.07013261 0.028968107
000360 69 ae 92 bd 76 89 17 bb 58 3f 8b bd f3 22 bf bd
       -0.07162172 -0.0023122705 -0.06799191 -0.09332838
000370 dd 40 29 3d ee 3e 90 bd 4f 05 a0 3d 6e 1d a3 bd
       0.041321624 -0.07043253 0.078135125 -0.07964598
000380 76 6e b5 3b 36 a5 93 bc f2 ab ae 39 d0 88 8b 3d
       0.0055368496 -0.018023115 0.00033315975 0.06813204
000390 0c c7 f2 3c ad 5b 6c 3c 75 33 9f 3c 3b 04 c8 bc
       0.029635929 0.014426154 0.019433716 -0.02441608
0003a0 63 02 19 3d 35 0a 97 bc 9c 46 bf 3c c6 40 aa bb
       0.03735579 -0.018437484 0.023349099 -0.00519571
0003b0 48 c4 11 3c d0 f3 1f 3d 11 e0 87 3d 38 49 08 3d
       0.008896895 0.039050877 0.06634534 0.03327295
0003c0 cb 32 45 bd c8 d0 60 3d 96 a3 9c bd e0 03 c1 bc
       -0.048144143 0.05488661 -0.07648389 -0.023561418
0003d0 38 5d ae 3c 9d ce 9d bd 80 ff 29 bc 07 76 8a bd
       0.021284685 -0.07705424 -0.010375857 -0.06760793
0003e0 70 8b 81 bd e9 c2 d6 3c aa 30 8d bd 32 bc b8 bd
       -0.06325424 0.026215987 -0.068940476 -0.090202704
0003f0 10 3e 6c bd 9f 69 9a 3d f7 11 aa bc d2 08 89 bd
       -0.057676375 0.07539677 -0.02076052 -0.066911355

bias f4 [64]
000000 fc f2 20 3f 5c 73 9c bc 52 27 6f 3e ba f3 79 3e
       0.62870765 -0.019097976 0.23354843 0.2440938
000010 b9 72 97 3d f1 28 87 3e 47 c9 d1 be db c1 e5 3e
       0.073949285 0.26398423 -0.40973875 0.44874462
000020 79 b4 36 be bb 5b 3a bd f0 f5 8c 3e cb c5 0a 3e
       -0.17842282 -0.045497637 0.27531385 0.13552015
000030 7e fd dc 3e a3 ea 9f 3e 41 1d 11 3f 74 ee 7a 3e
       0.4316215 0.312337 0.5668526 0.24505025
000040 c9 d5 42 be 89 78 a7 3d 77 44 2b 3d 2c 83 25 3e
       -0.19026865 0.08177287 0.04181334 0.1616332
000050 92 69 9e 3e ac 7d 1d 3f a6 a6 25 3f e6 db fc 3c
       0.3093992 0.61519885 0.6470741 0.030866574
000060 a9 f5 50 3e b5 e6 9a 3e 5a a7 58 3e b5 bb 37 bd
       0.20406212 0.3025414 0.2115759 -0.044856746
000070 3d 33 5a 3d f4 6c 82 3e b5 b0 73 3e 73 78 17 3f
       0.05327152 0.2547375 0.23797877 0.59168166
000080 a5 c8 f6 3e 4f 89 ab 3e 87 f8 47 3f 84 1d b7 3e
       0.48199955 0.33503196 0.781136 0.35764706
000090 c5 36 a7 3e 0e 18 c9 3c 53 13 3b 3e bd 80 05 3f
       0.32658973 0.024547603 0.1826909 0.52149564
0000a0 91 d4 8f 3e 34 29 b2 bd 8c cc 9d 3e f5 42 fe 3d
       0.28091863 -0.08699265 0.3082012 0.12415115
0000b0 32 9e 2d 3e 88 80 1a 3f 64 d8 60 3f 17 5a dd 3c
       0.16954878 0.60352373 0.87830186 0.027020497
0000c0 49 e6 08 3e 4c d6 5d 3e 6e a7 cb 3e a4 28 3b 3f
       0.13369097 0.21663779 0.39776176 0.7310889
0000d0 dd 5b a6 3e 1d 76 4c 3e 25 a7 a1 3e 13 72 58 3c
       0.3249196 0.19966932 0.31572834 0.013210791
0000e0 9b f5 49 3e 45 93 62 3d 40 21 61 3e 06 ac 9e 3e
       0.19722597 0.05531623 0.2198534 0.30990618
0000f0 77 e6 8d 3e da d2 5e 3e a9 0f 18 3e 36 91 42 3e
       0.27714893 0.21760121 0.14849724 0.19000706

weight f4 [4, 64]
000000 94 69 0e 40 98 a0 12 3d 9b f9 84 bf 24 61 a8 bf
       2.225194 0.035797685 -1.0388674 -1.3154645
000010 b8 ff 49 3d 11 6a e3 3e 72 2d c4 3f 47 e9 72 bf
       0.049316138 0.4441686 1.5326369 -0.948872
000020 39 81 48 bf f4 08 b3 bd ac ea 80 bf e1 51 64 3f
       -0.7832218 -0.08741942 -1.0071616 0.8918744
000030 75 5d 48 bf c6 48 97 bf 08 5b d1 bf 08 c1 98 bf
       -0.78267604 -1.1819084 -1.6355906 -1.1933908
000040 3e 74 18 40 0a 66 be b9 c8 33 9e be eb 48 48 bf
       2.3820949 -0.0003631565 -0.3089888 -0.78236264
000050 b0 77 7f bf 95 4a 97 bf 91 84 ed bf f2 6a 80 3d
       -0.99792004 -1.1819636 -1.8556081 0.06270398
000060 f3 26 42 bf 92 ee da be 05 bd 5b bf 2e d9 d8 3d
       -0.7584068 -0.4276014 -0.85835296 0.10588299
000070 11 07 80 3d 2f 65 f1 bf 35 53 92 bf 0c 46 23 bf
       0.06251348 -1.8859004 -1.1431643 -0.6377876
000080 3d 0c c0 bf c6 af 67 3f e8 d6 9d 3f 01 a4 13 40
       -1.5003735 0.90502584 1.2331209 2.306885
000090 23 ed 77 bf 94 c2 db 3e fe 82 1b bf 7d ca 06 3d
       -0.96846217 0.4292189 -0.60746753 0.03290795
0000a0 57 f6 8d bf a9 0a 10 3c 57 6f b4 bf 0f 6e e8 3f
       -1.1090802 0.008791604 -1.4096478 1.8158587
0000b0 17 02 71 bf 95 29 6b 3f 3f 8b 43 40 2e 5f 9f bf
       -0.94143814 0.91860324 3.055374 -1.2450922
0000c0 e4 2f 43 bf 94 bc 04 c0 63 ca 82 bf b5 62 0b 40
       -0.7624495 -2.07401 -1.0218014 2.1778996
0000d0 f8 33 85 bf 36 ab a8 bf 13 4b 91 bf 0c 2e b8 3e
       -1.0406485 -1.317725 -1.1351036 0.3597263
0000e0 6d 3a 82 bf 85 a4 94 be 9b 4d 79 be 6f 98 ad bf
       -1.017408 -0.29031768 -0.2434601 -1.3562144
0000f0 ff e8 3f bf 85 9a a4 bf 82 79 22 bf 6e d7 f9 bf
       -0.749649 -1.2859656 -0.63466656 -1.9518869
000100 c5 db 03 40 b7 8a d3 3c 51 5a 89 bf fe 26 9a bf
       2.0602887 0.02582298 -1.0730687 -1.204315
000110 c0 b3 04 3b 6f e1 74 3f 60 01 a8 3f b5 00 3f bf
       0.002024874 0.95656484 1.312542 -0.74610454
000120 f1 e7 c7 bf a7 ba 9f 3d 15 7b 80 bf 54 f0 e2 be
       -1.5617658 0.07799273 -1.0037562 -0.4432398
000130 96 54 4b bf e4 10 8a bf b9 39 c9 bf 61 41 b1 bf
       -0.7942594 -1.0786405 -1.572074 -1.3848077
000140 af 2e 1c 40 b7 b1 ec bc e4 6b 09 3f fb cb 79 bf
       2.4403493 -0.028893335 0.53680253 -0.97576874
000150 56 11 45 bf 62 ef 15 bf b5 ed 05 c0 69 05 09 3d
       -0.7697958 -0.58568394 -2.0926335 0.033452425
000160 21 28 e1 be ea 9b 9e bf c4 a0 85 bf 33 1b 3c bd
       -0.43975928 -1.2391331 -1.0439687 -0.045924377
000170 f0 6c 79 3d 06 fd fd bf 8f af 9c bf 1c 91 13 bf
       0.060894907 -1.9842842 -1.2241076 -0.57643294
000180 74 df 90 bf 66 dc b3 3e 98 6e c7 3f 61 fc 43 40
       -1.1318192 0.35129088 1.5580626 3.062279
000190 e7 a9 a2 bf bb cd 0d 3f 0c e4 59 bf ed 8f 2e 3f
       -1.27081 0.55392045 -0.85113597 0.68188363
0001a0 4a fe 69 bf f8 6b 5d bd c3 e1 8f bf b7 93 72 3f
       -0.9140364 -0.054058045 -1.1240772 0.94756645
0001b0 8b 78 36 bf d2 fa 85 3f 7f 25 2d 40 a8 36 d4 bf
       -0.71277684 1.0467169 2.7054136 -1.657918
0001c0 7b d4 47 bf f3 00 d7 bf 74 2b ca bf 81 c4 f7 3f
       -0.78058594 -1.6797165 -1.5794511 1.9356843
0001d0 93 cd 8b bf a3 10 9b bf b4 38 0f bf 51 62 ce bd
       -1.0922111 -1.2114452 -0.559459 -0.10077346
0001e0 6c 8e 71 bf 4f 11 f4 3e e5 0c 8e bf b7 b3 9c bf
       -0.94357944 0.47669455 -1.1097685 -1.2242345
0001f0 88 cc 99 bf 85 51 84 bf 16 7c 51 bf be c4 ec bf
       -1.2015543 -1.0337378 -0.81829965 -1.8497541
000200 b7 a8 01 40 83 de 9e 3d 1c 10 81 bf 1d d4 9c bf
       2.0259225 0.077572845 -1.0083041 -1.2252232
000210 a0 71 c8 3d b8 81 11 3e 39 3f c7 3f 7e 7d 76 bf
       0.09787297 0.1420964 1.5566169 -0.96285236
000220 77 44 b3 bf 6d 1e 6c 3d ea e2 84 bf a7 cd 6d 3d
       -1.4005269 0.057646204 -1.0381749 0.058057453
000230 ef 12 16 3f f7 3f e3 bf d1 5d be bf d4 c5 b8 bf
       0.5862264 -1.7753896 -1.487238 -1.4435372
000240 b3 cd 20 40 84 6c b5 3c 2f ba 32 be 66 49 7c bf
       2.512555 0.02214647 -0.17453836 -0.985495
000250 3e 50 93 bf e2 cf 6e bf 1c 38 a9 bf 55 ff f3 bd
       -1.1508863 -0.93285954 -1.3220248 -0.11913935
000260 d4 4a d1 bf b2 e3 0d 3e a9 8b 64 bf 67 57 f1 3c
       -1.6350961 0.1385639 -0.89275604 0.029460622
000270 50 5e a5 bc 0d e9 e1 bf e8 80 8f bf f7 c7 c1 3e
       -0.020186573 -1.7649246 -1.1211214 0.37847874
000280 f7 0e d4 bf 9f f6 84 be 7a d5 b0 3f 91 4f ef 3f
       -1.6567067 -0.25969407 1.3815148 1.8696157
000290 99 42 d4 bf 0d 4e 8a bf d9 44 2f bf d8 29 d8 3e
       -1.6582824 -1.0805069 -0.6846443 0.42219424
0002a0 8e fe 78 bf fb 17 d1 3d e8 bd e6 bf 53 5b 0b 40
       -0.9726342 0.10209652 -1.8026705 2.177449
0002b0 d5 63 0c bf db b7 a5 3f 34 0e 40 40 66 ab 9a bf
       -0.5483983 1.2946733 3.000867 -1.2083557
0002c0 fc 1f 9f bf 9c c2 f5 bf 7e 50 92 bf e5 be 10 40
       -1.2431636 -1.9200015 -1.1430814 2.2616513
0002d0 38 37 c8 bf f3 a3 9c bf 85 3d 41 bf 37 9c 07 3e
       -1.5641851 -1.2237533 -0.75484496 0.13243185
0002e0 c6 10 85 bf 4d 61 15 bf 5d 15 4f bf 4d 0d c6 bf
       -1.0395744 -0.58351594 -0.8089197 -1.5472809
0002f0 f1 e4 5f bf 47 c7 de bf 53 0a 35 bf e0 7a df bf
       -0.8745871 -1.7404565 -0.7071888 -1.7459373
000300 13 97 17 40 e2 72 8f bc 65 30 0d bf d4 2e 97 bf
       2.3685958 -0.017510835 -0.5515197 -1.1811166
000310 30 b6 8c bd df e3 15 3e 91 d3 90 3f 77 c1 86 bf
       -0.06870687 0.14637707 1.1314565 -1.0527791
000320 ae 0d f9 3e e2 dd ab bd 3d ed 22 bf ff 6b 01 40
       0.4864325 -0.0839193 -0.63643247 2.0222166
000330 1f 9b 28 bf 2e 34 8b bf 0e b1 cd bf b6 a1 89 bf
       -0.65861696 -1.0875299 -1.6069658 -1.0752475
000340 26 76 08 40 d1 67 72 bd ee 67 98 bf b7 28 58 bf
       2.1322112 -0.05918104 -1.1906717 -0.84437126
000350 48 16 cb bf 08 cc 08 c0 45 c4 9a bf dd 47 9b bd
       -1.5866175 -2.137453 -1.2091147 -0.07582066
000360 34 7b a6 bf ee fa a6 3c 07 03 68 bf 34 62 b3 3d
       -1.3006349 0.020383324 -0.9062962 0.08758965
000370 88 6c 0a 3d 52 cc b8 bf 4f ec 98 bf 79 57 be bf
       0.03379491 -1.4437354 -1.1947116 -1.4870445
000380 ec 08 e1 bf 30 2f c4 3f cb 7c 75 3f a3 71 c6 3f
       -1.7580848 1.53269 0.95893544 1.5503429
000390 2b 4b b9 bf b5 f6 0b 3e 52 0f 4a bf f6 40 13 bf
       -1.4476064 0.1366833 -0.78929627 -0.57521
0003a0 e0 c9 26 bf 7d e7 e7 bc c3 c3 d0 bf 9d e0 15 40
       -0.65151787 -0.028308624 -1.6309742 2.3418343
0003b0 fe 2e a1 bf df 1e 89 3f 7a dd 51 40 7d 90 4e bf
       -1.2592466 1.0712546 3.2791429 -0.8068922
0003c0 cf e7 95 bf 07 fb e5 bf 91 e3 aa be d4 ab 0f 40
       -1.1711367 -1.7967232 -0.33376744 2.2448626
0003d0 83 ce b2 bf 38 a5 8d bf 8f 81 65 bf 8d 1c 0d bd
       -1.3969272 -1.1066046 -0.89650816 -0.034451056
0003e0 ec f5 68 bf 33 4c 84 bf bb 92 b8 be 74 e3 e3 bf
       -0.91000247 -1.0335754 -0.36049446 -1.7803788
0003f0 6b c1 ed be 83 ff 98 bf 59 75 41 bf 63 e4 e5 bf
       -0.4643663 -1.1952976 -0.75569683 -1.7960323

bias f4 [4]
000000 c3 32 bd 3e 15 6a 62 3e d6 33 07 3f 48 c0 7b 3e
       0.3695279 0.2211078 0.5281347 0.24585068

weight f4 [128, 8]
000000 15 2d da be fa 76 18 3e fc 2b 31 bf c1 77 89 be
       -0.4261252 0.14889136 -0.6920774 -0.26849177
000010 f9 26 af 3f 4e 43 13 3f 2f 67 d4 3e a4 b3 63 be
       1.3683769 0.57524574 0.41484973 -0.22236496
000020 0e 53 23 3e 60 78 ad 3e 8a f2 2f bf 9d b5 28 3e
       0.15949652 0.338809 -0.6872946 0.1647553
000030 b1 8a 9f bd f8 1b d4 3e 2e fd 31 be 04 51 09 bf
       -0.07790125 0.41427588 -0.17381737 -0.53639245
000040 c5 42 7e be a2 70 4c 3f 96 df 1e be ba 94 2f 3f
       -0.24830158 0.79859364 -0.15514979 0.68586314
000050 71 de 4b 3f 79 15 8b 3f 46 80 56 bd 5d f9 19 3e
       0.79636294 1.0865928 -0.052368425 0.15036531
000060 f8 04 39 bf 0c eb 21 40 c7 19 a8 3f 15 31 43 bd
       -0.72273207 2.5299711 1.3132867 -0.04765423
000070 40 4b af be db 46 40 bf 09 cc ad be 69 dd 93 3e
       -0.342371 -0.75108117 -0.3394473 0.2887986
000080 14 c5 5a 3f af 6d 59 3f 18 f9 df be c9 44 f7 3e
       0.8545697 0.8493299 -0.4374473 0.48294666
000090 89 98 19 3f 89 f6 3e 3f 54 01 e6 bd c5 a6 87 be
       0.59998375 0.7459493 -0.11230722 -0.26494423
0000a0 d8 18 13 bf 47 23 b8 bc a3 1f 62 bf fa 5a 5a be
       -0.57459784 -0.022477759 -0.88329524 -0.21323767
0000b0 c8 d1 ba bd cb 8d 48 3b 50 a3 06 3f ec 22 f4 3d
       -0.09122044 0.0030602093 0.52592945 0.11920723
0000c0 f6 bf e9 3e 4d 1d 40 3d 5a 02 0c 3f e1 c5 87 3c
       0.45654267 0.046902943 0.5469109 0.016573848
0000d0 b1 97 62 bf 4c 6a 69 3f 85 51 f4 3d a9 19 97 3d
       -0.8851271 0.9117782 0.11929611 0.07377941
0000e0 30 fc a1 bd f0 2a 57 3f 87 cd c1 be 6a c2 1f 3f
       -0.07909429 0.8404989 -0.37852117 0.6240603
0000f0 87 d9 5e 3f 12 81 33 3f 2f 64 bd be d7 a4 a3 be
       0.8705067 0.7011882 -0.36990497 -0.319617
000100 be 80 86 bf c9 c6 cd bf 98 25 81 be 2b e4 32 40
       -1.0508039 -1.607629 -0.25223994 2.7951763
000110 c0 5c 5b 3e c8 c0 d3 3e 96 d0 e1 bd c2 45 65 3e
       0.214221 0.41358018 -0.11026113 0.22389892
000120 33 35 1e bf c1 ad 15 40 83 0d 48 3d d6 ac 96 be
       -0.61799926 2.33873 0.04884101 -0.29428738
000130 94 18 91 bb 84 4c 3b 3e 4e 6d c8 3e 60 85 c0 3e
       -0.004427979 0.18290907 0.39145893 0.37601757
000140 a0 75 c6 be 64 b5 dc be fe 53 90 3f 27 b7 e6 3f
       -0.38761616 -0.4310714 1.1275632 1.8024644
000150 7e d4 95 3f 84 36 cb 3e a1 7d ac 3f f8 ff 09 3f
       1.1705472 0.3969003 1.3475839 0.539062
000160 23 0b ae 3e 34 7d 4a 3d d7 9b 0a 3f be 86 8a be
       0.33992872 0.04943581 0.5414404 -0.27055925
000170 fc 88 33 ba f5 98 93 3f 6a 57 42 3f ef 3b 0e be
       -0.00068487204 1.1531054 0.75914633 -0.1389005
000180 9d 8e 05 bf f7 1f 83 3e 50 86 ad 3d 4d b0 9a bf
       -0.52170736 0.25610325 0.08472884 -1.2085053
000190 94 4c 2b be a8 b8 65 be df 22 e7 3e 13 b1 ac 3c
       -0.16728431 -0.22433722 0.45143792 0.02108053
0001a0 04 72 54 be 4e e2 6c bf 5e 39 2c 3d 40 9a 59 bf
       -0.20746619 -0.92532814 0.042046897 -0.8500099
0001b0 3e 8d 17 bf ff d6 05 3f 25 ee 29 3e 76 2d 9a 3e
       -0.59199893 0.52281183 0.16594751 0.3011281
0001c0 d2 47 97 3e 49 c1 2c 3f 2c a4 2a 3d 8a ed ba be
       0.29546982 0.6748243 0.041660473 -0.36509353
0001d0 14 c6 b1 3f 12 83 b6 3f 12 df 09 3d fc 59 ab bd
       1.3888574 1.425875 0.033660002 -0.083667725
0001e0 a6 96 98 3d 16 ef ca 3e 2f 6d 4c 3e 6d c9 85 3f
       0.07450609 0.39635533 0.19963525 1.0452095
0001f0 63 3d 61 be de 1d 23 bc d6 06 d9 bd d9 17 ad 3f
       -0.21996073 -0.009955851 -0.10597007 1.3522903
000200 94 c2 b2 3e aa 58 ac 3e b0 66 d3 3e c7 5c 5b bf
       0.34914076 0.33661395 0.41289282 -0.8568844
000210 f8 e3 01 bf 04 a7 7c 3e d7 f5 a7 3e 0b 36 08 bf
       -0.5073848 0.24673086 0.32804748 -0.53207463
000220 3c 7f ea 3e 7f f5 8f bf 93 18 14 3f f4 3b 87 3e
       0.45800197 -1.1246794 0.5785 0.26412928
000230 05 2b 8d bf 28 e8 33 bf 13 fa 01 3f aa 7b ef bd
       -1.1028754 -0.7027612 0.5077221 -0.11693509
000240 11 3f 70 3c b3 3f 33 bf 82 04 13 bf 8e 4b bf 3f
       0.014663474 -0.7001907 -0.57428753 1.4944932
000250 36 12 c0 3f 02 a5 0a bf 8e 74 05 bf 53 a4 25 3d
       1.5005558 -0.5415803 -0.52130973 0.040439915
000260 c8 6e 63 bf 57 4a 24 3e b1 ed 97 bf 0e a0 16 be
       -0.88840914 0.16043983 -1.1869413 -0.14709494
000270 74 31 94 be 4e e3 fa be 95 d8 8d 3e da 2a ce 3d
       -0.2894398 -0.49001545 0.277043 0.10066767
000280 2e 47 16 bf 34 e7 90 3f 19 a2 75 3f c0 cb be 3e
       -0.5870236 1.1320558 0.95950466 0.37264824
000290 b7 b4 d5 bd f1 0a 08 bf 5b b3 99 bf c8 ec 01 3f
       -0.10434859 -0.53141695 -1.200786 0.50751925
0002a0 c9 18 6b be d0 31 47 3f 55 8c 78 be 32 98 7a 3f
       -0.22958674 0.7781038 -0.24272282 0.9788848
0002b0 bd 23 79 3e a4 4b 3e 3f 30 65 d7 3d 5f 5c bc 3e
       0.2433004 0.7433417 0.10517347 0.36789224
0002c0 14 a2 d3 3e 8e 8d ed 3d 93 75 32 3f 62 b9 37 40
       0.41334593 0.11599265 0.69710654 2.8706899
0002d0 7d b9 d1 3d ab 9f af bd fa c4 9a 3d ec 06 f5 bc
       0.10240457 -0.08575376 0.075571015 -0.029910527
0002e0 64 cd fe be 8a 80 dc 3f e4 63 0a be 13 d0 dc 3c
       -0.49766076 1.7226727 -0.13514668 0.026954686
0002f0 e6 42 b9 be c6 b5 58 bd 0d cb ab 3e 71 28 4a 3e
       -0.36183852 -0.052907728 0.33553353 0.1974199
000300 72 26 33 bf b6 41 e4 be aa 8b 35 bf 93 6f 84 bd
       -0.6998054 -0.44581383 -0.70916235 -0.064665936
000310 b3 83 73 3e 05 09 ad 3d d7 4c 9c 3f 80 d3 03 3f
       0.23780708 0.08448986 1.221095 0.514946
000320 df 15 44 3e dd 8d 5a 3f 7a ce 3f 3f 65 ec 5c be
       0.19148968 0.85372716 0.74924433 -0.21574552
000330 12 a3 01 3f 1b 3c 2c 40 bb a9 9d 3e 89 84 12 be
       0.5063945 2.6911685 0.30793557 -0.1430837
000340 0b 6b 8c 3e 8d ac 6c bd 1a b9 d7 be 91 d2 01 3f
       0.27425417 -0.057781745 -0.4213341 0.50711924
000350 6c 21 a5 3e 6c bb 8e 3f f3 31 46 3f 20 49 c6 bc
       0.3225206 1.1150947 0.77419966 -0.02420479
000360 b8 3a a7 be 2d e8 76 3e bb 59 bc be 09 c5 53 3d
       -0.32661986 0.24112006 -0.3678721 0.05170158
000370 55 1d 93 3f 92 fd 28 3f 57 79 7d 3f d5 3c 07 3e
       1.1493326 0.6601192 0.99013275 0.132068
000380 98 9b ce 3e 0b 56 66 3e 3e ab 32 be 9e 2a a0 bf
       0.40353084 0.2249376 -0.17448136 -1.2513006
000390 01 32 19 bf 57 d7 86 3e 47 d0 4e 3e b3 b7 60 bf
       -0.59841925 0.26336166 0.20196639 -0.877803
0003a0 ed 4a 61 3d 70 d8 25 3f 27 f5 de be 46 c1 e1 bd
       0.055003095 0.6478338 -0.4354641 -0.11023192
0003b0 9e 6e 4e be e0 57 7a bf 23 c3 cc 3e b3 26 6c bf
       -0.20159385 -0.97790337 0.39992628 -0.9224655
0003c0 15 08 d9 bd 85 27 93 3e 66 2f 0c 3e 07 2c 42 3d
       -0.10597245 0.28741089 0.13689956 0.04740527
0003d0 27 4e 89 3e 8b fe bd bf 7e dd 18 bf 2e ce c9 be
       0.26817438 -1.4843305 -0.5971297 -0.39415115
0003e0 f1 5c e8 be 33 b0 a9 3f ae eb 8b be 5c 26 e1 bd
       -0.4538341 1.3256897 -0.27328247 -0.109936446
0003f0 13 80 52 be 07 20 1c bc 16 da fb 3e 73 d0 ee 3e
       -0.20556669 -0.00952912 0.49189824 0.4664341

bias f4 [128]
000000 1e 9d 7b bf 66 06 12 3f 21 13 03 be eb 2a 15 40
       -0.98286617 0.57041013 -0.12800266 2.3307445
000010 db 06 11 bf 01 fe c6 3e 22 16 3d 3f 55 61 1c be
       -0.56651086 0.38865665 0.73861897 -0.15271504
000020 70 82 0e bf 6f e7 90 3f 78 3b f3 3d 0c 4c cb 3e
       -0.5566778 1.1320628 0.11876577 0.39706457
000030 6a b3 d2 3d 0c 23 8e 3f 4b 04 b6 3d c5 a4 6c 3e
       0.10288127 1.1104445 0.088875376 0.2310973
000040 59 74 cd 3e 43 e8 b7 3f b0 33 3e 3e 88 41 a3 3e
       0.4012783 1.4367756 0.18574405 0.31885934
000050 20 8e b4 3f 30 76 95 3f 2d e5 cf 3e 66 81 9e 3f
       1.4105873 1.1676693 0.40604535 1.2383239
000060 c4 e2 06 3e 6f 14 b5 bd e2 10 04 3f ef a2 a3 bd
       0.13172442 -0.08841788 0.5158826 -0.079900615
000070 aa 3a 29 3e 0e a7 df 3f 9b 4e 4e 3f 9e 23 56 3f
       0.16526285 1.7472856 0.8058869 0.836481
000080 2e 4e 69 3e 22 d2 4d be 77 1e 03 3f f7 b8 1c bf
       0.2278373 -0.2009969 0.5121836 -0.61219734
000090 cc e5 29 be 61 fb 93 3f 61 22 5b 3f 80 90 1e 3e
       -0.16591567 1.156109 0.85599333 0.1548481
0000a0 b4 41 e0 3e fd 38 d0 be 34 79 a6 be 2d 98 be 3e
       0.43800128 -0.4066848 -0.32514346 0.37225476
0000b0 3b c7 d6 3e ec c0 b1 be a4 3f 1f 3e 85 e1 3c 3c
       0.41948876 -0.347175 0.1555162 0.011528377
0000c0 37 59 b6 bd 2a e5 e5 3d 6b 9f e5 3d ae 81 73 3f
       -0.08903735 0.1122535 0.11212047 0.9511975
0000d0 ff 85 e3 3e f3 3b 2a 3c 6d 70 50 3d d3 a9 9d bf
       0.44438168 0.01039027 0.050888468 -1.2317451
0000e0 aa 1f 9f be f1 1f 61 3f 75 45 93 3e be a2 8f 3e
       -0.31078845 0.87939364 0.2876393 0.2805385
0000f0 06 e7 07 3e 62 5a 50 be f1 a8 5e 3f f9 a6 93 3d
       0.13271722 -0.20346978 0.86976534 0.07209582
000100 2b d8 69 3f d2 0d 18 be e9 04 50 3f c6 72 95 3f
       0.9134547 -0.14849022 0.8125749 1.1675651
000110 c9 b5 54 3f 4e b0 95 be e6 bd 23 bf c9 9d 93 3d
       0.8308988 -0.29236072 -0.6396164 0.072078295
000120 f5 42 77 3d 50 9e e3 3e c0 06 59 3e 8e 87 d3 3e
       0.06036659 0.4445672 0.21193981 0.41314358
000130 b1 5d a2 be 8b af a9 3e cd 98 73 3f be 8a b7 3e
       -0.31712106 0.3314174 0.9515503 0.3584804
000140 ef bf 0d 3e af e2 47 3b f0 ae 18 3f 8b 71 b7 3d
       0.13842748 0.0030500104 0.59641933 0.089572035
000150 c4 5c 92 3e dd e3 c6 3e ca a5 43 be 09 2e 51 3e
       0.285864 0.3884572 -0.19106212 0.20427717
000160 e6 5f a2 3e 4a f2 8a 3e 3d 05 97 3e d7 41 58 be
       0.3171379 0.27137977 0.29496184 -0.21118866
000170 80 ca 80 3e 38 5d 9a 3e 00 89 c0 be cd e2 0f bf
       0.25154495 0.30149245 -0.37604523 -0.56205446
000180 d6 1d 95 be e4 5a 22 3f 7e 12 9c 3e a5 af 1f bf
       -0.29124326 0.6341994 0.30482858 -0.6237739
000190 e9 48 39 be e7 28 19 bd cb 55 e8 3e 7a 6b 0f 3f
       -0.1809422 -0.037392523 0.45377955 0.5602337
0001a0 85 e3 6b 3f 58 88 df 3e 2b 80 fa 3d 51 f6 4d 3f
       0.9214404 0.4365871 0.12231477 0.80453974
0001b0 27 35 ed be 88 ba 03 3f 16 37 c4 3e dd 0e 0c 3f
       -0.46329615 0.514565 0.38323277 0.5471018
0001c0 70 2b 6b 3f 5e 0d 2e 3d 5e 40 27 3e 43 90 8d 3e
       0.91863155 0.042493217 0.16333148 0.27649125
0001d0 d3 c5 16 3f 49 6a 65 be ed 94 31 be 95 dc db 3e
       0.58895606 -0.22403826 -0.17341967 0.42941728
0001e0 95 22 7a be 42 0d 05 3f 9d 1b d6 bd 49 bd f4 3d
       -0.24427254 0.51973355 -0.104544856 0.11950166
0001f0 87 c9 e8 3d 81 fe 7d 3e 02 f1 4a 3f 09 43 48 3d
       0.11366563 0.24804117 0.79274 0.048892055

weight f4 [64, 128]
000000 25 3f a0 3f 9f 5e 22 3f f6 d3 fe be c0 26 1b 3f
       1.251927 0.6342563 -0.49771088 0.60606
000010 43 58 30 bf 56 20 d4 3c 40 95 db 3e 60 cc 95 be
       -0.68884677 0.025894325 0.42887306 -0.29257488
000020 34 bb 04 c0 c0 aa b6 3e 82 e1 d5 3f a6 5f 65 be
       -2.073926 0.35677147 1.6709445 -0.22399768
000030 9e d4 c1 bf e4 bc 9a 3f 22 71 db 3e 8b c3 9b 3d
       -1.5143011 1.2088895 0.4285975 0.07605656
000040 8d 33 95 bf c5 90 65 40 b4 91 e5 3f fe 4a 10 bf
       -1.1656357 3.586961 1.793509 -0.5636443
000050 d1 67 bb 3f 6b 85 21 3f a3 42 24 bf 51 91 74 3e
       1.4641057 0.63094205 -0.6416418 0.23883559
000060 7a 22 94 3d fa 29 a0 3e b3 ea 9d bc 2e 40 bb bd
       0.072331384 0.31282026 -0.019276952 -0.09143101
000070 7f 30 d6 3f 11 3b 6f 3e 11 08 76 3f 40 79 67 3e
       1.673355 0.23362376 0.9610606 0.22604847
000080 95 52 e2 bf 32 fb d0 be 31 43 a8 3e eb 3d 96 3e
       -1.7681452 -0.40816647 0.32863763 0.29344115
000090 a1 0c d6 3e 14 9e c3 3f 9c 10 09 3f 3a f1 82 40
       0.4180651 1.5282617 0.5354097 4.0919466
0000a0 a6 dc 86 3f 28 94 99 be 22 9b 66 3d 46 d6 47 be
       1.0536087 -0.29995847 0.05630029 -0.19515333
0000b0 db 72 fb bd 0d a3 2e c0 4c 96 c9 bf 2e 7a f6 3e
       -0.12277766 -2.7287018 -1.5748992 0.4814009
0000c0 65 d7 4c c0 90 ed 13 bf 7b 83 26 c0 ff ed 1c 3f
       -3.2006466 -0.57784367 -2.601775 0.61300653
0000d0 54 87 6c be 71 27 9c bf f4 c5 9f c0 2c a3 b3 3f
       -0.23098499 -1.2199537 -4.992914 1.4034171
0000e0 b0 d6 b6 be c6 f1 96 3e db 09 4c c0 bd 12 19 3f
       -0.3571067 0.29481333 -3.1881015 0.5979422
0000f0 0e 45 4c 3f 22 a3 24 c0 c0 35 07 40 06 06 a2 3e
       0.7979287 -2.5724568 2.1126556 0.3164522
000100 63 42 31 3e 63 b4 93 be 48 40 82 3f 88 39 fa 3f
       0.17310481 -0.28848562 1.0175867 1.9548807
000110 46 ab 3a 40 74 5a d5 be 71 6d 27 3e f9 69 08 c0
       2.9167037 -0.41670573 0.16350342 -2.131468
000120 a8 73 00 c0 c2 7d 08 c0 99 b9 c9 3f eb 17 76 be
       -2.007059 -2.1326756 1.5759765 -0.24032561
000130 51 a5 10 3f 69 0e 3b be f7 dc 9d bf 2b 25 06 be
       0.5650225 -0.18267216 -1.2333058 -0.13100116
000140 c4 1f 3c bf 53 ea 00 c0 24 55 56 bd 13 a1 33 be
       -0.7348597 -2.014302 -0.05232729 -0.17541914
000150 dd 7f 98 be a8 a4 5b be 01 e2 0e c0 90 fa 9e bc
       -0.29785052 -0.2144953 -2.2325442 -0.019406587
000160 71 74 09 be fc 53 1c 3f 95 85 3f 40 d3 a6 6c 3f
       -0.13423325 0.6106565 2.9925282 0.92442054
000170 59 c7 98 bf 1a 0e 69 b9 ad dc 1a be 5d d4 57 bf
       -1.1935836 -0.00022225865 -0.15123244 -0.84308416
000180 fd 31 68 3e d2 c0 c1 bd af fb 1d c0 10 7e aa c0
       0.22675319 -0.09460606 -2.4684865 -5.3278885
000190 7c fb d1 3f 26 5d 1f c0 b8 b8 85 3f ff f7 23 3f
       1.6404872 -2.4900603 1.0446997 0.64050287
0001a0 7c 1d 2c 3f ee 5b 80 be 33 a4 32 c0 c3 13 94 3e
       0.6723249 -0.25070137 -2.791272 0.28921327
0001b0 d3 c6 66 bf fb 9e 18 c0 27 c4 0b be 7a 29 ec 3f
       -0.9014713 -2.3847034 -0.13649045 1.8450158
0001c0 5f 8b 2a 3f 89 6b b7 3e 88 6a cc 3f bd cb 77 3e
       0.66618913 0.3582423 1.5970011 0.24198814
0001d0 db 01 8f 3e 3a 6a 80 3f a0 59 ac bf 22 a9 00 c0
       0.27931103 1.0032418 -1.3464851 -2.010323
0001e0 a3 2c 96 3f 8d ac 31 be aa 6d 19 c0 2b 25 71 c0
       1.1732372 -0.17350979 -2.3973184 -3.7678936
0001f0 90 32 0f 3f c1 85 97 bf 0e 2e 02 40 41 aa 86 bf
       0.5593653 -1.1837693 2.034061 -1.0520707
000200 3e 1c 62 bd 01 ef 46 bc 5a bf aa 3d a6 01 76 3b
       -0.055202715 -0.012141944 0.08337279 0.0037537604
000210 e7 59 ad 3d 82 d7 7f bd 9a 2c 8b bd d9 28 fe bc
       0.08464413 -0.062461384 -0.067956164 -0.031025337
000220 74 69 14 3d 56 22 06 bc 27 d5 b2 bd 63 bc 21 3d
       0.03623338 -0.008186897 -0.08732062 0.0394863
000230 a6 e1 6b bd 78 f7 f3 3c fc 12 03 3d e8 4f 08 3d
       -0.057588242 0.029781088 0.032000527 0.03327933
000240 13 62 a8 bd da 81 01 3c f3 df 93 bd 0e 96 85 3d
       -0.08221831 0.007904494 -0.07220449 0.06522761
000250 64 d8 c7 3c 1f 8b 90 3b b3 ee d5 3c 45 9f 2c bd
       0.024395175 0.004411116 0.026114797 -0.04214408
000260 6d 82 12 bd 4d 7d 0c 3d e0 2f 9e bd 0b fa b3 bd
       -0.035768915 0.034299184 -0.07723975 -0.08787926
000270 cc 79 4c 3c ea 05 21 bd d6 33 29 3c d3 59 ae bd
       0.0124802105 -0.03931228 0.0103273 -0.08513226
000280 6b 85 6e bd d6 51 2a 3d 07 b7 c6 bc a6 26 b7 3c
       -0.058232706 0.04158195 -0.024257196 0.022357296
000290 c5 27 93 3c 88 40 90 bd 93 ae 85 bd b8 36 0f 3c
       0.0179633 -0.07043558 -0.06527438 0.008741073
0002a0 c7 89 2b bd 17 c4 5e bd cf 35 57 bd 2e e9 8d bd
       -0.04187944 -0.054386225 -0.05254155 -0.06929241
0002b0 70 3a f6 bc 09 2a 9f bc a0 48 87 3d 2f 38 c1 bd
       -0.030057162 -0.019429224 0.06605649 -0.09434544
0002c0 b0 c1 12 bd 3e b8 c4 3c 30 74 b7 3c 4d a5 ac bd
       -0.035829246 0.024013635 0.02239427 -0.08429966
0002d0 69 fa 93 3d 62 7f 20 bc d0 de 0d bd 85 94 0e bd
       0.07225496 -0.009795995 -0.03463632 -0.034809608
0002e0 a6 f1 80 bc e4 81 a9 39 ab e4 95 3b 46 fb 50 bc
       -0.015740227 0.00032330968 0.0045743785 -0.012755221
0002f0 d4 c8 bb bc 2b 84 f9 3c 54 ac 80 3d 24 a7 e6 3c
       -0.02292291 0.03045853 0.06282869 0.02815587
000300 34 d3 4a 3b 5b ae 1e 3c a9 18 45 bd 1a 64 ac bd
       0.003094864 0.009685124 -0.04811922 -0.0841753
000310 01 7c 8c bd 42 a9 74 3d 56 5f 0c 3d a5 dd 5f bd
       -0.06859589 0.05973173 0.034270607 -0.054654736
000320 eb 4e ae bd 15 00 81 bd a1 32 36 3d cb f2 ce 3c
       -0.08511146 -0.06298844 0.044481877 0.025262257
000330 18 2c b0 3d 95 c1 15 3d 90 56 6d 3c 78 bf 4a bb
       0.0860216 0.036561567 0.01448597 -0.0030936878
000340 ea 51 26 3c 4b f7 31 3d aa 3c 9e bd 49 a9 a3 3d
       0.010151366 0.043448728 -0.077264145 0.07991273
000350 4c 78 1e bd bf a1 5d bd b0 a1 8f bd 86 4e ed 3c
       -0.038688943 -0.05410933 -0.07013261 0.028968107
000360 69 ae 92 bd 76 89 17 bb 58 3f 8b bd f3 22 bf bd
       -0.07162172 -0.0023122705 -0.06799191 -0.09332838
000370 dd 40 29 3d ee 3e 90 bd 4f 05 a0 3d 6e 1d a3 bd
       0.041321624 -0.07043253 0.078135125 -0.07964598
000380 76 6e b5 3b 36 a5 93 bc f2 ab ae 39 d0 88 8b 3d
       0.0055368496 -0.018023115 0.00033315975 0.06813204
000390 0c c7 f2 3c ad 5b 6c 3c 75 33 9f 3c 3b 04 c8 bc
       0.029635929 0.014426154 0.019433716 -0.02441608
0003a0 63 02 19 3d 35 0a 97 bc 9c 46 bf 3c c6 40 aa bb
       0.03735579 -0.018437484 0.023349099 -0.00519571
0003b0 48 c4 11 3c d0 f3 1f 3d 11 e0 87 3d 38 49 08 3d
       0.008896895 0.039050877 0.06634534 0.03327295
0003c0 cb 32 45 bd c8 d0 60 3d 96 a3 9c bd e0 03 c1 bc
       -0.048144143 0.05488661 -0.07648389 -0.023561418
0003d0 38 5d ae 3c 9d ce 9d bd 80 ff 29 bc 07 76 8a bd
       0.021284685 -0.07705424 -0.010375857 -0.06760793
0003e0 70 8b 81 bd e9 c2 d6 3c aa 30 8d bd 32 bc b8 bd
       -0.06325424 0.026215987 -0.068940476 -0.090202704
0003f0 10 3e 6c bd 9f 69 9a 3d f7 11 aa bc d2 08 89 bd
       -0.057676375 0.07539677 -0.02076052 -0.066911355

bias f4 [64]
000000 45 b9 20 3f 5c 73 9c bc 27 1e 6f 3e 75 ff 78 3e
       0.627827 -0.019097976 0.23351346 0.24316199
000010 b9 72 97 3d ba c2 86 3e cf a1 d1 be ff 8c e5 3e
       0.073949285 0.2632044 -0.40943763 0.44834134
000020 ca 2b 37 be bb 5b 3a bd 2f cc 8c 3e 5d da 08 3e
       -0.17887798 -0.045497637 0.2749953 0.13364549
000030 87 11 dd 3e 6e 6f 9f 3e 96 1e 11 3f a9 7f 7a 3e
       0.43177435 0.31139702 0.56687295 0.24462761
000040 74 6c 42 be 89 78 a7 3d 83 e9 25 3d 29 0f 25 3e
       -0.18986684 0.08177287 0.040505897 0.16119064
000050 03 fe 9d 3e 01 5b 1d 3f 72 79 25 3f e6 db fc 3c
       0.30857858 0.61466986 0.64638436 0.030866574
000060 2d da 50 3e f4 ab 9b 3e ce 31 58 3e b5 bb 37 bd
       0.20395727 0.30404627 0.21112749 -0.044856746
000070 3d 33 5a 3d 74 7b 82 3e 72 c2 72 3e af 92 17 3f
       0.05327152 0.25484812 0.23706988 0.59208196
000080 c1 18 f7 3e 73 9a ab 3e c9 cc 47 3f a3 c8 b6 3e
       0.48261073 0.33516273 0.7804685 0.3569995
000090 73 9e a6 3e 70 58 c6 3c 69 3a 3b 3e 7a 46 05 3f
       0.32542762 0.024212092 0.18284 0.52060664
0000a0 0b 3e 8f 3e 34 29 b2 bd 77 c5 9d 3e ef 6f fd 3d
       0.27977023 -0.08699265 0.30814716 0.12374865
0000b0 a3 fb 2c 3e 32 68 1a 3f 13 98 60 3f 25 aa d4 3c
       0.16892867 0.6031524 0.87732047 0.025960037
0000c0 af b4 09 3e e7 e9 5c 3e 1f b8 cb 3e 30 e6 3a 3f
       0.13447832 0.21573602 0.3978891 0.7300749
0000d0 cc d4 a5 3e 06 d9 4b 3e a9 de a0 3e 9a 65 6b 3c
       0.32388914 0.19907007 0.31419876 0.014367485
0000e0 bb 23 49 3e d9 b4 60 3d cc f2 61 3e cf 11 9e 3e
       0.19642536 0.05485997 0.22065276 0.30872962
0000f0 bd e0 8d 3e 6d 45 5d 3e 18 11 18 3e ed 8a 40 3e
       0.27710524 0.21608515 0.14850271 0.18802996
