pendulum_latest.pt (torch, 163157 bytes, 40 tensors)

weight f4 [64, 3]
-0.11702832 0.6214261 -0.3069707 1.7041988 2.51673 -0.9159406 -0.63680327 0.5944733
-0.2931453 0.34673554 0.29443693 0.03809002 0.408483 -0.028785676 -0.2236855 -0.24460651
2.4575112 -0.6575401 4.854555 1.1446142 -0.08051426 1.4555138 3.6974041 -0.36864364
0.08405267 0.95174676 0.020719824 0.20357166 0.33517346 -0.057282973 1.4605379 2.1741412
0.6220007 0.45840272 -1.6847717 -0.09883074 2.4637437 3.78281 -0.19175677 1.1889528
-1.8874809 -1.3653804 0.63277423 -2.0796301 0.009371793 2.7338164 1.657857 -0.33114928
3.4131112 -2.1513922 -0.3719062 1.8048719 3.296497 -0.29796335 -0.16679512 0.80923814
0.005992596 1.1294526 -2.630356 -0.075587 3.52474 -1.264823 -0.3388044 -0.2227791
0.45683232 -0.011910953 0.52450585 0.30628034 0.025374075 3.6883504 0.30722412 -0.41159934
4.0348625 -1.3810523 0.13480252 -0.018105319 0.16854826 0.0360706 -0.13777691 -3.2072434
0.11055119 2.7065897 -0.7703024 0.37705013 0.7166472 -0.8792976 -0.013830369 2.925591
0.7888753 0.42136055 1.1345326 -0.79049987 0.00026521538 -1.9861339 0.9577829 -1.2073033
-0.089659415 -2.518858 0.024351677 0.02540145 -0.17475909 0.019551037 1.1244694 0.433306
0.18637341 3.5812955 1.9973352 1.2549176 0.28004453 0.43249536 0.0041852356 1.3180288
0.5854954 0.6327036 2.688203 -1.5873078 -0.6369957 2.711606 -0.2254323 -1.1396343
1.1218305 1.6205597 -0.0017339145 2.8220654 -0.5022253 -0.7694545 0.02029048 0.5599092
-0.019158239 -0.98554546 -1.4639839 0.004390546 -0.21211573 0.7033668 -0.23763272 2.3761199
5.0325475 0.33042106 0.02579686 -0.053438496 -0.03997052 -0.06057126 0.03207789 0.0031818394
4.6039147 -1.9270817 -0.5003033 0.078512214 -0.7920029 -0.0037052433 3.5251 1.4273742
0.030548 3.8743894 -1.1783502 -0.094433166 0.18310788 0.9861118 -0.1845757 2.817548
-0.38847515 -0.9531281 0.26191035 0.82461303 -0.0017308417 3.3412404 -0.66220057 -0.15847994
-1.8678014 -1.7886049 -0.34246162 0.78890204 -2.0701137 0.07361615 0.5259067 6.346685
1.2408174 2.6553047 -1.7321621 0.4072411 3.5616975 0.5510236 0.69790506 -1.0350732
1.4997402 0.71944886 1.587323 -1.2118211 -0.05187099 2.1848142 -1.2962742 -0.13354175
00000000: 8bac efbd c815 1f3f 432b 9dbe 3023 da3f
00000010: 1b12 2140 157b 6abf 8a05 23bf 672f 183f
00000020: 2417 96be 5287 b13e 70c0 963e 4804 1c3d
00000030: af24 d13e f0cf ebbc d00d 65be 217a 7abe
00000040: dd47 1d40 8c54 28bf 8458 9b40 b882 923f
00000050: a9e4 a4bd 474e ba3f 45a2 6c40 dcbe bcbe
00000060: ce23 ac3d ada5 733f 9fbc a93c 1775 503e
00000070: db9b ab3e 8da1 6abd e8f2 ba3f 2125 0b40
00000080: 703b 1f3f c3b3 ea3e 99a6 d7bf c567 cabd
00000090: faad 1d40 8f19 7240 e35b 44be 9b2f 983f
000000a0: f998 f1bf c9c4 aebf 7efd 213f a918 05c0
000000b0: 268c 193c d9f6 2e40 a834 d43f 668c a9be
000000c0: 6a70 5a40 69b0 09c0 7d6a bebe 0b06 e73f
000000d0: cff9 5240 a78e 98be 57cc 2abe 3b2a 4f3f
000000e0: 8a5d c43b e791 903f c157 28c0 5bcd 9abd
000000f0: 5795 6140 b8e5 a1bf c577 adbe 3420 64be
00000100: ede5 e93e 2826 43bc 0446 063f c7d0 9c3e
00000110: 4bdd cf3c ef0d 6c40 7b4c 9d3e 26bd d2be
00000120: 981d 8140 52c6 b0bf ac09 0a3e 9b51 94bc
00000130: ea97 2c3e c4be 133d 6415 0dbe 7a43 4dc0
00000140: aa68 e23d c438 2d40 8a32 45bf b70c c13e
00000150: 3176 373f a619 61bf c698 62bc e23c 3b40
00000160: bbf3 493f 92bc d73e 5d38 913f 335e 4abf
00000170: 9b0c 8b39 a339 febf 4331 753f ea88 9abf
00000180: 5b9f b7bd f834 21c0 2b7d c73c b416 d03c
00000190: 0cf4 32be 7f29 a03c 9dee 8f3f 49da dd3e
000001a0: acd8 3e3e f233 6540 aea8 ff3f 24a1 a03f
000001b0: ff61 8f3e 0870 dd3e 4d24 893b 2bb5 a83f
000001c0: 07e3 153f ddf8 213f 850b 2c40 e72c cbbf
000001d0: 2612 23bf f48a 2d40 bad7 66be 89df 91bf
000001e0: 2498 8f3f 806e cf3f 8444 e3ba b89c 3440
000001f0: d691 00bf f8fa 44bf 3938 a63c 3656 0f3f
00000200: bdf1 9cbc b54c 7cbf d363 bbbf 92de 8f3b
00000210: de34 59be d90f 343f fe55 73be 5912 1840
00000220: a10a a140 f32c a93e f053 d33c 53e2 5abd
00000230: 21b8 23bd 9219 78bd 1b64 033d 6886 503b
00000240: 4553 9340 9daa f6bf e113 00bf 03cb a03d
00000250: b4c0 4abf abd3 72bb 3d9b 6140 33b4 b63f
00000260: cd3f fa3c fff5 7740 2ed4 96bf 2d66 c1bd
00000270: a280 3b3e d371 7c3f 6a01 3dbe b552 3440
00000280: 37e6 c6be 3400 74bf 1d19 863e d719 533f
00000290: 69dd e2ba e2d6 5540 fa85 29bf 9148 22be
000002a0: 1e14 efbf 01f1 e4bf 2157 afbe 7cf5 493f
000002b0: be7c 04c0 10c4 963d d2a1 063f 0b18 cb40
000002c0: 1bd3 9e3f 83f0 2940 7db7 ddbf e881 d03e
000002d0: daf2 6340 e20f 0d3f e8a9 323f 477d 84bf
000002e0: 7df7 bf3f cd2d 383f 662d cb3f f41c 9bbf
000002f0: ad76 54bd ffd3 0b40 50ec a5bf 2bbf 08be

bias f4 [64]
-2.9685657 0.68281007 -3.5938523 -0.70392567 -1.7453996 -0.18531111 -1.1821808 -2.0945184
-1.0975851 -0.7923215 -2.8273005 -1.974574 -1.2007282 -0.7619171 -2.3334315 -1.3077068
-1.5027795 -2.3708806 -0.88437206 -2.7167838 -4.0603347 -0.75513124 -0.9193567 -0.05232243
-2.2004733 -0.55365837 -0.75264114 -1.918045 -1.323537 -0.7509491 -1.4451153 -0.7944495
-0.54647285 -0.4359313 -2.1588175 -2.9844196 -0.757665 1.6347755 -0.39207378 -2.2380636
-1.993834 -2.173716 -0.7649301 -1.8757095 -2.6402788 -1.5399143 -0.3863471 -0.094177626
-1.0264595 -0.92347413 -1.4121011 -2.9289296 -2.9610627 -2.394875 -1.0637963 -2.7327704
-1.2306653 -1.6123474 0.5209899 -2.803143 -1.5835953 -2.2517378 -1.5602818 -1.8361273
00000000: fbfc 3dc0 a4cc 2e3f ad01 66c0 7934 34bf
00000010: 4169 dfbf 32c2 3dbe b351 97bf 970c 06c0
00000020: ab7d 8cbf 95d5 4abf 7ef2 34c0 d7be fcbf
00000030: 76b1 99bf 000d 43bf f156 15c0 f062 a7bf
00000040: 145b c0bf 82bc 17c0 3566 62bf c9df 2dc0
00000050: 43ee 81c0 4850 41bf f65a 6bbf 0b50 56bd
00000060: 8ed4 0cc0 8ebc 0dbf 17ad 40bf 8082 f5bf
00000070: a969 a9bf 333e 40bf 8af9 b8bf 0b61 4bbf
00000080: a5e5 0bbf 6332 dfbe 112a 0ac0 bb00 3fc0
00000090: 55f6 41bf 5340 d13f e5bd c8be 6f3c 0fc0
000000a0: f435 ffbf 2a1e 0bc0 76d2 43bf 4017 f0bf
000000b0: 54fa 28c0 e91b c5bf 49cf c5be 33e0 c0bd
000000c0: 0663 83bf cd68 6cbf bbbf b4bf 9573 3bc0
000000d0: 0d82 3dc0 a245 19c0 7a2a 88bf b6e5 2ec0
000000e0: 7186 9dbf 6661 cebf 985f 053f b266 33c0
000000f0: 40b3 cabf 791c 10c0 50b7 c7bf 3806 ebbf

weight f4 [64, 64]
0.0075737475 -0.6676989 0.036750518 -0.112345204 -0.03904422 -0.4314202 -0.22241311 -0.4419724
-0.06600678 -0.32979843 -0.23135307 0.060935978 -0.21270028 -0.12731546 -0.12584415 -0.016167954
0.116213255 -0.30811653 -0.015356856 -0.5668183 -0.065645345 -0.066824324 -0.0988671 -0.13349514
0.08013375 0.10236284 -0.12081473 -0.34179834 0.09444879 -0.39636567 -0.22055821 -0.4894299
-0.101379804 0.0893948 -0.58049154 -0.19618957 -0.27892122 -0.47355047 -0.2585034 -0.23406468
0.00069828186 0.043591972 -0.20675497 -0.0602941 -0.12021544 0.033804193 0.10625887 0.013378174
0.16196217 -0.08535794 -0.065044194 -0.40200222 -0.33593893 -0.19487345 0.03534215 -0.15916926
-0.060776144 0.0002982679 0.048101623 -0.04231794 -0.1371184 -0.22301833 -0.328087 -0.12044113
0.113053545 -0.00041557662 0.06446746 -0.05153011 0.0002184932 -0.17632532 -0.05209313 -0.13539109
-0.12841687 0.057024248 -0.04065208 -0.11567407 -0.035918117 0.029800126 -0.01527191 -0.106393464
0.062173195 -0.04540222 -0.030476652 -0.18540879 -0.048380315 0.09506701 0.09556763 -0.092219695
-0.110993 -0.1277378 0.008067368 0.09822256 -0.025812835 -0.12487472 -0.18643412 -0.20215939
-0.059913028 -0.061358664 0.11731788 -0.10888918 -0.11652484 -0.13824087 -0.23762332 0.050525438
0.056633174 0.021815907 -0.15087518 0.0053420495 0.10514204 0.09863758 0.019376025 0.038335834
0.012971516 -0.03178564 0.05266906 -0.13803016 -0.10125414 -0.14864789 -0.031248644 -0.072807334
0.047184564 0.022666879 -0.056990277 0.11004675 -0.06166982 -0.15873016 -0.19922538 -0.014949438
0.11169018 -0.037320785 0.13142112 0.117600024 -0.13562566 -0.00084179896 -0.0622832 -0.014089547
-0.05936061 -0.14276893 -0.00908648 -0.043614484 -0.18543558 0.0032851805 0.0039413683 -0.013036056
-0.032820538 -0.21141295 -0.07419858 -0.14555103 -0.0393578 0.021229707 0.06446828 -0.16826287
-0.023969086 -0.031367727 -0.12674752 0.01956817 0.0101715885 -0.08595031 0.007217556 -0.04117686
-0.11506334 -0.10236468 -0.1213684 -0.0074038305 -0.119397864 0.03345009 -0.0032781186 0.0012312667
-0.03882726 -0.03643367 -0.20070527 -0.049343105 -0.09245967 -0.28320116 -0.020130605 0.11694063
-0.0063387 -0.1077777 -0.09376691 -0.26739636 -0.13817576 -0.09821275 0.021881873 -0.08126279
-0.0927688 0.076413184 -0.32716805 -0.08546943 -0.07497368 -0.03535352 -0.1608492 -0.031193506
0.04035347 -0.16125089 -0.122326 -0.12963961 -0.1001677 -0.11141844 -0.15609363 -0.1492922
-0.16644125 -0.024129866 -0.2913668 -0.14899485 -0.42248595 -0.08320752 0.063285984 -0.21270476
-0.1990896 0.050509322 0.025396932 -0.24876247 -0.17275666 -0.16065715 -0.032059085 -0.34198666
-0.0056506484 -0.07708092 -0.004561334 -0.16339718 0.013366093 -0.087385274 -0.12727311 -0.081958905
0.020682972 0.0288754 -0.18237458 -0.30255392 -0.10087008 -0.08750967 -0.29424798 0.09291013
-0.02120726 -0.09869214 0.012689301 0.0036784417 0.10931247 -0.11462155 0.073054805 0.14043699
-0.13905184 0.08151027 -0.1004202 -0.050901677 -0.06940647 -0.16330178 -0.09006127 -0.59457433
-0.029371526 0.04868502 -0.039424833 0.013915602 -0.029574834 -0.17350955 -0.36683694 -0.13591108
00000000: 332d f83b 51ee 2abf b687 163d 3e15 e6bd
00000010: d5ec 1fbd 1ce3 dcbe 43c0 63be 354a e2be
00000020: 902e 87bd 57db a8be d2e7 6cbe 0198 793d
00000030: 1ace 59be fc5e 02be 4add 00be a872 84bc
00000040: 3701 ee3d 73c1 9dbe 539b 7bbc 011b 11bf
00000050: 1171 86bd 31db 88bd d67a cabd f3b2 08be
00000060: 2a1d a43d 9ca3 d13d b76d f7bd 3100 afbe
00000070: 5e6e c13d 71f0 cabe 03da 61be 8e96 fabe
00000080: 37a0 cfbd 9f14 b73d 189b 14bf ebe5 48be
00000090: c3ce 8ebe 3575 f2be 8f5a 84be a7ae 6fbe
000000a0: e70c 373a 7f8d 323d 93b7 53be f2f6 76bd
000000b0: 8333 f6bd 4476 0a3d 409e d93d 2130 5b3c
000000c0: 69d9 253e 25d0 aebd e435 85bd 3cd3 cdbe
000000d0: 3000 acbe e88c 47be eec2 103d 44fd 22be
000000e0: 68f0 78bd d760 9c39 3506 453d 9455 2dbd
000000f0: c468 0cbe eb5e 64be 05fb a7be d7a9 f6bd
00000100: 9e88 e73d c0e1 d9b9 8407 843d 3d11 53bd
00000110: 521b 6539 a08e 34be 9b5f 55bd f6a3 0abe
00000120: b67f 03be 4292 693d cc82 26bd 87e6 ecbd
00000130: e01e 13bd 651f f43c 0837 7abc d1e4 d9bd
00000140: 52a9 7e3d aef7 39bd 2caa f9bc cddb 3dbe
00000150: 702a 46bd 7eb2 c23d f6b8 c33d aedd bcbd
00000160: 4c50 e3bd b3cd 02be fe2c 043c e928 c93d
00000170: 7075 d3bc 51be ffbd 96e8 3ebe df02 4fbe
00000180: 5d67 75bd 3953 7bbd 5b44 f03d 4a01 dfbd
00000190: 93a4 eebd 048f 0dbe 8753 73be c3f3 4e3d
000001a0: 30f8 673d 46b7 b23c 067f 1abe 5c0c af3b
000001b0: b654 d73d 8002 ca3d 78ba 9e3c 0906 1d3d
000001c0: 7b86 543c a931 02bd 83bb 573d c757 0dbe
000001d0: 555e cfbd 2737 18be 28fd ffbc 031c 95bd
000001e0: 9a44 413d e4af b93c a36e 69bd 3160 e13d
000001f0: 7e99 7cbd 298a 22be bd01 4cbe 7dee 74bc
00000200: d2bd e43d aedd 18bd 4293 063e 48d8 f03d
00000210: 74e1 0abe 2cac 5cba ab1c 7fbd d8d7 66bc
00000220: 1c24 73bd 0532 12be 76df 14bc 1aa5 32bd
00000230: d3e2 3dbe 2f4c 573b 9826 813b 2f95 55bc
00000240: d46e 06bd a37c 58be 6df5 97bd 540b 15be
00000250: a535 21bd ece9 ad3c f207 843d 1a4d 2cbe
00000260: d15a c4bc 727b 00bd 1aca 01be 6d4d a03c
00000270: bca6 263c b706 b0bd 3f81 ec3b 11a9 28bd
00000280: 54a6 ebbd 93a4 d1bd ff8f f8bd d59b f2bb
00000290: de86 f4bd f602 093d b4d5 56bb 7462 a13a
000002a0: 5509 1fbd 793b 15bd af85 4dbe ff1b 4abd
000002b0: 7f5b bdbd beff 90be f0e8 a4bc 927e ef3d
000002c0: dfb4 cfbb 8eba dcbd de08 c0bd 2de8 88be
000002d0: f27d 0dbe c423 c9bd 9d41 b33c 1b6d a6bd
000002e0: 92fd bdbd 847e 9c3d 9282 a7be 990a afbd
000002f0: cd8b 99bd dace 10bd a7b5 24be 8689 ffbc
00000300: ae49 253d f41e 25be 0e86 fabd 3fc0 04be
00000310: b924 cdbd 5a2f e4bd 02d7 1fbe 0ee0 18be
00000320: 936f 2abe ffab c5bc 072e 95be 1b92 18be
00000330: 1450 d8be b468 aabd 159c 813d 47cf 59be
00000340: 25de 4bbe dde2 4e3d 3a0d d03c 97bb 7ebe
00000350: 1fe7 30be 4f83 24be 6350 03bd e018 afbe
00000360: 1329 b9bb 9adc 9dbd 3e77 95bb 9751 27be
00000370: 75fd 5a3c 0df7 b2bd e253 02be 12da a7bd
00000380: 566f a93c 1a8c ec3c 67c0 3abe 59e8 9abe
00000390: f994 cebd 4538 b3bd aca7 96be ab47 be3d
000003a0: d9ba adbc 1b1f cabd c9e6 4f3c 0312 713b
000003b0: 37df df3d b4be eabd c29d 953d b7ce 0f3e
000003c0: 9b63 0ebe dbee a63d 1ba9 cdbd 477e 50bd
000003d0: fb24 8ebd 9538 27be 0b72 b8bd 0636 18bf
000003e0: 8e9c f0bc f269 473d ef7b 21bd 44fe 633c
000003f0: ec46 f2bc 7dac 31be 0dd2 bbbe 462c 0bbe

bias f4 [64]
-0.2663832 -0.23670205 -0.27199313 -0.060696185 -0.116858274 -0.13129814 -0.25937417 -0.09574539
-0.035639074 -0.43511903 -0.29731533 -0.14721482 -0.06756612 -0.07683291 -0.1362006 -0.036164667
-0.1721713 -0.060268383 -0.09368974 -0.22021474 -0.20400053 -0.18437278 -0.14368957 -0.13673855
-0.3097127 -0.12018912 -0.13867109 -0.14846233 -0.010833757 0.13790026 -0.20651089 -0.07970787
-0.16229045 -0.19365706 -0.16613314 -0.019788088 -0.16704686 -0.3898491 -0.27894905 -0.2676252
-0.29320058 -0.21387456 -0.42780134 -0.17738721 -0.2498823 -0.14324348 -0.386324 -0.20733158
-0.12438412 -0.31388983 0.9941853 0.40773833 -0.09507252 -0.26529136 0.72561157 -0.14962883
-0.23160619 2.746465 -0.16643442 0.7955234 -0.33866727 2.1045535 -0.23288463 -0.11737423
00000000: 6163 88be 0662 72be af42 8bbe 909c 78bd
00000010: 6453 efbd 0573 06be b1cc 84be 2916 c4bd
00000020: 47fa 11bd ecc7 debe b739 98be 7bbf 16be
00000030: 1b60 8abd 935a 9dbd 2c78 0bbe 6721 14bd
00000040: ac4d 30be fbdb 76bd 68e0 bfbd f97f 61be
00000050: 84e5 50be 38cc 3cbe 5c23 13be 3105 0cbe
00000060: aa92 9ebe b725 f6bd cbff 0dbe 8206 18be
00000070: 1280 31bc ba35 0d3e 9777 53be e13d a3bd
00000080: 782f 26be 094e 46be ce1e 2abe a11a a2bc
00000090: 550e 2bbe 4d9a c7be 69d2 8ebe 2c06 89be
000000a0: 631e 96be ef01 5bbe c708 dbbe fea4 35be
000000b0: 25e1 7fbe 6bae 12be 42cc c5be bb4e 54be
000000c0: 1abd febd 2bb6 a0be ee82 7e3f 14c3 d03e
000000d0: 62b5 c2bd 45d4 87be aec1 393f 4d38 19be
000000e0: 2c2a 6dbe 15c6 2f40 c96d 2abe 6ca7 4b3f
000000f0: cc65 adbe 01b1 0640 4f79 6ebe e661 f0bd

weight f4 [1, 64]
-0.32118693 -0.0817864 -0.02714544 -0.09789924 0.10947101 0.054338288 0.2602431 -0.10797247
-0.070845544 -0.06572133 0.12582931 0.08870705 0.06682974 0.034120273 -0.046368867 0.01741845
0.020986816 -0.033381667 -0.31120837 -0.0090006115 0.07916074 0.3468673 -0.010272472 -0.029818881
0.32632393 0.041177265 -0.1246256 -0.07414274 -0.08103582 -2.186721 0.077210344 -0.0023617134
-0.08412257 -0.21983851 0.0059625995 0.30665296 -0.13666244 -0.039236516 0.44677615 -0.10004744
-0.18076345 -0.019978376 -0.10662036 -0.032832798 -0.10690621 -0.034627955 -0.019356005 0.010811393
-0.05825706 0.12999968 0.74116415 0.23662743 0.033760127 -0.14020282 0.14819482 -0.014182941
-0.19442806 0.22481787 -0.07866935 -1.04873 -0.20175298 0.9555802 -0.027849728 -0.099674344
00000000: 9d72 a4be a17f a7bd 1d60 debc 667f c8bd
00000010: 5632 e03d d391 5e3d 953e 853e ac20 ddbd
00000020: 7817 91bd e898 86bd 66d9 003e 0bac b53d
00000030: 08de 883d b3c1 0b3d 48ed 3dbd 23b1 8e3c
00000040: 8bec ab3c 37bb 08bd b456 9fbe 4d77 13bc
00000050: 071f a23d 9798 b13e df4d 28bc ba46 f4bc
00000060: ee13 a73e 7ea9 283d b53b ffbd 26d8 97bd
00000070: 1cf6 a5bd 3df3 0bc0 7520 9e3d fac6 1abb
00000080: 7448 acbd 591d 61be e961 c33b 9e01 9d3e
00000090: 3df1 0bbe 78b6 20bd d8bf e43e ace5 ccbd
000000a0: 0e1a 39be b1a9 a3bc c65b dabd af7b 06bd
000000b0: a5f1 dabd 0bd6 0dbd 7c90 9ebc 4522 313c
000000c0: f49e 6ebd a31e 053e efbc 3d3f 764e 723e
000000d0: 0f48 0a3d 5491 0fbe 62c0 173e 915f 68bc
000000e0: 2618 47be a836 663e 651d a1bd c93c 86bf
000000f0: 5598 4ebe e7a0 743f 1d25 e4bc 1022 ccbd

weight f4 [64, 3]
-0.11702898 0.6214296 -0.30697164 1.8089223 2.5827246 -0.87759846 -0.6368104 0.5944705
-0.2931488 0.34673694 0.29443976 0.038090196 0.40848148 -0.02878581 -0.22368675 -0.25986814
2.506325 -0.5746843 4.866344 1.15387 -0.086172126 1.408575 3.7001793 -0.37784192
0.08405269 0.95175296 0.02071999 0.20357315 0.3351766 -0.057283282 1.377099 2.0209806
0.69063616 0.45891458 -1.6893411 -0.10551537 2.4018621 3.815808 -0.21800649 1.2246395
-1.9190458 -1.3433506 0.6327784 -2.0796437 0.009371769 2.7219245 1.6872153 -0.29279333
3.4919288 -2.121105 -0.3302859 1.7510493 3.3046527 -0.30958363 -0.16679555 0.80924404
0.005992624 1.0418535 -2.610769 -0.059492577 3.4099529 -1.3667647 -0.40041295 -0.22278076
0.45683277 -0.011910929 0.52450645 0.3062832 0.025374185 3.677384 0.3366856 -0.407134
4.0414305 -1.2834399 0.07032594 -0.018105393 0.16854794 0.036070716 -0.13128906 -3.2148912
0.11554081 2.6798885 -0.8127965 0.42260998 0.71664816 -0.87930346 -0.013830294 2.9358683
0.66777706 0.42722952 1.134522 -0.79050434 0.00026521616 -2.0139976 0.9434008 -1.2037656
-0.09762419 -2.5461092 0.04477109 0.025401384 -0.17475876 0.01955118 1.1244724 0.43330678
0.1863742 3.6103477 1.8996956 1.2667353 0.28004226 0.43249616 0.004185251 1.3295414
0.5682843 0.59289116 2.7504377 -1.5561603 -0.6333579 2.7439246 -0.2429443 -1.1160073
1.1218379 1.6205623 -0.001733909 2.8353987 -0.4710835 -0.7732592 0.020290466 0.5599116
-0.019158347 -0.9855488 -1.4639927 0.004390515 -0.21211599 0.70336825 -0.23763426 2.3681061
5.0147843 0.39613006 0.025796823 -0.05343878 -0.039970726 -0.0605716 0.032077577 0.003181832
4.622005 -1.9472805 -0.44807574 0.07851169 -0.7920064 -0.0037052587 3.5350943 1.4173734
0.017911177 3.88353 -1.1777805 -0.13699156 0.18310788 0.98611504 -0.18457712 2.8280892
-0.36670324 -0.956835 0.26191348 0.82461613 -0.0017308356 3.360626 -0.6800331 -0.20544018
-1.8626642 -1.7999536 -0.33582264 0.8063201 -2.0862856 0.042569924 0.58425426 6.2786627
1.2440579 2.6669548 -1.7825048 0.40879962 3.543189 0.4747006 0.7297431 -1.0535777
1.4841939 0.73360807 1.5963163 -1.2250963 -0.06475371 2.2056167 -1.3047509 -0.14209467
00000000: e4ac efbd 0316 1f3f 632b 9dbe c48a e73f
00000010: 5c4b 2540 4baa 60bf 0206 23bf 382f 183f
00000020: 9917 96be 8187 b13e cfc0 963e 7704 1c3d
00000030: 7c24 d13e 38d0 ebbc 240e 65be 700d 85be
00000040: a167 2040 831e 13bf 17b9 9b40 03b2 933f
00000050: 037b b0bd 304c b43f bdcf 6c40 7f74 c1be
00000060: d123 ac3d 15a6 733f f8bc a93c 7b75 503e
00000070: 449c ab3e e0a1 6abd c844 b03f bf57 0140
00000080: 88cd 303f daf6 ea3e 543c d8bf 7118 d8bd
00000090: 1cb8 1940 3336 7440 183d 5fbe fdc0 9c3f
000000a0: 4ba3 f5bf eaf2 abbf c4fd 213f e218 05c0
000000b0: 0c8c 193c 0334 2e40 acf6 d73f 02e9 95be
000000c0: c37b 5f40 2fc0 07c0 3c1b a9be 6222 e03f
000000d0: 6e7f 5340 bf81 9ebe 74cc 2abe 9e2a 4f3f
000000e0: c65d c43b 755b 853f d716 27c0 7dae 73bd
000000f0: ab3c 5a40 25f2 aebf ed02 cdbe a420 64be
00000100: fce5 e93e 0f26 43bc 0e46 063f 27d1 9c3e
00000110: 86dd cf3c 425a 6b40 0e62 ac3e de73 d0be
00000120: 6653 8140 c247 a4bf 0c07 903d c351 94bc
00000130: d597 2c3e e3be 133d a470 06be c7c0 4dc0
00000140: a9a0 ec3d 4b83 2b40 6e13 50bf 5660 d83e
00000150: 4176 373f 081a 61bf 7598 62bc 44e5 3b40
00000160: 70f3 2a3f d4bd da3e 0438 913f 7e5e 4abf
00000170: b60c 8b39 56e5 00c0 b782 713f fe14 9abf
00000180: 31ef c7bd 74f3 22c0 e461 373d 9016 d03c
00000190: f6f3 32be cc29 a03c b6ee 8f3f 63da dd3e
000001a0: e1d8 3e3e f00f 6740 3a29 f33f 6224 a23f
000001b0: b361 8f3e 2370 dd3e 6e24 893b 6a2e aa3f
000001c0: 147b 113f b7c7 173f 2c07 3040 4330 c7bf
000001d0: be23 22bf 769c 2f40 64c6 78be 54d9 8ebf
000001e0: 6298 8f3f 966e cf3f 5544 e3ba 2c77 3540
000001f0: db31 f1be 51f4 45bf 3138 a63c 5e56 0f3f
00000200: f7f1 9cbc ed4c 7cbf 1d64 bbbf 4fde 8f3b
00000210: ef34 59be f10f 343f 6556 73be 0d8f 1740
00000220: 1d79 a040 8fd1 ca3e dc53 d33c 9fe2 5abd
00000230: 58b8 23bd ed19 78bd c763 033d 4886 503b
00000240: 77e7 9340 7d40 f9bf 2f6a e5be bdca a03d
00000250: eec0 4abf edd3 72bb fc3e 6240 7e6c b53f
00000260: 76ba 923c c18b 7840 83c1 96bf 8447 0cbe
00000270: a280 3b3e 0972 7c3f c901 3dbe 6aff 3440
00000280: 87c0 bbbe 23f3 74bf 8619 863e 0b1a 533f
00000290: 35dd e2ba 7f14 5740 a616 2ebf e95e 52be
000002a0: c86b eebf e164 e6bf f2f0 abbe fe6a 4e3f
000002b0: b485 05c0 cd5d 2e3d b091 153f ceea c840
000002c0: 4a3d 9f3f 63af 2a40 1e29 e4bf 2f4e d13e
000002d0: 9cc3 6240 f50b f33e 72d0 3a3f a2db 86bf
000002e0: 11fa bd3f bdcd 3b3f 1854 cc3f f5cf 9cbf
000002f0: 989d 84bd d328 0d40 1402 a7bf 4481 11be

bias f4 [64]
-2.9685645 0.7638119 -3.5938418 -0.7039226 -1.7453985 -0.13432686 -1.1683238 -2.0832942
-1.0975789 -0.7923164 -2.806327 -1.9702059 -1.1493313 -0.76871747 -2.333417 -1.2921255
-1.4734159 -2.350771 -0.8843699 -2.74175 -4.073337 -0.75512904 -0.9193519 -0.035990756
-2.2210593 -0.5536532 -0.72898304 -1.8474435 -1.3235284 -0.70269597 -1.4451101 -0.75367725
-0.5118408 -0.43592942 -2.158799 -2.9291253 -0.75766224 1.6382651 -0.33908612 -2.2523842
-1.9938309 -2.15006 -0.76492804 -1.8757064 -2.640262 -1.4581654 -0.38634726 -0.0941773
-1.0230615 -0.92347056 -1.379349 -2.9116066 -2.9610543 -2.3832006 -1.063795 -2.7001143
-1.2325642 -1.5963314 0.55357486 -2.728381 -1.5425695 -2.2281466 -1.5494028 -1.8144288
00000000: f6fc 3dc0 2d89 433f 8101 66c0 4634 34bf
00000010: 3869 dfbf fb8c 09be a28b 95bf b154 05c0
00000020: 777d 8cbf 3fd5 4abf dd9a 33c0 b52f fcbf
00000030: 4a1d 93bf abca 44bf b456 15c0 5e64 a5bf
00000040: e498 bcbf 0873 16c0 1166 62bf d578 2fc0
00000050: c758 82c0 2350 41bf a55a 6bbf 0b6b 13bd
00000060: d625 0ec0 37bc 0dbf a29e 3abf 0779 ecbf
00000070: 6169 a9bf e2e3 33bf 5ef9 b8bf fef0 40bf
00000080: 0008 03bf 2432 dfbe c329 0ac0 ca76 3bc0
00000090: 27f6 41bf acb2 d13f b29c adbe 1027 10c0
000000a0: da35 ffbf 959a 09c0 53d2 43bf 2617 f0bf
000000b0: 0dfa 28c0 2aa5 babf 4fcf c5be 07e0 c0bd
000000c0: aef3 82bf 9168 6cbf 828e b0bf c357 3ac0
000000d0: ea81 3dc0 5c86 18c0 6f2a 88bf acce 2cc0
000000e0: aac4 9dbf 9654 ccbf 15b7 0d3f cb9d 2ec0
000000f0: eb72 c5bf f499 0ec0 d552 c6bf 343f e8bf

weight f4 [64, 64]
0.0075737783 -0.66769487 0.03675058 -0.11234481 -0.039044246 -0.43142033 -0.22241272 -0.44197038
-0.06600736 -0.3297973 -0.23135193 0.060935937 -0.21270013 -0.12731491 -0.12584527 -0.01616787
0.11621315 -0.30811608 -0.015356826 -0.56681395 -0.06564527 -0.06682395 -0.09886743 -0.13349442
0.08013442 0.10236325 -0.12081464 -0.3417957 0.09444924 -0.39636382 -0.22055753 -0.48942763
-0.10138051 0.0893955 -0.58048725 -0.19618963 -0.2789187 -0.47354895 -0.25850114 -0.23406394
0.00069828593 0.043592084 -0.20675457 -0.06029407 -0.120214865 0.033804245 0.10625887 0.013378228
0.16196163 -0.085357286 -0.06504401 -0.40200242 -0.33593658 -0.19487236 0.03534242 -0.15916915
-0.060776122 0.0002982694 0.048101924 -0.04231803 -0.13711986 -0.22301771 -0.32808664 -0.120441355
0.11305336 -0.00041557834 0.06446733 -0.051529944 0.00021849357 -0.17632635 -0.052093204 -0.13539132
-0.1284161 0.057024006 -0.040652085 -0.11567373 -0.03591835 0.029800024 -0.015271889 -0.10639328
0.062173475 -0.045402575 -0.030476721 -0.18540862 -0.048380576 0.095067635 0.09556758 -0.092220016
-0.11099253 -0.12773661 0.008067357 0.098222956 -0.025812842 -0.12487446 -0.18643382 -0.20215903
-0.059912972 -0.061358385 0.117317334 -0.10888922 -0.116524585 -0.13824044 -0.23762383 0.05052523
0.05663359 0.021815788 -0.15087515 0.005342094 0.10514158 0.098637216 0.019376025 0.038336065
0.012971613 -0.031785883 0.052668765 -0.13802885 -0.1012546 -0.1486489 -0.031248787 -0.07280751
0.04718439 0.02266683 -0.056990106 0.11004704 -0.06166982 -0.15872957 -0.199225 -0.014949372
0.11169064 -0.037320554 0.13142166 0.11759971 -0.13562529 -0.0008417971 -0.062283 -0.014089481
-0.05936051 -0.14276892 -0.009086411 -0.04361444 -0.18543544 0.0032851852 0.0039413497 -0.013036153
-0.03282077 -0.21141267 -0.074198544 -0.14555097 -0.039357547 0.021229796 0.06446808 -0.16826332
-0.023969192 -0.03136763 -0.12674865 0.019568317 0.010171589 -0.08595036 0.0072175935 -0.041176606
-0.11506352 -0.10236549 -0.121368214 -0.0074038124 -0.119397536 0.033450343 -0.0032781074 0.0012312736
-0.03882706 -0.03643393 -0.20070468 -0.04934319 -0.09245919 -0.28320134 -0.020130605 0.11694033
-0.00633875 -0.107777596 -0.09376677 -0.26739416 -0.13817488 -0.09821253 0.02188191 -0.08126245
-0.092768386 0.07641286 -0.32716575 -0.085469045 -0.074973404 -0.03535323 -0.16084851 -0.031193653
0.040353686 -0.16125084 -0.122325614 -0.12963949 -0.1001683 -0.11141796 -0.15609354 -0.14929116
-0.16644092 -0.024129754 -0.2913642 -0.1489961 -0.4224856 -0.083207786 0.06328641 -0.2127046
-0.1990894 0.05050921 0.025397098 -0.24876246 -0.17275605 -0.16065629 -0.03205895 -0.34198645
-0.0056506423 -0.07708043 -0.0045581833 -0.16339661 0.013366121 -0.08738534 -0.12727319 -0.08195765
0.020685876 0.02887559 -0.18237475 -0.30255198 -0.100870155 -0.08750902 -0.29424608 0.092910685
-0.02120726 -0.09869234 0.012689328 0.00367846 0.10931315 -0.11462096 0.073054805 0.14043835
-0.13905106 0.081510544 -0.10042088 -0.050901487 -0.06940632 -0.16330124 -0.090060845 -0.5945718
-0.029368453 0.048685305 -0.039424602 0.013915695 -0.02957483 -0.17350855 -0.36683565 -0.1359099
00000000: 752d f83b 0dee 2abf c787 163d 0915 e6bd
00000010: dcec 1fbd 20e3 dcbe 29c0 63be f149 e2be
00000020: de2e 87bd 31db a8be 85e7 6cbe f697 793d
00000030: 10ce 59be d75e 02be 95dd 00be 7b72 84bc
00000040: 2901 ee3d 64c1 9dbe 329b 7bbc b81a 11bf
00000050: 0771 86bd ffda 88bd 027b cabd c3b2 08be
00000060: 841d a43d d3a3 d13d aa6d f7bd d9ff aebe
00000070: 9a6e c13d 33f0 cabe d5d9 61be 4296 fabe
00000080: 96a0 cfbd fd14 b73d d09a 14bf efe5 48be
00000090: 6fce 8ebe 0275 f2be 435a 84be 75ae 6fbe
000000a0: 2d0d 373a 9d8d 323d 78b7 53be eaf6 76bd
000000b0: 3633 f6bd 5276 0a3d 409e d93d 5b30 5b3c
000000c0: 45d9 253e cdcf aebd cb35 85bd 43d3 cdbe
000000d0: e1ff abbe 9f8c 47be 37c3 103d 3dfd 22be
000000e0: 62f0 78bd 0b61 9c39 8606 453d ac55 2dbd
000000f0: 2669 0cbe c15e 64be f9fa a7be f5a9 f6bd
00000100: 8588 e73d fbe1 d9b9 7307 843d 1011 53bd
00000110: 6c1b 6539 e58e 34be af5f 55bd 06a4 0abe
00000120: 837f 03be 0192 693d cd82 26bd 59e6 ecbd
00000130: 1f1f 13bd 2e1f f43c f236 7abc b8e4 d9bd
00000140: 9da9 7e3d 0df8 39bd 51aa f9bc c2db 3dbe
00000150: b62a 46bd d2b2 c23d efb8 c33d d9dd bcbd
00000160: 0d50 e3bd 63cd 02be f32c 043c 1e29 c93d
00000170: 7475 d3bc 2ebe ffbd 82e8 3ebe c702 4fbe
00000180: 4e67 75bd ee52 7bbd 1244 f03d 5001 dfbd
00000190: 71a4 eebd e78e 0dbe a953 73be 8bf3 4e3d
000001a0: a0f8 673d 06b7 b23c 047f 1abe bc0c af3b
000001b0: 7854 d73d 4f02 ca3d 78ba 9e3c 4706 1d3d
000001c0: e386 543c ea31 02bd 34bb 573d 6f57 0dbe
000001d0: 925e cfbd 6b37 18be 75fd ffbc 1b1c 95bd
000001e0: 6b44 413d caaf b93c 756e 69bd 5860 e13d
000001f0: 7e99 7cbd 018a 22be a301 4cbe 36ee 74bc
00000200: 10be e43d 70dd 18bd 6693 063e 1ed8 f03d
00000210: 5be1 0abe 0cac 5cba 761c 7fbd 91d7 66bc
00000220: 0224 73bd 0432 12be 2cdf 14bc 0ea5 32bd
00000230: cae2 3dbe 434c 573b 7026 813b 9795 55bc
00000240: 126f 06bd 907c 58be 68f5 97bd 500b 15be
00000250: 6135 21bd 1cea ad3c d707 843d 384d 2cbe
00000260: 0a5b c4bc 587b 00bd 66ca 01be bc4d a03c
00000270: bda6 263c be06 b0bd 9081 ec3b cda8 28bd
00000280: 6ca6 ebbd ffa4 d1bd e68f f8bd ae9b f2bb
00000290: b286 f4bd 3a03 093d 84d5 56bb b062 a13a
000002a0: 2009 1fbd bf3b 15bd 8785 4dbe 161c 4abd
000002b0: 3e5b bdbd c4ff 90be f0e8 a4bc 697e ef3d
000002c0: 4ab5 cfbb 80ba dcbd cb08 c0bd e3e7 88be
000002d0: b77d 0dbe a723 c9bd b141 b33c ed6c a6bd
000002e0: 5afd bdbd 587e 9c3d 4582 a7be 650a afbd
000002f0: a88b 99bd 8cce 10bd 79b5 24be d589 ffbc
00000300: e849 253d f11e 25be da85 fabd 37c0 04be
00000310: 0a25 cdbd 192f e4bd fcd6 1fbe c8df 18be
00000320: 7d6f 2abe c3ab c5bc b02d 95be 6f92 18be
00000330: 0850 d8be d868 aabd 4e9c 813d 3ccf 59be
00000340: 17de 4bbe bfe2 4e3d 930d d03c 96bb 7ebe
00000350: f6e6 30be 1583 24be 3f50 03bd d918 afbe
00000360: 0629 b9bb 58dc 9dbd d05c 95bb 7151 27be
00000370: 93fd 5a3c 16f7 b2bd e753 02be 6ad9 a7bd
00000380: 6d75 a93c 808c ec3c 72c0 3abe 18e8 9abe
00000390: 0395 cebd ee37 b3bd 6ca7 96be f547 be3d
000003a0: d9ba adbc 361f cabd e6e6 4f3c 5112 713b
000003b0: 93df df3d 65be eabd c29d 953d 12cf 0f3e
000003c0: 6763 0ebe 00ef a63d 76a9 cdbd 147e 50bd
000003d0: e724 8ebd 7138 27be d271 b8bd dc35 18bf
000003e0: 1c96 f0bc 3e6a 473d b17b 21bd a8fe 633c
000003f0: ea46 f2bc 3aac 31be e2d1 bbbe f72b 0bbe

bias f4 [64]
-0.26638088 -0.23670293 -0.27199265 -0.060694218 -0.11685837 -0.13129799 -0.25937435 -0.0957449
-0.035639327 -0.4351188 -0.29731274 -0.14721394 -0.06756603 -0.076832324 -0.13620195 -0.036164597
-0.17217043 -0.060268734 -0.09368928 -0.2202148 -0.20399934 -0.1843715 -0.1436898 -0.1367384
-0.3097105 -0.12018879 -0.13867109 -0.14846116 -0.010833761 0.1457293 -0.20651019 -0.07970751
-0.16229093 -0.19365643 -0.16613247 -0.020178877 -0.1670459 -0.38984904 -0.27894852 -0.26762363
-0.29320002 -0.21387434 -0.42779934 -0.17738733 -0.24988154 -0.14324278 -0.38632342 -0.20733124
-0.12438421 -0.31388882 0.9711109 0.4022033 -0.09507211 -0.2652901 0.7378872 -0.14962792
-0.23160525 2.7187083 -0.16643347 0.79950625 -0.33866647 2.0498805 -0.23288377 -0.11737396
00000000: 1363 88be 4162 72be 9f42 8bbe 809a 78bd
00000010: 7153 efbd fb72 06be b7cc 84be e715 c4bd
00000020: 8bfa 11bd e4c7 debe 6039 98be 40bf 16be
00000030: 0f60 8abd 445a 9dbd 8678 0bbe 5421 14bd
00000040: 724d 30be 59dc 76bd 2ae0 bfbd fd7f 61be
00000050: 34e5 50be e2cb 3cbe 6b23 13be 2705 0cbe
00000060: 6092 9ebe 8a25 f6bd cbff 0dbe 3406 18be
00000070: 1680 31bc 103a 153e 6877 53be b13d a3bd
00000080: 982f 26be df4d 46be a11e 2abe 2c4e a5bc
00000090: 150e 2bbe 4b9a c7be 57d2 8ebe f705 89be
000000a0: 501e 96be e001 5bbe 8408 dbbe 06a5 35be
000000b0: f2e0 7fbe 3cae 12be 2fcc c5be a44e 54be
000000c0: 26bd febd 09b6 a0be b99a 783f 97ed cd3e
000000d0: 2bb5 c2bd 1bd4 87be 2de6 3c3f 1038 19be
000000e0: ed29 6dbe 51ff 2d40 896d 2abe 71ac 4c3f
000000f0: b165 adbe 3e31 0340 1579 6ebe c261 f0bd

weight f4 [1, 64]
-0.32118443 -0.08178622 -0.027145563 -0.0978996 0.10947038 0.054338437 0.26024455 -0.10797279
-0.07084504 -0.065722 0.12582889 0.08870781 0.066829905 0.034120154 -0.046368916 0.01741845
0.020986907 -0.03338143 -0.31120658 -0.009000636 0.07916064 0.34686807 -0.010272544 -0.029819021
0.32632235 0.04117698 -0.124626346 -0.074142665 -0.08103594 -2.2069745 0.07721007 -0.0023617083
-0.08412198 -0.21983927 0.0059625893 0.294733 -0.13666241 -0.039236475 0.4467745 -0.1000476
-0.18076244 -0.019978471 -0.10662051 -0.032833062 -0.106906615 -0.03462791 -0.019355975 0.010811316
-0.058257077 0.12999861 0.71629024 0.23616655 0.033759918 -0.14020292 0.1413075 -0.014182985
-0.19442682 0.24405006 -0.07866964 -1.0496613 -0.20175223 0.9271945 -0.02784983 -0.099675074
00000000: 4972 a4be 897f a7bd 5f60 debc 967f c8bd
00000010: 0232 e03d fb91 5e3d c63e 853e d720 ddbd
00000020: 3417 91bd 4299 86bd 4ad9 003e 71ac b53d
00000030: 1ede 883d 93c1 0b3d 55ed 3dbd 23b1 8e3c
00000040: bcec ab3c f7ba 08bd 7856 9fbe 6777 13bc
00000050: f91e a23d b198 b13e 2c4e 28bc 0547 f4bc
00000060: b913 a73e 31a9 283d 193c ffbd 1cd8 97bd
00000070: 2cf6 a5bd 123f 0dc0 5020 9e3d e4c6 1abb
00000080: 2548 acbd 8c1d 61be d361 c33b 3ee7 963e
00000090: 3bf1 0bbe 6db6 20bd a1bf e43e c2e5 ccbd
000000a0: ca19 39be e4a9 a3bc db5b dabd f67b 06bd
000000b0: dbf1 dabd ffd5 0dbd 6c90 9ebc f221 313c
000000c0: f99e 6ebd 5b1e 053e cc5e 373f a5d5 713e
000000d0: d747 0a3d 5b91 0fbe eab2 103e c05f 68bc
000000e0: d317 47be 42e8 793e 8c1d a1bd 4d5b 86bf
000000f0: 2398 4ebe 9e5c 6d3f 5425 e4bc 7222 ccbd

weight f4 [64, 4]
-0.06678686 -0.10181946 -1.099715 0.3919263 0.44690558 -0.29650667 -0.9297604 0.34508356
0.4930935 -1.8504034 -0.672691 -0.36286104 0.9523279 0.48322976 -0.43521318 -0.072134964
0.7584198 -0.013058052 2.8626473 0.18919979 -0.027943756 3.135221 -1.0799282 -0.7505637
0.067082204 0.8497665 5.261937 0.8512338 -0.33105972 -0.86602443 1.603702 0.09101386
0.06637726 4.2860713 3.1111238 1.2166861 0.3294677 -1.6068445 0.47382924 -0.42664343
0.15307046 3.2515326 3.1845777 0.57073015 0.18328017 1.7975303 0.2049479 0.020718822
-0.80410236 -0.47478405 -0.9425707 0.27041847 1.8732599 0.6587137 1.3608445 0.017562002
0.05646442 -0.50055313 1.3511459 0.21284275 -0.18536043 -0.18581222 -0.8730587 -0.16941996
-0.06245035 -0.42782575 -1.3254467 0.4818153 0.050221473 1.577418 1.5578364 0.50059885
-0.20464554 0.18193504 0.45524433 -0.07889868 -0.03609945 1.5983895 3.6919107 0.6483414
-0.1851023 -1.07402 -0.36396712 -0.7271264 -0.01545086 0.8830674 -2.7573855 -0.6366647
0.19484228 0.9649563 1.4553328 0.10855747 0.005156376 -0.8229654 -1.2884448 0.40522942
0.9529756 1.3764547 -0.2949161 0.021423563 -0.020615717 -0.67173016 2.7018986 -0.30032393
0.047105324 -1.1833177 0.45221585 -0.4580697 0.097137935 2.6749148 0.25380024 0.31556922
0.8080745 0.6267525 -2.5615778 0.23509769 0.09483651 -1.6828098 1.8931023 0.28542098
0.07264724 -0.384059 0.48131773 -1.1484466 0.082838245 -0.6300246 -1.3147947 0.25602937
-1.0026736 0.6056515 1.7375487 0.20467173 0.017326418 -0.7729246 3.0076194 0.5082431
0.3224052 0.95531857 -1.6872236 -0.29497075 0.79047656 1.3730197 -2.6051736 0.34368715
-0.36500067 -0.7501191 0.5047343 -0.38529068 0.48315662 -0.12963906 0.94707507 0.00085713435
-0.13405925 0.28611743 -0.08227904 0.02083557 0.1985462 -1.5443267 1.9178288 0.5501784
-0.071366735 -1.1942188 0.32645768 -0.3878943 -0.4651316 0.040609606 -0.26649663 0.13151613
0.18561335 2.1096637 -1.3593595 0.6050315 -0.6760354 3.8378868 0.83964974 -0.1961596
0.18065836 0.20190695 0.6173982 1.023358 0.759278 -0.40960506 0.012975841 0.60928464
0.3182021 -1.8055885 1.2764245 0.20762281 0.17742951 0.007173975 3.094504 0.18199426
-0.177677 0.25727805 -0.93781096 0.9667694 0.44105065 -1.4887097 2.9255552 -0.06736301
0.77038777 2.3292232 1.0323489 0.17852037 -0.36231348 0.25464174 -0.6415701 0.36653417
0.3287392 0.36922756 -0.11217465 0.036257602 0.9374361 1.129136 -0.5588263 -0.116072655
-0.009339422 2.7791011 -1.9981812 -0.4305207 0.7733238 0.35902634 0.5890246 -0.05241859
-0.070317455 0.62032264 0.9414608 -1.0603305 -0.08347718 0.68062174 -0.05121808 0.08453719
-0.020781491 0.4609464 -0.12967542 0.002562652 0.9887147 0.39676577 -0.18029545 -0.010118357
0.4358098 -0.3358095 0.509612 0.7603537 -0.01277615 2.7500541 1.2750806 -0.24661613
0.35708308 -0.12979183 -0.13514489 0.002135632 0.52164716 3.4220748 0.52366936 0.19061048
00000000: 8dc7 88bd b986 d0bd 76c3 8cbf 90aa c83e
00000010: cfd0 e43e b9cf 97be c704 6ebf cbae b03e
00000020: c076 fc3e 05da ecbf 7a35 2cbf ecc8 b9be
00000030: c3cb 733f e469 f73e 43d4 debe 7fbb 93bd
00000040: cd27 423f 71f1 55bc 9d35 3740 97bd 413e
00000050: 4eea e4bc 76a7 4840 163b 8abf f124 40bf
00000060: 6562 893d 4c8a 593f ca61 a840 75ea 593f
00000070: a980 a9be c7b3 5dbf 1b46 cd3f 7a65 ba3d
00000080: cdf0 873d 7f27 8940 a71c 4740 5fbc 9b3f
00000090: feaf a83e 15ad cdbf bf99 f23e 0271 dabe
000000a0: 81be 1c3e 1c19 5040 1fd0 4b40 5f1b 123f
000000b0: ccad 3b3e 7915 e63f dddd 513e 85ba a93c
000000c0: a7d9 4dbf e516 f3be 504c 71bf 4a74 8a3e
000000d0: fbc6 ef3f 76a1 283f 2730 ae3f 30de 8f3c
000000e0: 3c47 673d 4024 00bf 59f2 ac3f 73f3 593e
000000f0: 20cf 3dbe 8f45 3ebe c680 5fbf 6d7c 2dbe
00000100: f0cb 7fbd fa0b dbbe 3da8 a9bf 7fb0 f63e
00000110: 08b5 4d3d d5e8 c93f 2f67 c73f 3f27 003f
00000120: 9a8e 51be 2e4d 3a3e c915 e93e a295 a1bd
00000130: 04dd 13bd 0798 cc3f 4448 6c40 b4f9 253f
00000140: 758b 3dbe 7d79 89bf e659 babe f524 3abf
00000150: 9b25 7dbc b510 623f 0179 30c0 75fc 22bf
00000160: bc84 473e 6007 773f 5848 ba3f 6153 de3d
00000170: d1f6 a83b dcad 52bf c2eb a4bf 3b7a cf3e
00000180: 35f6 733f ab2f b03f 3eff 96be 7880 af3c
00000190: 4be2 a8bc 82f6 2bbf e8eb 2c40 0fc4 99be
000001a0: 83f1 403d f476 97bf d688 e73e 1d88 eabe
000001b0: 41f0 c63d ce31 2b40 1bf2 813e 4a92 a13e
000001c0: f8dd 4e3f da72 203f e4f0 23c0 73bd 703e
000001d0: a539 c23d 5066 d7bf 2d51 f23f b322 923e
000001e0: 13c8 943d 62a3 c4be 476f f63e 4c00 93bf
000001f0: 19a7 a93d 4b49 21bf 314b a8bf 4816 833e
00000200: 9c57 80bf fa0b 1b3f ff67 de3f 7795 513e
00000210: 22f0 8d3c 63de 45bf d67c 4040 381c 023f
00000220: 4b12 a53e c28f 743f f1f6 d7bf 6806 97be
00000230: ac5c 4a3f 1cbf af3f 2abb 26c0 c3f7 af3e
00000240: 5ee1 babe ce07 40bf 4436 013f d244 c5be
00000250: 4e60 f73e 1ac0 04be 8373 723f 50b1 603a
00000260: d446 09be fc7d 923e ea81 a8bd 5baf aa3c
00000270: b24f 4b3e 7fac c5bf 6a7b f53f 7ed8 0c3f
00000280: b928 92bd 29dc 98bf 7625 a73e 159a c6be
00000290: bb25 eebe 4256 263d 3f72 88be 2aac 063e
000002a0: 6d11 3e3e bb04 0740 7eff adbf 58e3 1a3f
000002b0: a810 2dbf f09f 7540 49f3 563f 10de 48be
000002c0: 81fe 383e b2c0 4e3e cf0d 1e3f 65fd 823f
000002d0: 0b60 423f c1b7 d1be 9f98 543c 14fa 1b3f
000002e0: 63eb a23e 861d e7bf e161 a33f 139b 543e
000002f0: 15b0 353e aa13 eb3b 5b0c 4640 b45c 3a3e
00000300: f6f0 35be f3b9 833e 6114 70bf 337e 773f
00000310: 64d1 e13e 0a8e bebf 4c3c 3b40 9ef5 89bd
00000320: 2238 453f fe11 1540 0224 843f 0bce 363e
00000330: 2781 b9be 6760 823e f03d 24bf 5eaa bb3e
00000340: 8150 a83e 650b bd3e d3bb e5bd da82 143d
00000350: d0fb 6f3f 8787 903f 3e0f 0fbf 80b7 edbd
00000360: 6004 19bc cbdc 3140 67c4 ffbf 366d dcbe
00000370: 8cf8 453f 4dd2 b73e 51ca 163f e0b4 56bd
00000380: 9902 90bd 77cd 1e3f 9303 713f e9b8 87bf
00000390: 15f6 aabd 3a3d 2e3f 0dca 51bd d621 ad3d
000003a0: f23d aabc 2b01 ec3e a2c9 04be 2bf2 273b
000003b0: 681c 7d3f e224 cb3e 5f9f 38be 77c7 25bc
000003c0: 7622 df3e 39ef abbe ef75 023f 8aa6 423f
000003d0: 0f53 51bc e300 3040 d735 a33f f088 7cbe
000003e0: 98d3 b63e 26e8 04be 6c63 0abe f6f5 0b3b
000003f0: ab8a 053f 4603 5b40 320f 063f 652f 433e

bias f4 [64]
1.3007419 -0.5234081 1.6205682 -0.15985131 -0.77733624 -1.6861207 0.20378716 -1.2437196
-2.4015443 2.232069 -2.4468138 -2.1607685 1.6521217 -2.5413423 -0.9883399 -2.4376929
1.7117329 -2.4444766 2.1144123 -0.9407138 -1.7101371 0.48728043 -1.7359935 2.6856685
-0.7542411 -1.3087164 2.703555 -1.1210548 -0.33270377 -0.48311797 -2.4663022 2.479936
-1.5077673 -0.46218473 0.6166685 -0.68697166 2.1764061 -1.9454148 -0.5069048 1.4952811
2.479165 1.0925347 -2.9411633 0.27182657 -2.2724261 -1.1776929 -0.02519616 -1.341231
-1.9638224 -1.0707364 0.15628487 2.852748 -1.2359113 0.68861127 -1.6690859 -1.4215063
-2.8314152 0.35956421 -0.67570555 -1.434958 -0.85147494 -2.200085 -0.6067763 -0.671716
00000000: b67e a63f 13fe 05bf c76e cf3f 10b0 23be
00000010: 82ff 46bf ced2 d7bf 95ad 503e 3432 9fbf
00000020: e7b2 19c0 38da 0e40 9998 1cc0 084a 0ac0
00000030: b978 d33f 5aa5 22c0 d803 7dbf 2903 1cc0
00000040: 101a db3f 4e72 1cc0 8852 0740 9fd2 70bf
00000050: c6e5 dabf d27c f93e 0935 debf fee1 2b40
00000060: f215 41bf 0584 a7bf 0c07 2d40 b97e 8fbf
00000070: 2658 aabe 3d5b f7be e5d7 1dc0 45b7 1e40
00000080: 85fe c0bf 7aa3 ecbe fddd 1d3f 60dd 2fbf
00000090: 3d4a 0b40 5a03 f9bf 83c4 01bf 5f65 bf3f
000000a0: a4aa 1e40 2dd8 8b3f 053c 3cc0 da2c 8b3e
000000b0: 6e6f 11c0 a4be 96bf 2d68 cebc 75ad abbf
000000c0: 885e fbbf e40d 89bf 2409 203e 6c93 3640
000000d0: 5732 9ebf d448 303f 9ba4 d5bf ebf3 b5bf
000000e0: e835 35c0 cd18 b83e 0afb 2cbf b4ac b7bf
000000f0: 43fa 59bf 31ce 0cc0 b155 1bbf 94f5 2bbf

weight f4 [64, 64]
0.6396647 -0.14808215 1.106536 -0.17198257 0.042741958 0.6740428 -1.6309586 -0.02262221
-1.4003994 1.021082 -1.9395552 0.8814371 0.7998138 0.7368218 0.2710757 0.38564587
1.3973176 -1.3914047 0.8132967 -1.1431205 0.13845046 0.78064096 -0.027863234 1.5365276
-0.03907515 -0.27598205 1.5430756 -0.35242927 0.36932132 0.620972 0.27220294 1.580363
-0.68458414 0.10837172 0.8967002 0.6342151 1.1970111 0.72096807 0.14020056 1.2267603
1.300133 0.516865 -0.25565916 1.4694296 -0.8548038 -0.07472551 0.63153857 -0.28922933
0.5722925 0.23619169 0.012627864 1.4822559 -0.03239028 0.21170217 0.5247898 0.13745406
0.58699113 0.38502556 -0.023781769 -0.06900675 -0.22936672 1.5692376 0.31269586 0.99747366
0.027860118 -0.017692972 -0.023508953 0.033637926 -0.009001592 0.05851023 0.028351977 -0.035127506
0.09849836 -0.19077401 -0.017840847 -0.08678598 -0.11094177 -0.12509343 0.10202931 -0.094066024
0.021236785 0.08541545 -0.088777535 0.018713549 0.09210487 -0.12808101 0.07663691 -0.15220574
-0.1016765 0.05988221 -0.038407844 -0.11773701 0.023901962 -0.07084467 -0.050023414 -0.0019232895
0.06420089 -0.01403223 -0.094307385 -0.14724725 -0.042820603 -0.11305533 -0.013112605 -0.061084554
-0.17640796 0.079107724 0.06962876 -0.08134264 -0.06750351 0.060237557 -0.13397375 -0.09567061
-0.07115145 0.09688473 0.045720287 -0.093408965 -0.0062522446 -0.045995615 0.07509942 -0.077817544
0.06598192 -0.15650909 0.11891562 -0.009769938 -0.108524516 -0.00785463 -0.085262515 -0.0019207299
-0.17336805 -0.06187759 -0.08698293 -0.13316448 -0.10583316 -0.103010565 -0.021036416 -0.17245482
0.03981422 -0.14573428 0.00021031678 -0.09744251 0.028070096 0.018957904 -0.07522017 -0.004405058
-0.03296955 -0.034474254 0.02924451 -0.012151224 -0.14467146 -0.06985904 -0.08810275 0.033124752
-0.014719908 -0.06365003 -0.0717307 -0.1244282 -0.087609746 0.05318187 -0.0836022 0.037653737
0.09714757 -0.13909046 -0.1285508 -0.1306641 -0.03087235 0.026745591 0.024685755 -0.013303158
-0.096334934 -0.1447785 -0.106020704 -0.04251497 0.034557894 -0.06740769 -0.16266614 -0.12860516
-0.08144832 -0.13229373 0.036462683 0.04375573 -0.10504267 0.020052673 -0.16722916 -0.1714609
-0.105633326 -0.16133521 0.041391388 -0.17727666 0.028135428 -0.11132847 -0.0025770052 -0.012349099
-0.07299908 -0.011485305 -0.044813342 -0.13758838 -0.009828964 -0.08765611 -0.1129341 -0.15255551
-0.016161442 -0.055201985 -0.09955931 -0.10877157 -0.12720236 0.017059566 -0.1805313 0.07133008
0.04890981 -0.025124103 -0.109139845 0.083071634 -0.028992355 0.044985946 0.052596584 -0.09859193
-0.1184286 -0.10265292 -0.058483776 -0.04259105 -0.057315417 -0.036777392 0.04052581 -0.11640848
-0.0071516186 -0.13538092 -0.018763373 0.09452221 -0.07501231 -0.13755152 -0.00484553 -0.23523916
-0.13181867 -0.08045918 -0.105218954 -0.08735695 0.03228597 -0.009236035 -0.08060284 -0.023403682
0.062070567 0.02097631 0.04799434 -0.07077888 -0.030247867 0.039111603 -0.086191796 -0.19766551
-0.009780325 -0.11181072 -0.06973311 -0.045025855 -0.2488335 2.0989344e-05 -0.12036679 -0.05082483
00000000: 11c1 233f d9a2 17be f9a2 8d3f 331c 30be
00000010: 3112 2f3d 128e 2c3f 40c3 d0bf 3752 b9bc
00000020: 4a40 b3bf d1b2 823f 5843 f8bf dda5 613f
00000030: 99c0 4c3f 5aa0 3c3f 6fca 8a3e 6073 c53e
00000040: 4edb b23f 8d19 b2bf 3634 503f c651 92bf
00000050: f5c5 0d3e 16d8 473f 7041 e4bc f0ac c43f
00000060: 440d 20bd 854d 8dbe 8083 c53f 9c71 b4be
00000070: af17 bd3e 05f8 1e3f 2f5e 8b3e 5649 ca3f
00000080: e840 2fbf fef1 dd3d 258e 653f ec5b 223f
00000090: a937 993f 5d91 383f bc90 0f3e 7b06 9d3f
000000a0: c26a a63f 4451 043f c2e5 82be 4516 bc3f
000000b0: 6cd4 5abf b009 99bd 83ac 213f de15 94be
000000c0: c381 123f 3cdc 713e 1ae5 4e3c 90ba bd3f
000000d0: acab 04bd 74c8 583e a058 063f c2c0 0c3e
000000e0: 0d45 163f 1222 c53e fcd1 c2bc 6953 8dbd
000000f0: 1cdf 6abe c7dc c83f ac19 a03e 6f5a 7f3f
00000100: e73a e43c daf0 90bc d995 c0bc ecc7 093d
00000110: 6a7b 13bc 6ca8 6f3d 6842 e83c dce1 0fbd
00000120: 82b9 c93d 435a 43be f826 92bc d9bc b1bd
00000130: 7035 e3bd 7e18 00be bef4 d03d b0a5 c0bd
00000140: c4f8 ad3c 4cee ae3d ffd0 b5bd 284d 993c
00000150: 7aa1 bc3d ab27 03be d0f3 9c3d d2db 1bbe
00000160: c53b d0bd 0c47 753d 8b51 1dbd 1a20 f1bd
00000170: 0cce c33c 0317 91bd 5ae5 4cbd e316 fcba
00000180: c27b 833d 70e7 65bc 3b24 c1bd fcc7 16be
00000190: a864 2fbd 8e89 e7bd 40d6 56bc cc33 7abd
000001a0: 4aa4 34be 3b03 a23d 8699 8e3d f896 a6bd
000001b0: 483f 8abd a8bb 763d 6a30 09be f4ee c3bd
000001c0: dab7 91bd 806b c63d 3245 3b3d 334d bfbd
000001d0: a1df ccbb e665 3cbd bacd 993d ce5e 9fbd
000001e0: 8721 873d eb43 20be 088a f33d 1712 20bc
000001f0: 1a42 debd b5b0 00bc 1d9e aebd 00c1 fbba
00000200: 6587 31be 5b73 7dbd 1b24 b2bd 455c 08be
00000210: 0ebf d8bd 34f7 d2bd 9054 acbc ff97 30be
00000220: 3c14 233d 5e3b 15be 7b88 5c39 f08f c7bd
00000230: 42f3 e53c 9b4d 9b3c 080d 9abd 4e58 90bb
00000240: 140b 07bd e034 0dbd 2f92 ef3c ed15 47bc
00000250: c124 14be 4212 8fbd 376f b4bd d2ad 073d
00000260: c52b 71bc f25a 82bd 8ce7 92bd 36d4 febd
00000270: bd6c b3bd 3cd5 593d a137 abbd ce3a 1a3d
00000280: 4ef5 c63d bb6d 0ebe d2a2 03be cfcc 05be
00000290: 03e8 fcbc 9219 db3c c839 ca3c 7df5 59bc
000002a0: 404b c5bd d140 14be 6221 d9bd 2d24 2ebd
000002b0: 948c 0d3d 0b0d 8abd f491 26be 12b1 03be
000002c0: 60ce a6bd 0278 07be e559 153d 3539 333d
000002d0: 9d20 d7bd 8145 a43c 1f3e 2bbe 7293 2fbe
000002e0: 4956 d8bd 0f35 25be 048a 293d 0388 35be
000002f0: 457c e63c 2e00 e4bd f9e2 28bb e053 4abc
00000300: 8b80 95bd dc2c 3cbc 328e 37bd f8e3 0cbe
00000310: aa09 21bc 0c85 b3bd fe49 e7bd 8337 1cbe
00000320: 0065 84bc 7a1b 62bd c0e5 cbbd a1c3 debd
00000330: 5641 02be 81c0 8b3c 32dd 38be 8115 923d
00000340: a755 483d 10d1 cdbc b684 dfbd 7621 aa3d
00000350: 6081 edbc 2f43 383d 846f 573d 91ea c9bd
00000360: b28a f2bd b23b d2bd af8c 6fbd f473 2ebd
00000370: 92c3 6abd e4a3 16bd 64fe 253d 9267 eebd
00000380: 2058 eabb 4ca1 0abe a5b5 99bc dc94 c13d
00000390: 0ea0 99bd 4eda 0cbe 40c7 9ebb 89e2 70be
000003a0: 79fb 06be c8c7 a4bd 097d d7bd 33e8 b2bd
000003b0: 4b3e 043d bd52 17bc 1a13 a5bd 14b9 bfbc
000003c0: b53d 7e3d 83d6 ab3c b795 443d 84f4 90bd
000003d0: 60ca f7bc 7d33 203d 5385 b0bd d468 4abe
000003e0: a83d 20bc 05fd e4bd 3cd0 8ebd 086d 38bd
000003f0: 36ce 7ebe 4612 b037 dd82 f6bd b22d 50bd

bias f4 [64]
2.862891 -0.118769445 -0.033624586 -0.15278019 2.0315642 2.4806824 1.0845265 -0.017034145
-0.119153336 -0.17952779 -0.03987635 -0.07965348 1.8413869 2.8824933 2.6499166 -0.12623464
1.8669382 2.0079231 -0.07076558 -0.13738517 -0.12349223 0.0035561188 0.039919097 2.3779027
0.05531669 1.8964785 -0.20246331 -0.13952334 -0.15805054 -0.05099979 -0.15894695 -0.15016519
1.991361 1.2091956 -0.23147893 0.09123946 2.5339184 -0.13364679 -0.0012542333 -0.15684585
2.400886 2.0643222 0.020223651 -0.10859445 1.9489683 0.8556978 0.04055514 1.6907052
-0.123410694 0.06007916 2.47293 1.8560268 -0.0146411145 0.019991424 1.4977826 -0.09919966
0.029840173 1.5191565 -0.14126973 2.0080357 0.0065190736 -0.12802166 -0.072091945 -0.11694369
00000000: 9b39 3740 653d f3bd efb9 09bd 6972 1cbe
00000010: 2605 0240 80c3 1e40 c4d1 8a3f 318b 8bbc
00000020: aa06 f4bd 22d6 37be 6255 23bd 5d21 a3bd
00000030: 91b2 eb3f c57a 3840 3c98 2940 a743 01be
00000040: d5f7 ee3f d081 0040 8bed 90bd b3ae 0cbe
00000050: 7fe9 fcbd c60d 693b 3582 233d 8f2f 1840
00000060: c193 623d cfbf f23f 8b52 4fbe 35df 0ebe
00000070: 00d8 21be 28e5 50bd fdc2 22be e7c4 19be
00000080: ebe4 fe3f ecc6 9a3f d008 6dbe c1db ba3d
00000090: b82b 2240 b4da 08be 1665 a4ba 339c 20be
000000a0: 1ea8 1940 db1d 0440 12ac a53c c466 debd
000000b0: cb77 f93f 030f 5b3f 251d 263d 0769 d83f
000000c0: bfbe fcbd 9115 763d 7c44 1e40 4992 ed3f
000000d0: 49e1 6fbc 0ec5 a33c 57b7 bf3f 3129 cbbd
000000e0: 6173 f43c b873 c23f 03a9 10be a883 0040
000000f0: f49d d53b 1c18 03be f1a4 93bd 2c80 efbd

weight f4 [1, 64]
-0.96773326 -0.02800573 -0.051856946 0.04212718 -0.5356451 -0.45148548 0.009197835 -0.040396113
0.019585308 0.039811593 -0.04041931 0.02182388 -0.06319094 -1.0994262 -0.6084336 -0.0034892827
-0.55038416 -0.6972241 0.052702166 -0.072204456 -0.10518514 0.013385203 -0.02798863 -0.7568322
0.014993746 -0.1731569 -0.05816218 0.046178464 0.029622143 -0.0073242886 -0.017584532 -0.06645627
-0.23314366 0.017576186 0.21989946 0.026233193 -0.5423862 0.024685932 0.018997064 -0.013232488
-0.34948304 -0.29384643 0.04913278 0.034303576 -0.34996572 -1.6924156 -0.012449179 -0.059026193
0.03857068 -0.08917481 -2.2247484 -0.103162065 0.33627287 -0.0040194336 -0.004117344 0.09791833
0.022860078 -0.0034724218 0.021217633 -0.36152464 0.007054634 -0.0036741272 0.00787823 -0.050077558
00000000: 5ebd 77bf 466c e5bc f367 54bd 8d8d 2c3d
00000010: 0a20 09bf 1b29 e7be 84b2 163c 6576 25bd
00000020: 5e71 a03c 7b11 233d b88e 25bd fec7 b23c
00000030: 406a 81bd ffb9 8cbf 4ec2 1bbf 73ac 64bb
00000040: fae5 0cbf 477d 32bf 3ade 573d eedf 93bd
00000050: 4f6b d7bd 9c4d 5b3c 6948 e5bc c1bf 41bf
00000060: 54a8 753c 0b50 31be 773b 6ebd a125 3d3d
00000070: 23aa f23c 9600 f0bb 700d 90bc 3a1a 88bd
00000080: 36bd 6ebe effb 8f3c 532d 613e fee6 d63c
00000090: d2d9 0abf 273a ca3c bb9f 9b3c 14cd 58bc
000000a0: 71ef b2be 0a73 96be 743f 493d e881 0c3d
000000b0: b52e b3be 13a1 d8bf a4f7 4bbc 73c5 71bd
000000c0: 4afc 1d3d 48a1 b6bd 4762 0ec0 a246 d3bd
000000d0: f52b ac3e 74b5 83bb c9ea 86bb 6889 c83d
000000e0: 0f45 bb3c 9291 63bb 9ad0 ad3c c219 b9be
000000f0: 8f2a e73b a0c9 70bb b113 013c 201e 4dbd
